data/108800.pth (torch, 31383 bytes, 6 tensors)

weight f4 [64, 33]
0	0x3a9f997d	0.001217648
1	0xbd4d605e	-0.05014073
2	0xbd9af7fe	-0.07566832
3	0xbba7dd1a	-0.005122793
4	0xbb90d8e7	-0.004420388
5	0xbd0dfe21	-0.034666184
6	0xbded49a8	-0.115863144
7	0xbd189f29	-0.037261162
8	0x3c7339cb	0.014845322
9	0x3da6ecc9	0.08150632
10	0x3c2db748	0.01060278
11	0xbd5aa68f	-0.0533815
12	0x3e0f475b	0.13992064
13	0x3e96cb6d	0.29452077
14	0x3daadc5c	0.083428115
15	0xbd3e80cf	-0.04650956
16	0xbb33dac9	-0.0027443639
17	0xbc478bb1	-0.012179301
18	0xbd720f9e	-0.059096925
19	0xbd4691f3	-0.04847903
20	0x3d50a9c6	0.05094316
21	0x3a6d3511	0.000904874
22	0xbd83566f	-0.0641297
23	0xbdd77db9	-0.105220266
24	0xbc46d245	-0.012135093
25	0xbd2accb8	-0.04169914
26	0xbf4b7782	-0.7947923
27	0xbdcccf0d	-0.10000429
28	0x3e0c7dc3	0.1371985
29	0x3c2b566a	0.010457614
30	0x3e02630b	0.12733094
31	0x3d22895e	0.039681785
32	0x3e0a9a65	0.1353546
33	0x3c664bad	0.014056128
34	0xbc463a32	-0.012098836
35	0x3ce8c01d	0.02841192
36	0xbc119a30	-0.008886859
37	0x3ca71605	0.020396242
38	0xbca0e46f	-0.019640176
39	0xbc814a73	-0.01578257
40	0xbc79b6a3	-0.015241298
41	0x3d43b6ef	0.04778188
42	0xbcbc1d00	-0.022963047
43	0xbcf6f913	-0.030148065
44	0xbd85457d	-0.065073945
45	0xbd008957	-0.031380977
46	0xbb63baae	-0.003474872
47	0x3ca5d8bb	0.020244947
48	0x3ccdbb9c	0.025113873
49	0x3cbec089	0.023285167
50	0xbd31d592	-0.043416567
51	0x3ca6f2d7	0.020379467
52	0xbd52ca3c	-0.051462397
53	0x3c1173b2	0.008877682
54	0xbc898119	-0.016785191
55	0x3d4b28f4	0.049599603
56	0xbc16bc33	-0.009200144
57	0x3d67ec63	0.05662192
58	0x3e9d890e	0.30768627
59	0x3e83ee4e	0.2576775
60	0x3eb25a65	0.3483459
61	0x3e9fb62f	0.31193683
62	0xbd45f2e7	-0.048327353
63	0x3d910785	0.07081512
64	0xbd14c73d	-0.03632282
65	0xbd769f2a	-0.060210384
66	0x3379fd06	5.8204954e-08
67	0xb14e68e6	-3.0036573e-09
68	0x327fec8a	1.4896736e-08
69	0xb301cb63	-3.0220132e-08
70	0x32a37916	1.9030761e-08
71	0xb3112a38	-3.379884e-08
72	0x333166a1	4.1304364e-08
73	0xb2f98b85	-2.9050861e-08
74	0x338b6a51	6.492031e-08
75	0xb99eab5c	-0.0003026378
76	0xb99eb5c6	-0.0003027154
77	0x335237c1	4.8945143e-08
78	0xb99f13a9	-0.0003034149
79	0xb99efa31	-0.00030322516
80	0xb99efcab	-0.0003032436
81	0xb99ef1b7	-0.000303162
82	0xb99ebb4d	-0.00030275658
83	0x33258eed	3.8547046e-08
84	0x33ae7a6d	8.1247755e-08
85	0x31a49987	4.7904822e-09
86	0x327df162	1.4781422e-08
87	0xb99ed2ef	-0.00030293266
88	0xb99ed687	-0.00030295944
89	0xb99edc67	-0.0003030032
90	0x334e0119	4.796411e-08
91	0xb99d415e	-0.00029994076
92	0xb99e6710	-0.00030212896
93	0xb99e14c0	-0.00030151568
94	0xb99aa3f2	-0.00029495318
95	0x399cd05d	0.0002990988
96	0xb99e0d17	-0.0003014586
97	0xb99f6754	-0.0003040383
98	0xb99f07c9	-0.00030332644
99	0xb056a67c	-7.8089335e-10
100	0xb051945d	-7.6244594e-10
101	0xb017b5f2	-5.519204e-10
102	0xafae1026	-3.166189e-10
103	0xb0511d23	-7.6075163e-10
104	0xb065d65e	-8.361435e-10
105	0xb049a56b	-7.3358447e-10
106	0xadaddecb	-1.9766763e-11
107	0xaf77d0da	-2.2538718e-10
108	0xb06877b0	-8.4571194e-10
109	0xb02ae2e4	-6.216807e-10
110	0xad1ef770	-9.036202e-12
111	0x3028e8ad	6.1448696e-10
112	0x2d798d5b	1.41853985e-11
113	0xafb5fb33	-3.3102196e-10
114	0xb034a261	-6.5714373e-10
115	0xafa8e28f	-3.0720002e-10
116	0xaf3cec01	-1.7182346e-10
117	0xaf3a35df	-1.693574e-10
118	0xaf53025a	-1.9191174e-10
119	0xaeaefdd6	-7.957694e-11
120	0xafc390c5	-3.5573158e-10
121	0xadcf1407	-2.354207e-11
122	0xaf47f301	-1.8185277e-10
123	0xaff41b1e	-4.440261e-10
124	0xb100f6de	-1.876678e-09
125	0xb09aee38	-1.1272681e-09
126	0xb0ac0ece	-1.2518855e-09
127	0xb0d2d588	-1.53402e-09
128	0x2ea8b319	7.6715696e-11
129	0xaf913704	-2.6414437e-10
130	0xaf54f5ca	-1.936861e-10
131	0x30d7583e	1.5668389e-09
132	0x3adce6c0	0.0016853437
133	0xbd14784f	-0.036247548
134	0x3c2c7689	0.010526308
135	0xbd43f771	-0.0478434
136	0xbc7f411f	-0.015579491
137	0xbd8f2eaf	-0.06991326
138	0xbce31462	-0.02771968
139	0xbd9cd053	-0.07656922
140	0xbc04fbc5	-0.008116667
141	0xbcc0a653	-0.02351681
142	0xbd11748c	-0.03551154
143	0xbdefcd67	-0.11709099
144	0xbd8dfdd1	-0.06933177
145	0xbdb5791b	-0.0886099
146	0xbd2bdb03	-0.041956913
147	0xbcbadaa1	-0.022809329
148	0xbc8613e0	-0.016366899
149	0xbdc80e02	-0.09768297
150	0xbd2ce5aa	-0.042211212
151	0xbdcf6c62	-0.10128094
152	0xbd1aa192	-0.03775174
153	0xbd2f55aa	-0.042806305
154	0x3b2ed967	0.0026679875
155	0xbd40be2b	-0.04705636
156	0x3af4c588	0.0018674592
157	0x3ee827b7	0.453428
158	0x3ec2dbe8	0.380584
159	0x3ee411e4	0.445449
160	0x3ebbd807	0.36688253
161	0xbd555728	-0.05208507
162	0x3e18c4ff	0.14918898
163	0x3d72145e	0.059101455
164	0xbde3cad1	-0.111226685
165	0x3c64ca8d	0.0139643075
166	0xbc4b43d0	-0.0124063045
167	0x3ce6d02d	0.028175438
168	0xbc1c24b9	-0.00953024
169	0x3ca75680	0.020426989
170	0xbca43ddb	-0.020049026
171	0xbc824363	-0.015901273
172	0xbc8311ef	-0.015999762
173	0x3d4194b8	0.04726097
174	0xbcbb9644	-0.0228988
175	0xbcf7d533	-0.030253028
176	0xbd87ee1d	-0.066372134
177	0xbd020406	-0.03174212
178	0xbb8c95aa	-0.0042903023
179	0x3ca5bf7f	0.020232914
180	0x3cce6b3b	0.025197616
181	0x3cbdf066	0.02318592
182	0xbd345eb4	-0.04403563
183	0x3ca637f2	0.020290349
184	0xbd53dac8	-0.051722318
185	0x3c0af73d	0.008481798
186	0xbc908130	-0.017639726
187	0x3d4a4764	0.04938449
188	0xbc1a8de6	-0.009433245
189	0x3d6752e6	0.056475542
190	0x3e9dc8e3	0.30817327
191	0x3e8448ee	0.2583689
192	0x3eb280f0	0.34863997
193	0x3e9fcf2c	0.31212747
194	0xbd460ac9	-0.04835013
195	0x3d9212fd	0.07132528
196	0xbd15278d	-0.03641467
197	0xbd785cf5	-0.060635526
198	0xbc962a16	-0.018330615
199	0xbce9493a	-0.0284773
200	0xbbd578be	-0.0065146377
201	0xbd7ecb6c	-0.062205717
202	0xbcffb5a8	-0.03121455
203	0xbd966ca2	-0.07344939
204	0xbd26e429	-0.040744934
205	0xbdd96d4d	-0.106165506
206	0xbd093029	-0.033493195
207	0xbd00b765	-0.0314249
208	0xbd0f2da1	-0.034955624
209	0xbdc35977	-0.095385484
210	0xbdca8337	-0.098883085
211	0xbe14ab0a	-0.14518371
212	0xbdacc78d	-0.08436499
213	0xbd273f38	-0.040831774
214	0xbd06dadf	-0.032923575
215	0xbdc565d5	-0.096385635
216	0xbd8ce8dd	-0.06880353
217	0xbe02f975	-0.12790473
218	0xbd63853a	-0.055546977
219	0xbcf42939	-0.029804813
220	0xbcba76dc	-0.022761755
221	0xbd88dca6	-0.0668271
222	0xbd011920	-0.0315181
223	0x3ef34377	0.4751241
224	0x3ec28c08	0.3799746
225	0x3ee3435f	0.44387338
226	0x3eb82d43	0.35972032
227	0xbd726ea5	-0.05918755
228	0x3e21a8aa	0.15786996
229	0x3dc00b1b	0.09377118
230	0xbe153374	-0.14570409
231	0x2f0fc4d8	1.3075707e-10
232	0xafe3907d	-4.1393725e-10
233	0xaeb0ef1d	-8.0460284e-11
234	0x2eca34ed	9.195298e-11
235	0xb06680e0	-8.3856655e-10
236	0xaf21d327	-1.4717881e-10
237	0x2f36c745	1.6623598e-10
238	0xaeb926bf	-8.419709e-11
239	0x2fda1ac6	3.9672993e-10
240	0xb0b47a35	-1.3131457e-09
241	0xaf04263f	-1.2018918e-10
242	0x2e3107b9	4.0252e-11
243	0x2dcf36a1	2.3557436e-11
244	0xaf6807b7	-2.1103018e-10
245	0x2f380cfe	1.6739318e-10
246	0xafcdc1b6	-3.7426923e-10
247	0xb0587df9	-7.875936e-10
248	0xafaa8f11	-3.1024475e-10
249	0x2e17c906	3.451197e-11
250	0x2f278b63	1.5238082e-10
251	0x2ee76a50	1.0523549e-10
252	0xaf9a542a	-2.807224e-10
253	0x2e8f24a2	6.5093944e-11
254	0xae8586c5	-6.0720796e-11
255	0xb00014bd	-4.65956e-10

bias f4 [64]
0	0x3d3707d2	0.044685192
1	0x3e459e61	0.19298698
2	0xb9908e1e	-0.00027571706
3	0xb090db88	-1.0539773e-09
4	0x3e8b7bcd	0.2724289
5	0x3e45d26a	0.19318548
6	0x3e8df4f0	0.27725935
7	0xb099e314	-1.1196755e-09
8	0xbdb94865	-0.09047011
9	0x3de5a6fc	0.1121349
10	0xb04f4d50	-7.541603e-10
11	0x3eac6cc3	0.3367673
12	0x3e9f94ac	0.31168115
13	0xb1684ee8	-3.3805296e-09
14	0x3e8f540f	0.2799382
15	0xbd7fa585	-0.06241371
16	0xbe3e3015	-0.1857303
17	0x3e0511d5	0.12995084
18	0x3e2c87c5	0.16848667
19	0x3e4b65c8	0.19863045
20	0xb0059565	-4.859742e-10
21	0xaf76d23a	-2.2448257e-10
22	0x3e562b82	0.20915034
23	0x3e8646e0	0.26225948
24	0x3e1c55bc	0.1526708
25	0xb68c13ad	-4.1746157e-06
26	0xb11c734f	-2.2766533e-09
27	0xafff9af8	-4.6494342e-10
28	0xb1694614	-3.3945797e-09
29	0xb9af961d	-0.00033490444
30	0xb32f51d9	-4.0819803e-08
31	0xbdf6e40d	-0.12055216
32	0xbca71fef	-0.02040097
33	0xb2bbc926	-2.1861137e-08
34	0xbde47024	-0.111542016
35	0xb0cc5b11	-1.4868836e-09
36	0x3e2ee405	0.1707917
37	0xb2723755	-1.4098835e-08
38	0xb06e3f93	-8.667424e-10
39	0xb04e13b8	-7.4970385e-10
40	0xbc7b7fa1	-0.015350253
41	0xb3087b46	-3.1777084e-08
42	0xaca9886a	-4.818414e-12
43	0xbdd3c81c	-0.10340902
44	0xbce6a4e4	-0.028154798
45	0xaca369e7	-4.644496e-12
46	0x3e4d6992	0.20059803
47	0x3e617085	0.22015579
48	0xbe832829	-0.25616577
49	0x3abb82a0	0.0014305897
50	0xba812230	-0.0009852108
51	0xbe1e5aee	-0.15464374
52	0x3e94b4b6	0.29044122
53	0x3e464869	0.1936356
54	0x3e0752c3	0.13215165
55	0xbd087c33	-0.03332157
56	0xad008311	-7.30506e-12
57	0xb33caaf7	-4.3927653e-08
58	0xb15b054b	-3.1871703e-09
59	0xbcf21567	-0.029551221
60	0xb5e518f4	-1.7069092e-06
61	0xbde73e5a	-0.112911895
62	0x3e8db372	0.27675968
63	0xb9f0e9be	-0.0004595052

weight f4 [16, 64]
0	0x3d5761a0	0.052583337
1	0x3e1936f8	0.14962375
2	0xb563b1a0	-8.482257e-07
3	0xae20a4a4	-3.652602e-11
4	0x3e4daefb	0.20086281
5	0x3e19675c	0.14980835
6	0x3e51335b	0.20429747
7	0xb03d3723	-6.8836153e-10
8	0xbedd8dc4	-0.4327222
9	0xbe1db8a7	-0.1540247
10	0x301a36d2	5.610278e-10
11	0xbeb62416	-0.35574406
12	0xbee16557	-0.4402263
13	0xb0bc2d1d	-1.3691622e-09
14	0xbe85457f	-0.26029584
15	0xbf1e4a0f	-0.61831754
16	0xbe80f13f	-0.25184056
17	0x3eb34800	0.3501587
18	0xbe406d12	-0.18791607
19	0x3e17b5f9	0.14815511
20	0xaf8563c1	-2.4263438e-10
21	0xaf6caa4b	-2.1524575e-10
22	0x3e14f993	0.1454833
23	0xbe966a4e	-0.2937798
24	0xbda75771	-0.08170975
25	0xb78a601d	-1.6495638e-05
26	0xb0696383	-8.490632e-10
27	0xaf400a9e	-1.746607e-10
28	0xb15ba1d7	-3.196069e-09
29	0xbac80c8b	-0.0015262527
30	0xb2adeae1	-2.0246661e-08
31	0xbe74d0cf	-0.23907779
32	0xbe28a232	-0.16468123
33	0xb304f095	-3.0952453e-08
34	0xbf34a0bb	-0.70557755
35	0x3054c852	7.7409823e-10
36	0x3ea21bc9	0.31661823
37	0xb3362a01	-4.241338e-08
38	0xaf75a19b	-2.2340034e-10
39	0xafaf7074	-3.1912217e-10
40	0xbef653e8	-0.4811089
41	0xb3124a2a	-3.4060726e-08
42	0x2c97cd98	4.3145036e-12
43	0xbe1007fd	-0.14065547
44	0xbee56dc8	-0.4481032
45	0x2bb27d66	1.2682466e-12
46	0x3e1bc5e3	0.15212207
47	0x3e2f5011	0.17120387
48	0xbf5f23b9	-0.87163883
49	0xbead93b8	-0.33901763
50	0xb249c637	-1.1744809e-08
51	0xbed331af	-0.41248843
52	0xbe9e93c0	-0.309721
53	0x3e19b72f	0.15011285
54	0x3e84049a	0.2578476
55	0xbfc9bd19	-1.5760833
56	0xacc017a1	-5.4595915e-12
57	0xb425cb1c	-1.5440713e-07
58	0xb0dc6a77	-1.6037366e-09
59	0xbc86c8aa	-0.016453106
60	0xb60486bb	-1.9747956e-06
61	0xbec63e73	-0.3871952
62	0xbe160bc8	-0.14652932
63	0x3980ab98	0.0002454191
64	0xbe828749	-0.2549384
65	0x3dfa188d	0.12211714
66	0xb5200110	-5.960619e-07
67	0xb02bf796	-6.256128e-10
68	0x3e411924	0.18857247
69	0x3df9f097	0.12204092
70	0x3e5fbdaf	0.21849702
71	0xb0a60702	-1.2080081e-09
72	0xbf15c938	-0.5851016
73	0x3e8d0fa1	0.27550986
74	0xaf9690f0	-2.7387825e-10
75	0xbec33f47	-0.38134214
76	0xbf0225be	-0.5083884
77	0xb123a7ed	-2.3815077e-09
78	0xbeb3dd68	-0.35129857
79	0xbf846d95	-1.0345942
80	0xbe4d1ef6	-0.20031342
81	0x3e8902fd	0.26760092
82	0xbde53cb9	-0.111932226
83	0x3e0f204d	0.13977166
84	0xaf4a4b19	-1.8398473e-10
85	0xaf68289f	-2.1114709e-10
86	0x3e279229	0.1636435
87	0xbec79ad3	-0.3898531
88	0x3e35fb85	0.17771728
89	0xb753bfd7	-1.2621246e-05
90	0xb0948b3e	-1.0807992e-09
91	0xaf1950d9	-1.3943992e-10
92	0xb18707f4	-3.9299213e-09
93	0xba96a7b5	-0.0011494072
94	0xb2c22003	-2.259913e-08
95	0xbe3e95a0	-0.18611765
96	0xbe231f6d	-0.15929957
97	0xb3213749	-3.7536015e-08
98	0xbf9a7eaa	-1.2069905
99	0x2e8cca3e	6.402388e-11
100	0x3d24ae19	0.040205095
101	0xb3331bf8	-4.1702123e-08
102	0xaf749db3	-2.2247697e-10
103	0x2ea0edbc	7.318188e-11
104	0xbf907b0b	-1.128755
105	0xb3287734	-3.9223963e-08
106	0xac6ad378	-3.3370789e-12
107	0xbe417087	-0.18890582
108	0xbf928e63	-1.1449703
109	0x2b839843	9.350371e-13
110	0x3e06db14	0.13169509
111	0x3e0a4dad	0.13506193
112	0xbf22831d	-0.63481313
113	0xbec362df	-0.3816137
114	0xb067a40c	-8.4270435e-10
115	0xbeac538d	-0.33657494
116	0xbeb87136	-0.36023873
117	0x3dfa3e66	0.12218933
118	0x3e99bb49	0.300257
119	0xbf0048f0	-0.50111294
120	0x2ca09aaa	4.5646447e-12
121	0xb40ccba3	-1.3112599e-07
122	0xb0d534a0	-1.5512747e-09
123	0xbcba4b81	-0.022741081
124	0xb5e4e13b	-1.7052874e-06
125	0xbf1f3b10	-0.621995
126	0xbe8bdbd6	-0.2731616
127	0xbb1be7f2	-0.0023789373
128	0xae0e5f36	-3.2371626e-11
129	0xae8295a0	-5.938294e-11
130	0xaecda5e0	-9.351786e-11
131	0xad1b9ee3	-8.84601e-12
132	0xaecae126	-9.225891e-11
133	0xae7de5a2	-5.7729495e-11
134	0xaeb35a7f	-8.156053e-11
135	0xae6778d7	-5.2630646e-11
136	0x2d239ee2	9.300756e-12
137	0x2b407ec1	6.838801e-13
138	0xad406edf	-1.0938555e-11
139	0xadfe8d0c	-2.8939094e-11
140	0xae3edaa7	-4.33952e-11
141	0xacdd7c6c	-6.2950114e-12
142	0xacbb63b0	-5.325927e-12
143	0xae17a9e0	-3.4484304e-11
144	0xada36122	-1.857409e-11
145	0xadf99912	-2.8376e-11
146	0xae148ea4	-3.3777994e-11
147	0xae6887b8	-5.2871235e-11
148	0x2db07697	2.0061548e-11
149	0xaca0bf67	-4.5687234e-12
150	0x2dce271e	2.343686e-11
151	0xae21faf6	-3.683006e-11
152	0xac80981b	-3.654866e-12
153	0x2dc38ed7	2.2232367e-11
154	0xac825e8e	-3.70532e-12
155	0x2bd447ca	1.5083431e-12
156	0x2de5c0b6	2.6119867e-11
157	0xae6a5b70	-5.3286653e-11
158	0xadade75a	-1.9770564e-11
159	0xae38fc71	-4.206097e-11
160	0x2d32249c	1.01262575e-11
161	0xad823bb7	-1.4805808e-11
162	0xadf92659	-2.8325052e-11
163	0xad80c340	-1.4638624e-11
164	0xae541244	-4.8219442e-11
165	0xad09980a	-7.821308e-12
166	0xacee7f37	-6.7784905e-12
167	0x2cea85cf	6.6655357e-12
168	0x2a986ead	2.707742e-13
169	0xad19b061	-8.736207e-12
170	0x2c85d2b2	3.8034792e-12
171	0x2d3b3373	1.0641143e-11
172	0x2dc21706	2.2065471e-11
173	0xabb21745	-1.2654119e-12
174	0xae8a6eab	-6.295172e-11
175	0xae8d3444	-6.421222e-11
176	0xad814a0d	-1.4698487e-11
177	0x2e13c982	3.3602905e-11
178	0x2c8dfc0e	4.0354447e-12
179	0xadd9bef5	-2.4754846e-11
180	0xadab67cb	-1.9486543e-11
181	0xae828752	-5.935753e-11
182	0xae30fec7	-4.0244055e-11
183	0x2e294b14	3.8492834e-11
184	0xac81c820	-3.688619e-12
185	0xae0cbf5d	-3.200228e-11
186	0x2cc06f51	5.469327e-12
187	0x2d2efcaa	9.946858e-12
188	0xad3b5d98	-1.0650501e-11
189	0xad11297e	-8.251509e-12
190	0x2cae5a0b	4.9553742e-12
191	0xae34787d	-4.1034277e-11
192	0x3c115da0	0.00887242
193	0x3d070128	0.032960087
194	0xb98d6b92	-0.00026973762
195	0x30848440	9.641852e-10
196	0x3b4bc89d	0.0031094917
197	0x3d0454e2	0.032307513
198	0xbbfa7289	-0.007643048
199	0x307cff0d	9.2039515e-10
200	0xbc2ffc3b	-0.010741289
201	0x3eb37ae5	0.350547
202	0x2e9ca7eb	7.123887e-11
203	0x3ec29d1b	0.38010487
204	0x3f057481	0.52130896
205	0x30ee79f5	1.7351441e-09
206	0x3ea3c3cf	0.31985328
207	0xbba2c4fb	-0.0049673296
208	0x3e975d95	0.29563585
209	0xbd93ab7c	-0.072104424
210	0x3e817266	0.25282592
211	0x3d89d373	0.06729784
212	0x2ffb2aeb	4.568713e-10
213	0x2f6d2675	2.1568687e-10
214	0x3dc8a58b	0.097972
215	0x3eb9c126	0.36280173
216	0x3dbfe85e	0.093704924
217	0x3712d9c2	8.752979e-06
218	0x31073155	1.9673128e-09
219	0x3000672e	4.6712756e-10
220	0x318d7306	4.1167167e-09
221	0x3a7c2252	0.0009618151
222	0x311cb543	2.2804023e-09
223	0x3ea846ed	0.32866612
224	0x3e18971b	0.14901392
225	0x31b1cd0e	5.17469e-09
226	0x3d09752a	0.033559002
227	0x304d53e7	7.46978e-10
228	0xbedecbe9	-0.43514946
229	0x33142292	3.4490377e-08
230	0x3056fe23	7.8213896e-10
231	0x30739984	8.8621044e-10
232	0x3ce558dd	0.027996475
233	0xb21e3716	-9.2093355e-09
234	0x2d1bbd79	8.852801e-12
235	0x3f041dab	0.5160777
236	0x3c4c4382	0.012467267
237	0x2b1e91e3	5.6335335e-13
238	0x3d349eb3	0.04409666
239	0xba6185e3	-0.00086030195
240	0x3f1f32e9	0.6218706
241	0x3d784f09	0.06062225
242	0xba7e88ae	-0.0009709698
243	0x3efb445e	0.49075598
244	0x3eccb702	0.39983374
245	0x3d02244c	0.031772897
246	0xbd679b55	-0.05654462
247	0x3fadfa2e	1.3591974
248	0xac994e45	-4.357211e-12
249	0x33d4e8ce	9.914366e-08
250	0x3137e0d6	2.675781e-09
251	0x3d7fe396	0.062472902
252	0x355274dc	7.840115e-07
253	0xbc17da3d	-0.009268341
254	0x3dc67009	0.09689338
255	0x3b6a1f14	0.003572409

bias f4 [16]
0	0x3ec211c5	0.37904182
1	0x3ebdf12b	0.3709806
2	0xae909ff2	-6.576774e-11
3	0x3d1e3813	0.038627695
4	0xb02ff1c7	-6.4008215e-10
5	0xb2d1fb9f	-2.4445226e-08
6	0x3df92c4e	0.121666536
7	0x3d144f74	0.036208585
8	0x3f11d16a	0.56960166
9	0x3dde8b44	0.108664066
10	0xb81b39da	-3.700876e-05
11	0xbd206133	-0.039155196
12	0x3e02b955	0.12766011
13	0x3ec712d2	0.38881546
14	0x3e022941	0.1271105
15	0xbd477875	-0.04869886

weight f4 [4, 16]
0	0x3f081eea	0.5317217
1	0x3f128a9b	0.57242745
2	0xacb813a9	-5.2317773e-12
3	0xbebcdbcf	-0.3688645
4	0xb163e101	-3.3160747e-09
5	0xabb794d7	-1.3044243e-12
6	0xbe640a39	-0.22269525
7	0xbe80642b	-0.25076422
8	0x3e861d3b	0.26194176
9	0x3ea6b15e	0.32557195
10	0x38100c56	3.4343764e-05
11	0xbdeaabf5	-0.114585795
12	0x3d316b1e	0.043315046
13	0x3efced4d	0.49399796
14	0x3cdefe84	0.027220972
15	0xbfb45718	-1.4089079
16	0x3f05d7c2	0.52282345
17	0x3f0d3eed	0.5517414
18	0x2d8958b2	1.5614485e-11
19	0xbeb00188	-0.34376168
20	0xaccd982f	-5.843346e-12
21	0xac2705f8	-2.373544e-12
22	0x3d7280b4	0.059204772
23	0xbe7d61d6	-0.24744353
24	0x3e852dce	0.2601151
25	0x3e90f42e	0.28311294
26	0x380c3476	3.342746e-05
27	0xbfbfbd01	-1.4979554
28	0xbe8f875b	-0.28032956
29	0x3f070698	0.52744436
30	0xbb888a61	-0.0041668867
31	0xbdccb8c4	-0.09996179
32	0x3f0cebb8	0.5504718
33	0x3f1b46f5	0.60655147
34	0xad6399d5	-1.2937614e-11
35	0xbf536d32	-0.82588494
36	0x2d05bdd1	7.602322e-12
37	0x2cac87b7	4.9036014e-12
38	0xbe92c3bf	-0.28664967
39	0x3d7e856c	0.06213896
40	0x3e47210c	0.194462
41	0xbf5a2f4c	-0.8522842
42	0x3776a53a	1.4701212e-05
43	0xbc8f8867	-0.017521096
44	0xbeafe9f8	-0.34358191
45	0x3efa76f9	0.48918894
46	0xbe2cf588	-0.16890538
47	0xbc82ff55	-0.015990892
48	0x3ef703ee	0.48245186
49	0x3f200517	0.62507766
50	0xaa86df1c	-2.3957995e-13
51	0x3d82a632	0.063793555
52	0xac0585f5	-1.8974798e-12
53	0x3394cfa9	6.92956e-08
54	0xbed9e112	-0.42554528
55	0xbf5455c2	-0.82943356
56	0x3e5437c7	0.20724402
57	0x3e4f1a3e	0.20224854
58	0x335f19c1	5.1944657e-08
59	0xbd1510b3	-0.03639288
60	0xbec33dbd	-0.3813304
61	0x3f0b2304	0.54350305
62	0xbf046907	-0.5172276
63	0xbd21e9b9	-0.039529536

bias f4 [4]
0	0x3e98250a	0.2971576
1	0x3e9437ea	0.2894891
2	0xbc8d5fbe	-0.017257567
3	0x3be49d63	0.00697677
