data/113600.pth (torch, 32023 bytes, 6 tensors)

weight f4 [64, 33]
000000 df 9b c0 3d 64 82 c3 bc 6f 22 fb 3c 2a 72 1f bc
       0.0940473 -0.023865886 0.030656068 -0.009731809
000010 00 8d ac bb 3f 05 03 3c 71 20 bc 3b bb 31 48 bc
       -0.005265832 0.007996856 0.005741172 -0.012218888
000020 45 7d 21 3d ff 0f 08 3e 3d e1 be 3d 03 ec 74 3d
       0.039426107 0.13287352 0.093203045 0.05979539
000030 83 b4 f3 3d bb 47 12 3e aa 13 b2 3b 7c 30 65 bc
       0.11899664 0.14285176 0.005434473 -0.01398861
000040 cd 5e 91 3c fe ba 5c 3d 0c e9 62 3d 3d 33 87 3b
       0.0177454 0.053889267 0.055398032 0.004125981
000050 b6 9f bf 3c c2 72 ad 3c 91 cd c7 3c 1b 64 ff 39
       0.023391586 0.021172885 0.024390014 0.00048711975
000060 3a dd 52 3d d6 14 8d be e7 33 22 bf 61 76 88 be
       0.05148051 -0.2755496 -0.63360447 -0.26652816
000070 a5 d1 7a 3c e3 1f 33 3b 44 bb 95 3d a8 ce 99 3d
       0.015308772 0.0027332238 0.07311109 0.0751012
000080 14 97 06 3e 36 e4 b9 bb 87 0a 6d bd 83 8e e6 3c
       0.13143569 -0.005672957 -0.057871368 0.028144127
000090 24 04 96 bb 11 f1 55 bc 00 88 8b bd c5 be a5 bc
       -0.0045781303 -0.013057963 -0.06813049 -0.020232568
0000a0 c0 77 69 bd 00 da be 3b 31 9f 9b bc f9 32 5c bd
       -0.056998968 0.0058243275 -0.018996807 -0.05375955
0000b0 a1 ed 87 bd 73 5c 1c bc 62 4a 5a bb 0b 1e a6 3c
       -0.06637121 -0.009543526 -0.0033308496 0.020277997
0000c0 cd 8f 0d 3c 0f f1 80 3c 87 26 57 3c 82 33 47 bc
       0.008640242 0.015739946 0.013131744 -0.0121582765
0000d0 8c 07 e2 bb 74 43 94 3b 46 70 35 bd 1c 44 4e bc
       -0.0068978723 0.0045246426 -0.044296525 -0.012589481
0000e0 98 3d b7 3b fe f9 b1 3c 77 f0 1e 3e cc 54 22 3e
       0.0055920593 0.02172565 0.15521418 0.1585266
0000f0 00 b6 3d 3e 60 6c 08 3e 11 4f 04 3d 73 f9 44 3d
       0.18526459 0.13322592 0.032301966 0.048089456
000100 c6 d2 11 be 81 02 a8 bd ce 47 8b 32 f9 03 66 b0
       -0.1424056 -0.082036026 1.6214383e-08 -8.367916e-10
000110 6c 96 8e 31 d6 a3 10 b2 4a 26 b6 31 4d c2 21 b2
       4.149845e-09 -8.419155e-09 5.30125e-09 -9.415612e-09
000120 cf ae 45 32 43 09 0b b2 42 59 9b 32 ee ca b0 b8
       1.1506656e-08 -8.092971e-09 1.8084965e-08 -8.4301326e-05
000130 b0 d6 b0 b8 c4 3f 6a 32 ad 40 b1 b8 ef 23 b1 b8
       -8.432323e-05 1.3635091e-08 -8.4520645e-05 -8.446711e-05
000140 b9 26 b1 b8 5d 1a b1 b8 ee dc b0 b8 dd 7e 38 32
       -8.44723e-05 -8.444928e-05 -8.433485e-05 1.0739055e-08
000150 1e 6d c2 32 cb 6a b7 30 6c 7a 8d 31 9d f7 b0 b8
       2.2634193e-08 1.3345355e-09 4.117558e-09 -8.4384556e-05
000160 ab fb b0 b8 4d 02 b1 b8 2d 8f 65 32 ca 3c af b8
       -8.439211e-05 -8.440446e-05 1.3362109e-08 -8.355973e-05
000170 e8 7e b0 b8 9f 24 b0 b8 5b 50 ac b8 d7 c0 ae 38
       -8.415972e-05 -8.399155e-05 -8.2165665e-05 8.332886e-05
000180 3a 1c b0 b8 26 9f b1 b8 47 33 b1 b8 15 30 6f af
       -8.3975916e-05 -8.4696614e-05 -8.449569e-05 -2.1754006e-10
000190 73 88 69 af 60 11 29 af 57 f6 c1 ae b2 02 69 af
       -2.1239703e-10 -1.5376633e-10 -8.8203826e-11 -2.1192184e-10
0001a0 e6 0e 80 af e0 b5 60 af 2c bf c1 ac dc 13 8a ae
       -2.329365e-10 -2.0437296e-10 -5.5066143e-12 -6.279041e-11
0001b0 f5 84 81 af bf 6e 3e af d2 20 31 ac 2c 37 3c 2f
       -2.3559435e-10 -1.7319744e-10 -2.5171432e-12 1.7118101e-10
0001c0 47 0a 8b 2c 2e cb ca ae 2b 49 49 af 52 30 bc ae
       3.9517586e-12 -9.2219885e-11 -1.8306838e-10 -8.5578336e-11
0001d0 74 85 52 ae 00 7f 4f ae 12 23 6b ae fb ff c2 ad
       -4.7867002e-11 -4.717915e-11 -5.3463962e-11 -2.2168925e-11
0001e0 6f ea d9 ae 7d c4 e6 ac c1 cb 5e ae a3 fd 07 af
       -9.909661e-11 -6.5588078e-12 -5.0657926e-11 -1.2368288e-10
0001f0 d2 b5 0f b0 89 a4 ac af 78 ba bf af cd f0 ea af
       -5.228148e-10 -3.1403527e-10 -3.4875192e-10 -4.273545e-10
000200 1b fb bb 2d ed d0 a1 ae 25 50 6d ae fd f6 ef 2f
       2.1370952e-11 -7.358545e-11 -5.3958744e-11 4.3649342e-10
000210 3f a0 3d 3d 07 32 96 3c 76 02 8e 3d 2a 8e 78 bc
       0.0462954 0.018334402 0.06934063 -0.015170613
000220 df 6b 6b 3c f9 a6 32 bd ba 3a 22 3c c4 b4 3e bd
       0.01436898 -0.04361627 0.009901697 -0.04655911
000230 90 7c 38 bc 2c 2c 09 3c 92 84 ff bb ab 90 7a bd
       -0.011260167 0.008372348 -0.007797786 -0.061173122
000240 ed 68 46 bd 75 3f 55 bd c5 6d 1d bd e9 58 16 bc
       -0.04843991 -0.05206247 -0.038434763 -0.009176471
000250 8f 02 4d bc 51 ac 80 bd 1f ff e7 3b cf 9f 97 bd
       -0.012512817 -0.06282867 0.0070799734 -0.07403528
000260 e7 6d 90 bc 85 34 39 bd 8f fb 0c 3d b3 65 29 bd
       -0.01763053 -0.045216102 0.034419592 -0.041356754
000270 01 76 38 3c 09 1a f0 3e 90 e1 af 3e cf f0 e2 3e
       0.011258603 0.46894863 0.34351778 0.44324347
000280 70 57 d0 3e 76 70 62 bd 28 34 18 3e 0b 79 e9 3d
       0.4069171 -0.055283032 0.14863646 0.1140004
000290 06 6c b7 bd c5 b1 63 3d 7e ab 17 be 92 7c 00 3d
       -0.08956151 0.055589456 -0.14811513 0.0313688
0002a0 e8 50 21 bd c5 7f 7a 3c 32 25 00 be c3 48 82 bd
       -0.0393838 0.015289252 -0.12514189 -0.063615344
0002b0 73 8c c1 bc a6 51 05 bd 6c 7a be bc c7 17 88 bd
       -0.023626542 -0.03254857 -0.023251735 -0.0664516
0002c0 6e 8e 2a be 93 37 a9 bd 15 31 85 3d 6b 35 e5 3c
       -0.16655895 -0.08262553 0.06503502 0.027979573
0002d0 49 6f f5 3b 61 b1 a2 3c c9 58 a5 bc a1 ae dd 3c
       0.007490073 0.019859971 -0.020183938 0.027060809
0002e0 66 ff a0 3c 65 13 92 3c c9 3d e7 bc 9d 4a 16 3d
       0.019653033 0.017831514 -0.028227704 0.03669225
0002f0 20 c8 b2 3c f6 ef 12 3d 21 40 2c 3e 9e 56 37 3e
       0.021823943 0.035873376 0.16821338 0.17904136
000300 75 26 86 3e 39 d9 3a 3e c4 67 2e bd 4e f7 2d bd
       0.26201215 0.18246926 -0.042579427 -0.042472176
000310 3b 9e c1 bd b8 3f bc bd a8 d7 f4 3c 5b a4 a4 3c
       -0.09454008 -0.09191841 0.02988799 0.020097902
000320 7a 37 5e 3d 3d b0 ba bc ff 38 2e 3c 9a 0b 35 bd
       0.054252125 -0.022789115 0.010633706 -0.044200517
000330 76 71 78 ba 16 3e 75 bd a5 6b bd bc 51 a6 15 bb
       -0.0009477356 -0.059873663 -0.023122618 -0.0022834728
000340 4c c1 5b bc ce 9c 60 bd 08 18 95 bd 0b 74 a5 bd
       -0.013412785 -0.05483704 -0.07279974 -0.08078774
000350 7b 13 7d bd 24 bd b8 bc b1 da 94 bc 7c c8 81 bd
       -0.061786156 -0.022551127 -0.018170686 -0.063370675
000360 65 c9 28 bc aa 92 b4 bd 72 ed ef bc 5e fa 1a bd
       -0.010301922 -0.088170364 -0.029288027 -0.037836425
000370 54 93 6f 3c b6 c2 4c bd cb 25 2f bc 10 84 f6 3e
       0.014622528 -0.04999038 -0.010690163 0.4814763
000380 b2 22 ac 3e 8a d7 df 3e bd a2 ce 3e ea 63 63 bd
       0.3362022 0.4371913 0.40358534 -0.055515207
000390 32 90 1c 3e 99 c0 06 3e bc ad ef bd d0 32 20 2e
       0.15289381 0.13159408 -0.11703059 3.642492e-11
0003a0 78 95 fd ae a3 29 c5 ad c8 57 e1 2d a0 6d 80 af
       -1.1531659e-10 -2.2414797e-11 2.5618521e-11 -2.3360958e-10
0003b0 09 56 34 ae f1 ad 4b 2e e6 50 ce ad 48 0a f3 2e
       -4.1003676e-11 4.6311347e-11 -2.3455415e-11 1.1052187e-10
0003c0 67 1c c9 af 4c 41 13 ae 0f 45 45 2d 66 eb e6 2c
       -3.6581868e-10 -3.3481926e-11 1.1213488e-11 6.5631276e-12
0003d0 c0 46 81 ae d8 17 4d 2e e3 47 e5 ae b3 3f 71 af
       -5.8788086e-11 4.663278e-11 -1.0426484e-10 -2.1941453e-10
0003e0 c4 10 be ae 5d 26 29 2d e5 b0 3a 2e 50 ef 00 2e
       -8.643178e-11 9.615056e-12 4.2448618e-11 2.9316383e-11
0003f0 f2 f5 ab ae 6e 81 9f 2d 7f ca 94 ad 8c b8 0e af
       -7.8198684e-11 1.8133686e-11 -1.6915578e-11 -1.2980389e-10

bias f4 [64]
000000 0d 82 9a bd 8c 6c c2 3d a5 11 a1 b8 62 68 a1 af
       -0.075443365 0.0949336 -7.680365e-05 -2.9359898e-10
000010 b9 75 94 3e 8a 36 97 3d de a6 94 3e 3b 76 ab af
       0.28996065 0.073834494 0.2903356 -3.1188727e-10
000020 97 91 c1 bd ac 79 f3 3d ec 04 67 af 7c 0e ae 3e
       -0.09451597 0.118884414 -2.1011076e-10 0.33995426
000030 8c 6e b5 3e 4d 6e 81 b0 80 c9 8c 3e 93 b5 b4 bd
       0.35435903 -9.417335e-10 0.27497482 -0.08823695
000040 73 df 63 be 88 eb 04 3e f0 e3 c4 3d ba 7b ab 3d
       -0.22253208 0.12980473 0.09613788 0.08373208
000050 cf da 14 af a2 84 89 ae 17 ac 5b 3e 14 85 65 3e
       -1.3538258e-10 -6.253599e-11 0.21452366 0.22414047
000060 b2 48 21 3e 70 15 9c b5 ca 5a 2e b0 c0 68 0e af
       0.15750387 -1.1629145e-06 -6.342985e-10 -1.295204e-10
000070 a6 f6 81 b0 2e aa c3 b8 e2 5d 43 b2 f4 28 08 be
       -9.456087e-10 -9.330023e-05 -1.137184e-08 -0.13296872
000080 0a b0 c3 bd 2a 43 d1 b1 47 d2 96 bd 29 b5 e3 af
       -0.09555061 -6.0903362e-09 -0.07364326 -4.1419781e-10
000090 98 ca 29 3e bc f1 86 b1 d5 bf 84 af 21 a4 65 af
       0.1658119 -3.9273953e-09 -2.4146965e-10 -2.0885739e-10
0000a0 ca 89 27 bc c4 16 18 b2 45 ea bc ab 63 d9 37 be
       -0.010225723 -8.852741e-09 -1.3423226e-12 -0.1795402
0000b0 8a 22 96 bb 37 15 b6 ab ac c7 12 3e 95 4a 84 3e
       -0.004581754 -1.2937766e-12 0.14333981 0.25838152
0000c0 e3 f1 83 be 85 c7 31 3b 56 e6 8f b9 9a 71 30 bd
       -0.25770482 0.002712698 -0.000274467 -0.04307709
0000d0 a6 2d 90 3e 2a b9 1e 3e 4f 9d f3 3d 23 d3 1a bd
       0.28159827 0.15500322 0.118952386 -0.037799012
0000e0 1e 34 0f ac 62 3d 52 b2 33 0f 74 b0 f7 de 06 bc
       -2.0350453e-12 -1.2237566e-08 -8.878828e-10 -0.00823187
0000f0 52 4b ff b4 5d 1e cb bd 89 a8 17 3e 32 39 06 b9
       -4.7552254e-07 -0.09917901 0.14810385 -0.00012800543

weight f4 [16, 64]
000000 d1 ed 82 bc 8d f7 20 bd 20 bb 7d b4 69 05 33 ad
       -0.01598254 -0.039298583 -2.3630537e-07 -1.0176173e-11
000010 59 e1 63 3e ad f6 86 3d 57 37 66 3e b6 d8 52 af
       0.22253932 0.065900184 0.22482048 -1.917638e-10
000020 fd d7 d9 be 8e 51 ea bd af d4 2b 2f 30 e3 07 bf
       -0.42547598 -0.114413366 1.562792e-10 -0.53081036
000030 c5 5a 00 bf ec b1 d1 af 78 97 dc be 61 de 2b bf
       -0.50138503 -3.81433e-10 -0.4308431 -0.671362
000040 91 49 69 be be 43 a7 3e b0 b6 45 be d7 e9 fd 3c
       -0.2278197 0.3266887 -0.19307971 0.030995293
000050 70 a3 94 ae 46 db 83 ae 68 1a 27 3e e7 b0 b1 be
       -6.759293e-11 -5.996141e-11 0.16318667 -0.34705278
000060 20 5e b9 3c 7a 31 9a b6 a5 06 82 af 73 03 56 ae
       0.02262789 -4.5953175e-06 -2.3651583e-10 -4.866103e-11
000070 f3 bd 74 b0 90 e8 de b9 ae cc c1 b1 04 c7 88 be
       -8.9036617e-10 -0.00042516412 -5.6403087e-09 -0.26714337
000080 b2 f8 2a be fa 22 14 b2 67 bc 24 bf 54 1e 6d 2f
       -0.16696432 -8.622687e-09 -0.6434998 2.1565799e-10
000090 5b 46 9f 3e 2f ff 4a b2 4a d9 88 ae 15 80 c3 ae
       0.31108364 -1.18159695e-08 -6.223162e-11 -8.890325e-11
0000a0 8d 2a cf be a7 07 23 b2 64 2b a9 2b a9 85 4b be
       -0.4046215 -9.489589e-09 1.2020216e-12 -0.19875206
0000b0 93 a4 b1 be 70 e5 c6 2a 67 52 03 3e 39 94 4d 3e
       -0.34695873 3.533107e-13 0.12824403 0.20076074
0000c0 df 95 8b bf 47 ba be be dd da 60 b1 30 58 eb bd
       -1.0905112 -0.37251493 -3.27207e-09 -0.1149143
0000d0 e9 8a c7 be 0c fa fd 3d 54 8b 87 3e 28 06 ce bf
       -0.38973168 0.12401208 0.26473486 -1.6095629
0000e0 d1 11 d6 ab 90 c2 38 b3 e4 9d f5 af 88 31 96 bb
       -1.521056e-12 -4.3017792e-08 -4.4677428e-10 -0.0045835413
0000f0 ea ac 13 b5 b9 ec d9 be 19 77 7e bd 82 61 8f 38
       -5.501339e-07 -0.42563418 -0.0621253 6.8369336e-05
000100 69 03 4f be e4 b7 4a bd ba 4c 32 b4 36 a1 3f af
       -0.20216145 -0.049491778 -1.6605455e-07 -1.7428622e-10
000110 ab 2b 4d 3e 8e e3 9e bc 7b 4d 5d 3e f5 05 b9 af
       0.2003619 -0.019395616 0.21611588 -3.3655537e-10
000120 49 66 fe be ec e4 6c 3e 78 ca a7 ae 14 db 0a bf
       -0.49687412 0.23134202 -7.6302464e-11 -0.54240537
000130 dd 20 1b bf fd 5a 36 b0 91 54 e1 be 52 13 8f bf
       -0.6059702 -6.6340516e-10 -0.44009832 -1.1177771
000140 af 94 33 be eb 47 72 3e 40 b3 d9 bd 02 df b7 3d
       -0.17537187 0.23660247 -0.10629892 0.08978082
000150 65 70 61 ae 08 59 81 ae ad 23 2e 3e 5b 44 96 be
       -5.1258903e-11 -5.882056e-11 0.17005797 -0.29349026
000160 28 b5 43 3e af f7 6b b6 6d 84 a5 af 61 d5 2a ae
       0.19112074 -3.51619e-06 -3.010742e-10 -3.8843043e-11
000170 21 78 96 b0 61 e4 a7 b9 fc 50 d8 b1 64 01 41 be
       -1.0948079e-09 -0.00032022878 -6.2956342e-09 -0.18848187
000180 93 7c 2c be fa aa 33 b2 cc 3e 92 bf 67 e6 9c 2d
       -0.16844396 -1.0458047e-08 -1.1425414 1.7837466e-11
000190 e6 8d 39 3d 22 96 47 b2 16 47 88 ae ee 57 b3 2d
       0.04530134 -1.1617461e-08 -6.1971914e-11 2.0388993e-11
0001a0 26 87 8b bf f3 b7 3b b2 28 d1 82 ab 31 87 6a be
       -1.0900619 -1.0926658e-08 -9.295108e-13 -0.22903134
0001b0 b6 cb 8d bf ee a2 92 2a a4 6b 85 3d bf 16 1f 3e
       -1.1077793 2.6047865e-13 0.065146714 0.1553602
0001c0 f4 79 77 bf 07 9a a2 be 61 0f 81 af 6c 05 c0 bd
       -0.9667046 -0.3175814 -2.347589e-10 -0.09376034
0001d0 72 ad b1 be 36 fa c3 3c 7e b1 94 3e bd c6 05 bf
       -0.3470264 0.02392302 0.29041666 -0.52256376
0001e0 24 fa b2 2b 00 e8 1c b3 f7 94 ed af a3 97 cf bb
       1.2717089e-12 -3.6532583e-08 -4.3215895e-10 -0.006335215
0001f0 68 0d ff b4 46 74 14 bf 74 7d ad be 8f bf 2d ba
       -4.7507206e-07 -0.5798992 -0.33884776 -0.0006627971
000200 db a6 1e ad 12 86 91 ad 8e 28 e5 ad c4 6c 2d ac
       -9.0183095e-12 -1.654413e-11 -2.6052296e-11 -2.4645156e-12
000210 78 15 e2 ad d6 73 8d ad d2 db c7 ad 60 f7 80 ad
       -2.570276e-11 -1.6081286e-11 -2.27213e-11 -1.4661772e-11
000220 d1 50 36 2c ce 83 56 2a 40 72 56 ac 98 d1 0d ad
       2.5908618e-12 1.9052747e-13 -3.047465e-12 -8.061461e-12
000230 b6 aa 54 ad b4 cf f6 ab bc d2 d0 ab 19 04 29 ad
       -1.208871e-11 -1.7537e-12 -1.4837779e-12 -9.607448e-12
000240 59 0b b6 ac bc 10 0b ad 2d 88 25 ad dd 8d 81 ad
       -5.174011e-12 -7.904951e-12 -9.409401e-12 -1.4728602e-11
000250 10 a5 c4 2c a0 23 b3 ab f8 b9 e5 2c 91 81 34 ad
       5.5889807e-12 -1.2728603e-12 6.529218e-12 -1.0260585e-11
000260 ae 4b 8f ab 40 e8 d9 2c aa 48 91 ab 32 90 ec 2a
       -1.0181766e-12 6.193296e-12 -1.0323038e-12 4.2022077e-13
000270 de 02 00 2d 64 8d 82 ad bb c8 c1 ac e9 21 4e ad
       7.276594e-12 -1.4842079e-11 -5.5076755e-12 -1.1717274e-11
000280 82 82 46 2c a4 21 91 ac 83 d1 0a ad 00 7c 8f ac
       2.8209939e-12 -4.1248827e-12 -7.890913e-12 -4.078071e-12
000290 25 54 6c ad 2c 53 19 ac 08 e3 04 ac 44 a5 02 2c
       -1.3433731e-11 -2.1788777e-12 -1.8884356e-12 1.8565852e-12
0002a0 97 dc a9 29 76 3e 2b ac 30 1f 95 2b 46 9d 50 2c
       7.543374e-14 -2.4335234e-12 1.0595743e-12 2.9645882e-12
0002b0 0a 47 d8 2c a3 73 c6 aa a6 41 9a ad e3 5b 9d ad
       6.146976e-12 -3.5252105e-13 -1.7536927e-11 -1.788964e-11
0002c0 fc 12 90 ac a7 ae 24 2d 14 39 9e 2b ec a5 f2 ac
       -4.094834e-12 9.361101e-12 1.1242418e-12 -6.8964747e-12
0002d0 c2 03 bf ac 52 76 91 ad 19 3b 45 ad 82 a5 3c 2d
       -5.4289637e-12 -1.6537136e-11 -1.1211276e-11 1.0723313e-11
0002e0 30 a0 90 ab e8 d9 1c ad be 72 d6 2b ab fe 42 2c
       -1.0276276e-12 -8.915958e-12 1.5237462e-12 2.7710427e-12
0002f0 f7 cb 50 ac 7c c1 21 ac ec 48 c2 2b 7b 1a 49 ad
       -2.96718e-12 -2.2986881e-12 1.3804769e-12 -1.1431407e-11
000300 b1 ac 40 3e b3 b3 06 3e 1d 99 9d b8 27 aa 93 2f
       0.18815877 0.13154487 -7.514863e-05 2.6860045e-10
000310 89 7f 53 3c 08 ea 01 3d a2 2c b5 3b 6a f1 8c 2f
       0.012908825 0.03171733 0.0055290023 2.5637387e-10
000320 2d 46 68 bc 92 eb 90 3e 7b 94 ae 2d 78 50 dd 3e
       -0.014176887 0.28304726 1.9847448e-11 0.43225455
000330 84 0c d3 3e 21 e0 04 30 b9 72 e9 3e 9e e0 07 bd
       0.41220486 4.8339827e-10 0.4559534 -0.033173196
000340 37 ce a2 3e 9e 48 92 bd e6 71 3d 3e c9 dc fd 3d
       0.31797954 -0.07142757 0.1850048 0.12395627
000350 27 ee 0b 2f 74 21 84 2e 1c a5 91 3d 87 e7 d1 3e
       1.2726585e-10 6.0086075e-11 0.0711157 0.40996954
000360 57 0e e3 3c 1c a6 23 36 47 a6 16 30 e2 14 0f 2f
       0.027716799 2.438558e-06 5.4805976e-10 1.3013193e-10
000370 5f a1 9d 30 7c 76 8c 39 20 a3 2e 30 4c 3f b3 3e
       1.1469118e-09 0.0002679116 6.3532646e-10 0.3500923
000380 38 5b 51 3e f5 20 c6 30 7a c5 0e bc 59 cc 64 2f
       0.20444953 1.4415763e-09 -0.008714074 2.0809078e-10
000390 97 3f dd be ed 10 25 32 28 92 6f 2f be b4 87 2f
       -0.43212578 9.6081125e-09 2.1788849e-10 2.4684782e-10
0003a0 25 46 c1 3b 4a 4a 30 b1 6e 8f 2d 2c 61 f5 f6 3e
       0.0058982545 -2.56536e-09 2.4664398e-12 0.48234084
0003b0 aa e5 99 3b 2c ae 30 2a 53 a8 37 3d bd 40 b4 3b
       0.0046965675 1.5692368e-13 0.04483826 0.0055008815
0003c0 fe 92 2a 3f 5f d8 1f 3d 24 cf 8d b9 2c fc 0b 3e
       0.6663054 0.039024707 -0.00027047948 0.13670415
0003d0 76 bb be 3e 8b 31 c4 bc 61 c0 8c bd 22 b4 ad 3f
       0.37252396 -0.023949405 -0.06872631 1.3570597
0003e0 8b d2 aa ab e8 41 ed 32 c8 e6 4c 30 6a 91 8e 3c
       -1.2137664e-12 2.7620402e-08 7.454273e-10 0.017403323
0003f0 56 84 6a 34 37 f2 cb ba fd 7a a4 3b 94 6c 82 3a
       2.1841092e-07 -0.0015559857 0.005019544 0.0009950572

bias f4 [16]
000000 d0 1b cb 3e b4 d9 bd 3e 62 25 a1 ad 94 ab 44 3c
       0.39669657 0.37080157 -1.8320182e-11 0.012003798
000010 a0 10 44 af 50 fc e9 b1 4b f8 ac 3d 9d 37 4d 3c
       -1.7832003e-10 -6.809877e-09 0.084457956 0.012525466
000020 dc d8 1c 3f a9 78 03 3e 42 fa 2c b7 91 3f 05 bd
       0.612684 0.12838997 -1.0310267e-05 -0.032531325
000030 b4 44 a9 3d 35 36 c3 3e ad ba ec 3d 3e 2b 1c bd
       0.08265057 0.38127294 0.11559043 -0.038127176

weight f4 [4, 16]
000000 a0 37 0d 3f d3 7b 16 3f 3f 1f cd ab a8 ad a7 be
       0.55163 0.5878269 -1.4574799e-12 -0.32749677
000010 ba f0 7d b0 56 92 cc aa 3f ee 96 be 55 26 94 be
       -9.2382957e-10 -3.633922e-13 -0.29478642 -0.28935495
000020 78 63 8f 3e 73 42 81 3e f6 81 20 37 3c 9c dd bd
       0.28005576 0.2524601 9.567002e-06 -0.10820815
000030 7c b8 6b 3d c1 1a 05 3f 69 08 f9 3d df 34 b2 bf
       0.057548985 0.5199395 0.12159807 -1.3922385
000040 34 55 0a 3f 1f 79 13 3f c9 0c 99 2c 48 5f a3 be
       0.5403626 0.5760669 4.349941e-12 -0.3190863
000050 2a 19 e5 ab 59 1f 3a ab 39 e0 a9 3d 84 1a a2 be
       -1.6278413e-12 -6.612398e-13 0.0829472 -0.31660855
000060 82 3d 8b 3e d7 ac 7b 3e 6d 3a 1c 37 13 27 bd bf
       0.27195364 0.24577652 9.311928e-06 -1.477755
000070 17 da 96 be 7f 54 0e 3f 42 be 20 3e 86 01 d0 bd
       -0.29463264 0.5559768 0.15697578 -0.101565406
000080 41 28 11 3f d5 a0 0e 3f 1a a0 7d ac 13 3a 4d bf
       0.5670205 0.5571416 -3.6042337e-12 -0.8016674
000090 e5 07 15 2c bc 3f c0 2b a1 d8 97 be b0 aa 15 3d
       2.1178556e-12 1.366011e-12 -0.29657462 0.036539733
0000a0 a6 e2 57 3e 7a d9 5d bf 52 6b 89 36 dd 4a 26 bc
       0.21082553 -0.8665997 4.095412e-06 -0.010149685
0000b0 a0 44 bb be 23 db 02 3f 08 ad 92 bc 51 e0 49 bc
       -0.36575794 0.51115626 -0.017904773 -0.012321548
0000c0 11 8f f9 3e f6 eb 1c 3f 91 4a 96 a9 45 d5 4b 3d
       0.48741964 0.6129755 -6.6742734e-14 0.049763937
0000d0 97 c9 14 ab eb cf a5 32 c4 ca c7 be 93 d4 4b bf
       -5.2859925e-13 1.9303078e-08 -0.39021885 -0.7962124
0000e0 e7 99 67 3e ec ae 4a 3e 27 9c 78 32 07 53 20 bd
       0.22617303 0.1979329 1.4471005e-08 -0.03914168
0000f0 09 68 b7 be 58 03 0a 3f cf 17 34 bf 2c 1b 2f bd
       -0.3582156 0.5391135 -0.7034883 -0.042750522

bias f4 [4]
000000 ae c8 98 3e 91 7d 90 3e da 41 f9 3b 32 b5 2d 3d
       0.29840606 0.282208 0.007606727 0.04240913
