data/119200.pth (torch, 32791 bytes, 6 tensors)

weight f4 [64, 33]
000000 ed bf 7c bb 5e 44 e3 ba f8 a7 3a 3b 62 8d 46 3a
       -0.0038566545 -0.0017339101 0.0028481465 0.0007574168
000010 96 e9 92 3c d5 60 6e 3c 07 16 f6 3b 9b 68 6f bc
       0.017933648 0.014549454 0.00750995 -0.014612342
000020 b1 52 85 bc 55 1d 4a 3d e3 29 cf 3c c3 b3 c6 3c
       -0.016274782 0.04934438 0.025288528 0.024255639
000030 af 6c 49 bc 74 44 ec 3c c3 87 01 bc f6 a6 53 bc
       -0.012293979 0.028841235 -0.007905903 -0.012918225
000040 55 2e d8 3a 9b 5e ca 3c 21 84 cb 3c 3e 5c 3d bb
       0.00164933 0.024703315 0.024843277 -0.0028894092
000050 32 e6 2b 3c 84 74 49 3c 09 eb 43 3c eb 42 01 bc
       0.010491895 0.012295846 0.011957892 -0.00788949
000060 7d 75 b0 3c cf bb 1f be 7c 5d 83 be 79 b3 03 be
       0.021540398 -0.15598987 -0.2565726 -0.12861432
000070 b1 13 c2 bc 7c fb bf ba 27 4f 3b 3d e1 6e a3 3b
       -0.02369103 -0.0014647092 0.045729782 0.004987583
000080 0c 36 0d bc ce 8a 2d bc f8 c3 fd 3c 80 82 24 bd
       -0.008618843 -0.010592176 0.030977234 -0.040163517
000090 c3 d5 7f bc 92 13 0e 3b 3f 94 03 3d 4c 64 8e bd
       -0.01561493 0.0021679145 0.0321238 -0.06952724
0000a0 73 1e 3d bd 3b 94 8c bc c1 ef 67 bd 20 93 26 bc
       -0.046171617 -0.017160526 -0.05662513 -0.010166913
0000b0 d1 c9 69 3d 16 d7 94 3d be 2f 7c 3c 25 63 99 3c
       0.057077233 0.07267587 0.015392242 0.018724034
0000c0 6a f7 e6 3c 8b ef 20 bd 82 9c 6c bd 3b c5 06 be
       0.028194148 -0.039290946 -0.057766445 -0.13161175
0000d0 a4 c5 85 bc bd a2 b1 3b bd 21 b1 bd df e2 5f bd
       -0.016329594 0.0054210112 -0.08649013 -0.05465972
0000e0 2d 57 46 bd 72 a5 78 bd f1 08 8e 3e 6c c3 a4 3e
       -0.04842298 -0.060704656 0.27741197 0.32180345
0000f0 9f 5c 67 3e 07 03 80 3d 51 6a 3c bd cf 42 fd 3d
       0.22593926 0.062505774 -0.04599983 0.12366258
000100 87 aa b7 bd ee 75 e2 bd 7e fa 72 31 42 a2 48 af
       -0.089680724 -0.110576496 3.5358023e-09 -1.824754e-10
000110 90 bf 78 30 0b 57 fc b0 6b e5 9e 30 ca 17 0d b1
       9.04941e-10 -1.8360152e-09 1.1561218e-09 -2.0531723e-09
000120 40 6f 2c 31 9f 8d f2 b0 ed 7e 87 31 c0 39 9a b7
       2.5092532e-09 -1.7648069e-09 3.943447e-09 -1.8385123e-05
000130 d4 43 9a b7 b6 54 4c 31 ac 9e 9a b7 0a 86 9a b7
       -1.8389816e-05 2.973406e-09 -1.8432118e-05 -1.8420647e-05
000140 6e 88 9a b7 d6 7d 9a b7 2b 49 9a b7 96 ea 20 31
       -1.842176e-05 -1.8416828e-05 -1.8392302e-05 2.341641e-09
000150 91 97 a9 31 d9 fc 9f 2f 74 d6 76 30 0b 60 9a b7
       4.9357785e-09 2.910159e-10 8.9799035e-10 -1.8402954e-05
000160 84 63 9a b7 36 69 9a b7 0b 3d 48 31 6d db 98 b7
       -1.8404571e-05 -1.8407223e-05 2.913853e-09 -1.822199e-05
000170 a8 f7 99 b7 fe a7 99 b7 8f 4d 96 b7 12 6e 98 37
       -1.8354345e-05 -1.8317249e-05 -1.791751e-05 1.8171067e-05
000180 96 a0 99 b7 a6 ef 9a b7 30 93 9a b7 d9 a2 50 ae
       -1.83138e-05 -1.8469826e-05 -1.842677e-05 -4.7438362e-11
000190 50 b5 4b ae 8f 78 13 ae 6b 30 a9 ad fe 40 4b ae
       -4.6317894e-11 -3.3531008e-11 -1.9234577e-11 -4.621458e-11
0001a0 e5 64 5f ae fd 00 44 ae 86 00 a9 ab 6f e2 70 ad
       -5.0793942e-11 -4.4566118e-11 -1.2008318e-12 -1.3692699e-11
0001b0 41 f7 61 ae bc 18 26 ae 5e 83 1a ab dc 2d 24 2e
       -5.1378683e-11 -3.7766e-11 -5.48941e-13 3.7330014e-11
0001c0 60 8f 72 2b 95 e2 b0 ad 59 93 2f ae ed 27 a4 ad
       8.6174644e-13 -2.0109506e-11 -3.9921264e-11 -1.8662372e-11
0001d0 9d a1 37 ad 2e ff 34 ad 5e 1a 4d ad 1d 17 aa ac
       -1.0438231e-11 -1.0288477e-11 -1.16587556e-11 -4.8342567e-12
0001e0 3f 17 be ad 19 49 c9 ab b2 59 42 ad 01 45 ed ad
       -2.1610823e-11 -1.4302198e-12 -1.104754e-11 -2.6974424e-11
0001f0 7f b6 fa ae 5b 95 96 ae 2c 3e a7 ae a7 ee cc ae
       -1.14011016e-10 -6.847741e-11 -7.605325e-11 -9.319239e-11
000200 e7 f9 a3 2c 96 24 8d ad c7 fe 4e ad 5a 50 d1 2e
       4.6604834e-12 -1.6046092e-11 -1.1766316e-11 9.518493e-11
000210 75 dd fa 3b fa 1c 3a 3c be f1 90 3c ea 1d 1d bc
       0.0076557943 0.011359448 0.017693397 -0.009589652
000220 23 e7 93 3b 23 4e b2 3a e3 de 08 3b 42 46 5d bd
       0.0045136376 0.0013603609 0.0020884804 -0.05402208
000230 6c 56 0c 3c 20 c1 f0 bc 03 31 60 bd 84 0b 76 bc
       0.008565526 -0.029388964 -0.05473424 -0.015017394
000240 8a f9 a3 bc 0f 14 c9 bc 68 95 1d bd f0 ef 43 bb
       -0.02001645 -0.024545697 -0.038472563 -0.0029897653
000250 2f f5 8d bb f2 29 2f bd 7b be ad bc db 30 fc bc
       -0.0043322067 -0.04276461 -0.021208992 -0.030785015
000260 a9 41 56 3c 10 a9 8f bc ad 08 1e 3d 96 e3 7d 3c
       0.013077178 -0.01753667 0.038582493 0.015496155
000270 15 dd 97 3c d6 d6 e3 3e 68 ee b7 3e 95 a4 d9 3e
       0.018538037 0.44499844 0.35924077 0.4250838
000280 dc 97 bb 3e db 26 91 bd a8 83 c6 3d c6 5f 93 3d
       0.36639297 -0.07087489 0.0969308 0.07196002
000290 d1 42 72 bd a9 bc 5c bb e3 b0 41 bd aa 5f cf bd
       -0.059145752 -0.0033681786 -0.047287833 -0.10125668
0002a0 d2 c3 63 bd 51 9f bc bc e6 c7 30 bd 65 ef 27 be
       -0.05560667 -0.023025187 -0.043159388 -0.16399916
0002b0 f0 80 88 bd 1d e2 71 bc 57 d4 1b bd ef 8e 55 3c
       -0.06665218 -0.014763382 -0.0380443 0.013034566
0002c0 bf f0 94 3d 9e 5f 30 3d d0 2c 4c bc 48 40 24 3d
       0.07272481 0.043059938 -0.012461856 0.040100366
0002d0 8f 9d e2 3c 80 e8 ca bc 01 6b 8a bd 2c 13 b5 bd
       0.02766302 -0.024769068 -0.067586906 -0.08841547
0002e0 d6 bc d4 bc 95 83 5e 3c 71 ba c9 bd 3c 4f e4 bd
       -0.02596895 0.013581176 -0.09850014 -0.11147925
0002f0 e7 f6 9d bd 9a 22 58 bd 2f 37 2e 3e 8a f1 99 3e
       -0.077131085 -0.052767374 0.17013238 0.30067092
000300 d5 f1 3f 3e 00 e4 e7 bc 82 30 0e bc 16 13 db 3d
       0.18744595 -0.028306961 -0.008678557 0.10697
000310 4e c1 a6 bd 09 8e ab bd d9 5c 37 bb 76 11 1f 3c
       -0.08142339 -0.083767004 -0.0027978926 0.009708753
000320 d5 b0 31 3c ad c2 70 bc 66 9d 01 bb cf cd c7 bb
       0.010845383 -0.014694852 -0.0019777655 -0.0060975323
000330 e6 45 c4 bb 02 45 86 bd 40 79 86 bb ef b2 fd bc
       -0.005989778 -0.06556131 -0.0041038096 -0.030969111
000340 5e 73 68 bd f6 03 82 bc 2a 87 09 bd 8f 7b 34 bd
       -0.056750648 -0.01587103 -0.033576168 -0.044063147
000350 bd 53 53 bd 25 46 f9 bb 3a 1b 25 bc 69 e6 34 bd
       -0.05159353 -0.007607239 -0.010077292 -0.04416505
000360 64 bf 0a bd fd 6d 35 bd 43 07 d3 3a 3d 6e 83 bc
       -0.03387393 -0.044294346 0.0016100187 -0.016043777
000370 b3 d4 c5 3c d8 b7 0a 3c d0 c8 7a 3b 97 23 e8 3e
       0.024149274 0.008466683 0.0038266666 0.45339653
000380 3d 80 b8 3e f8 f8 da 3e b8 6a ba 3e c5 32 94 bd
       0.36035338 0.42768073 0.36409545 -0.07236246
000390 9f 6d cd 3d 5d 59 a9 3d 54 aa 98 bd 7f bc 0b 2d
       0.10030674 0.08268998 -0.074543625 7.94309e-12
0003a0 6b 33 dd ad 26 fb ab ac d1 8c c4 2c 9d 0b 60 ae
       -2.5147625e-11 -4.8879954e-12 5.586289e-12 -5.0942018e-11
0003b0 ac 4c 1d ad fe a8 31 2d 96 f7 b3 ac 23 ff d3 2d
       -8.941441e-12 1.0098809e-11 -5.1149735e-12 2.4101226e-11
0003c0 56 6c af ae db 73 00 ad 0e 13 2c 2c d6 6a c9 2b
       -7.977323e-11 -7.301683e-12 2.4453248e-12 1.4311562e-12
0003d0 c5 89 61 ad a8 e5 32 2d 40 ff c7 ad 18 6f 52 ae
       -1.282036e-11 1.01691225e-11 -2.2737034e-11 -4.7847143e-11
0003e0 76 c7 a5 ad 00 8b 13 2c 27 db 22 2d dd ef e0 2c
       -1.8846907e-11 2.0967117e-12 9.2572955e-12 6.393093e-12
0003f0 6f 00 96 ad 02 22 8b 2c d2 c6 81 ac 48 fb f8 ad
       -1.7053218e-11 3.9543932e-12 -3.688474e-12 -2.8305927e-11

bias f4 [64]
000000 c4 b7 8b bd a4 33 86 3e 95 7e 8c b7 3b c9 8c ae
       -0.0682216 0.26211274 -1.6748245e-05 -6.4022086e-11
000010 b5 b4 9a 3e 62 83 50 3e 7b 81 9b 3e 1e 93 95 ae
       0.30215994 0.20362619 0.30372223 -6.801869e-11
000020 1a cb 03 be c9 c5 1f 3e f3 80 49 ae 13 45 52 3e
       -0.12870446 0.15602793 -4.581664e-11 0.20534162
000030 d9 65 7b 3e 61 cf 61 af f4 63 76 3e 7e 17 db bd
       0.2455057 -2.0537307e-10 0.24061567 -0.1069784
000040 20 81 42 be 14 d0 26 3e 5c fe bd bc ef 3a 42 3e
       -0.1899457 0.16290313 -0.023192577 0.18967794
000050 e2 d4 01 ae 1d e9 6f ad 35 f2 29 3e 1f a8 d3 3d
       -2.9520282e-11 -1.3637339e-11 0.16596301 0.10334801
000060 c0 ab 77 3e 7a 26 88 b4 06 14 18 af a0 6f f8 ad
       0.24186611 -2.535997e-07 -1.3831433e-10 -2.8243907e-11
000070 58 bf 62 af e9 aa aa b7 a7 68 2a b1 14 30 30 be
       -2.0622559e-10 -2.0345165e-05 -2.4797744e-09 -0.1720584
000080 d2 b4 42 be 9e 86 b6 b0 72 70 8b bd 90 a1 c6 ae
       -0.1901429 -1.3280503e-09 -0.068085566 -9.032697e-11
000090 58 96 46 3e 3c 70 6b b0 e8 95 67 ae 32 4f 48 ae
       0.19393289 -8.5651997e-10 -5.2656463e-11 -4.5545075e-11
0000a0 55 6e 02 bd b3 ab 04 b1 c2 c8 a4 aa b8 25 7b be
       -0.031843502 -1.9306128e-09 -2.9271556e-13 -0.24526107
0000b0 fd b5 04 bd b6 d6 9e aa 13 09 f0 3d 14 e5 9a 3e
       -0.03240012 -2.8215424e-13 0.11720481 0.30252898
0000c0 49 8f 59 be 17 6f d7 3b 67 0b 7b b8 e9 eb 19 bc
       -0.21246065 0.0065745222 -5.9853683e-05 -0.009394624
0000d0 c7 df 41 3e 87 c5 8e 3e 08 db 28 3e 4b b6 27 bd
       0.1893302 0.27885076 0.16489804 -0.040945332
0000e0 89 d3 f9 aa 55 62 37 b1 2e e1 54 af 06 4f eb ba
       -4.4378067e-13 -2.66859e-09 -1.9361288e-10 -0.0017952628
0000f0 fa ab de b3 c4 53 03 be 94 fd 56 bc be 29 ea b7
       -1.0368963e-07 -0.12824923 -0.013121981 -2.7914411e-05

weight f4 [16, 64]
000000 db fe ce bc 2f ea ce be cf 53 5d b3 b9 22 1c ac
       -0.025268009 -0.40413043 -5.1531796e-08 -2.2188208e-12
000010 b8 6a 4a 3e 0a 53 54 be 35 40 4a 3e b4 ea 37 ae
       0.19767272 -0.20734802 0.19751056 -4.181784e-11
000020 54 f0 ee be 84 b6 1f bd 12 e4 15 2e 63 c4 18 be
       -0.4666773 -0.03899242 3.4081245e-11 -0.14918666
000030 5f 7f b3 be df e7 b6 ae a3 36 98 be 9d b2 2d bf
       -0.35058114 -8.3175904e-11 -0.29729185 -0.6785067
000040 75 5c bd bd 85 33 8f 3e f5 06 13 be 31 a5 39 be
       -0.092461504 0.27968994 -0.14358123 -0.18129422
000050 26 a5 81 ad 56 0a 66 ad 30 02 08 3e ec fe 3f be
       -1.4738943e-11 -1.3076281e-11 0.13282084 -0.18749589
000060 13 ea d6 3d 95 7e 86 b5 81 db 62 ae 5e aa 3a ad
       0.10493865 -1.0020618e-06 -5.158141e-11 -1.0610705e-11
000070 16 7a 55 af 95 72 c2 b8 41 0c a9 b0 96 9a b5 be
       -1.9415611e-10 -9.2719834e-05 -1.2299851e-09 -0.35469502
000080 86 20 18 be 68 36 01 b1 67 1a 33 bf 76 d3 4e 2e
       -0.14856157 -1.8802897e-09 -0.6996216 4.7026792e-11
000090 14 4b 99 3e 16 10 31 b1 d7 be 6e ad 5c 86 aa ad
       0.29940093 -2.5766034e-09 -1.3571109e-11 -1.938643e-11
0000a0 ee 93 01 bf 78 34 0e b1 6b 8f 93 2a 84 c0 ae be
       -0.5061635 -2.0693545e-09 2.6211962e-13 -0.34131253
0000b0 dd e6 dd be 0e 7e ad 29 4b dd 35 3e 70 ab 50 3e
       -0.43340197 7.70461e-14 0.17760198 0.20377898
0000c0 e9 68 52 bf b1 94 c2 be ee 20 44 b0 91 48 cd bc
       -0.8219133 -0.38004068 -7.135118e-10 -0.025059016
0000d0 6e 65 ab be 02 44 78 3e 15 c6 6e 3e f6 a2 d8 bf
       -0.33475822 0.24244693 0.2331775 -1.6924732
0000e0 af b6 ba aa e1 24 21 b2 0e 3e d6 ae b0 00 83 ba
       -3.3167e-13 -9.379819e-09 -9.7426164e-11 -0.0009994712
0000f0 a1 d0 00 b4 9d 5a e8 be 09 24 0d be f8 22 7a 37
       -1.1996828e-07 -0.45381632 -0.13783278 1.4909303e-05
000100 9a 7d 7a bd 45 fe 00 bf 6d 84 1b b3 a3 27 27 ae
       -0.06115494 -0.50387985 -3.620919e-08 -3.800661e-11
000110 3d c5 41 3e 2e ae c2 be 18 f7 49 3e a7 5f a1 ae
       0.18922897 -0.38023514 0.19723165 -7.3384236e-11
000120 5f dc 04 bf ce 42 7e 3e 47 59 92 ad a2 50 8e be
       -0.5189876 0.24830171 -1.6637925e-11 -0.27795893
000130 5d 16 db be ce 12 1f af f5 94 9d be 31 c9 8b bf
       -0.427905 -1.4467647e-10 -0.30777708 -1.0920774
000140 8e fd 01 be 76 cf 56 3e ac 31 ed bd 48 d5 ed bd
       -0.1269438 0.20977578 -0.1158174 -0.11612946
000150 12 a2 44 ad f0 a9 61 ad 48 e7 08 3e 51 aa b4 bd
       -1.1177297e-11 -1.2827503e-11 0.13369477 -0.08821548
000160 17 e6 71 3e 3f d3 4d b5 a6 61 90 ae c4 05 15 ad
       0.23622929 -7.6675855e-07 -6.565708e-11 -8.47095e-12
000170 fc 3f 83 af 0c 70 92 b8 34 b0 bc b0 84 8d 86 be
       -2.3874225e-10 -6.982693e-05 -1.372888e-09 -0.26279843
000180 f6 30 1f be 29 b5 1c b1 a1 68 8c bf 0b dd 88 2c
       -0.15546021 -2.2803965e-09 -1.096943 3.889893e-12
000190 c5 b5 28 3d 18 18 2e b1 22 c2 6d ad 9d 6b 9c 2c
       0.041188974 -2.5334028e-09 -1.3514996e-11 4.445734e-12
0001a0 06 41 90 bf d6 bf 23 b1 c1 3d 64 aa 2a 30 ba be
       -1.1269844 -2.3828668e-09 -2.0271893e-13 -0.3636487
0001b0 85 e7 8e bf aa d6 7f 29 75 13 7b bc 57 8e 38 3e
       -1.1164404 5.6807566e-14 -0.015324463 0.18023048
0001c0 bf 21 38 bf ab 21 a9 be 51 28 61 ae e6 80 a7 bc
       -0.7192649 -0.330335 -5.1194885e-11 -0.020447206
0001d0 5c 15 a3 be e0 7e 0a 3e a9 fc aa 3e de f3 f1 be
       -0.31852233 0.13524961 0.3339589 -0.47256368
0001e0 12 19 9c 2a 6f de 08 b2 9f 3a cf ae 36 14 b5 ba
       2.7728563e-13 -7.966817e-09 -9.4236834e-11 -0.0013815227
0001f0 bb 76 de b3 f2 fb 1a bf 28 2a 9a be 0e 8b 17 b9
       -1.03592775e-07 -0.6054069 -0.30110288 -0.00014452284
000200 a3 63 0a ac 46 e5 7d ac 19 e4 c7 ac ff 41 17 ab
       -1.966629e-12 -3.6080735e-12 -5.681244e-12 -5.3737565e-13
000210 1a 31 c5 ac 2b cb 76 ac d7 54 ae ac 10 fe 60 ac
       -5.604528e-12 -3.5071483e-12 -4.9547966e-12 -3.1973348e-12
000220 08 0a 1f 2b ed 19 3b 29 76 0a 3b ab e4 6b f7 ab
       5.650207e-13 4.1544828e-14 -6.6450263e-13 -1.7580351e-12
000230 e1 82 39 ac a4 49 d7 aa e6 23 b6 aa e4 6c 13 ac
       -2.6362734e-12 -3.824277e-13 -3.2354604e-13 -2.0950403e-12
000240 36 ce 9e ab 9d 9a f2 ab ee 64 10 ac ec 06 62 ac
       -1.128381e-12 -1.7238048e-12 -2.0519658e-12 -3.2120374e-12
000250 cc 84 ab 2b 47 3d 9c aa 1f 62 c8 2b 3c 73 1d ac
       1.2187139e-12 -2.7753686e-13 1.4238089e-12 -2.237501e-12
000260 c1 fc 79 aa 5e 15 be 2b a2 77 7d aa de 57 ce 29
       -2.2203334e-13 1.3506243e-12 -2.251242e-13 9.16348e-14
000270 b9 4f df 2b a8 c8 63 ac d2 08 a9 ab 77 ce 33 ac
       1.586723e-12 -3.2370027e-12 -1.201062e-12 -2.555204e-12
000280 d0 27 2d 2b 32 33 7d ab 91 2c f2 ab 53 51 7a ab
       6.15172e-13 -8.9954704e-13 -1.7207504e-12 -8.89307e-13
000290 a8 23 4e ac eb bd 05 ab d7 d2 e7 aa c6 f1 e3 2a
       -2.9294154e-12 -4.7514656e-13 -4.1180143e-13 4.0491064e-13
0002a0 22 2b 94 28 1d 62 15 ab d3 0f 82 2a f4 f4 35 2b
       1.6450007e-14 -5.3071593e-13 2.310362e-13 6.464406e-13
0002b0 70 a7 bc 2b d8 1a ad a9 99 8c 86 ac 5e 43 89 ac
       1.3404677e-12 -7.6874e-14 -3.8241185e-12 -3.9012535e-12
0002c0 89 59 7b ab 98 a6 0f 2c 04 04 8a 2a 9a a7 d3 ab
       -8.929737e-13 2.0414e-12 2.451651e-13 -1.503897e-12
0002d0 36 9b a6 ab 26 c9 7d ac 5d 0a 2c ac 47 8d 24 2c
       -1.1838089e-12 -3.6065122e-12 -2.4448423e-12 2.3384226e-12
0002e0 a4 50 7c aa 28 d2 08 ac e5 0a bb 2a fa 15 2a 2b
       -2.2410074e-13 -1.9443423e-12 3.3225432e-13 6.042663e-13
0002f0 f5 1d 36 ab 10 17 0d ab 26 78 a9 2a a8 6a 2f ac
       -6.470096e-13 -5.012527e-13 3.01038e-13 -2.4928202e-12
000300 03 11 05 3e b7 c1 d7 3e b1 78 89 b7 3e ce 80 2e
       0.1299477 0.4213998 -1.6387874e-05 5.857402e-11
000310 e7 31 2d 3d bc 38 8e 3e 7b 5a 15 3d 9a eb 75 2e
       0.04228392 0.2777766 0.036463242 5.5915807e-11
000320 db dc 80 bc 17 d2 36 3e ee 46 98 2c 93 42 50 3d
       -0.015730312 0.1785358 4.3279746e-12 0.05084474
000330 45 cb d6 3e ce cd e7 2e e2 e3 b0 3e a3 47 bc bc
       0.41951957 1.0541222e-10 0.3454886 -0.022983378
000340 01 5e 70 3e 24 9c d3 bc 38 d6 0d 3e 21 55 9a 3e
       0.2347336 -0.02583129 0.13851249 0.30143073
000350 03 21 f4 2d cd 83 66 2d 43 b8 e2 3d 6c 6d 72 3e
       2.7754249e-11 1.3103252e-11 0.110703014 0.23674554
000360 ce 0b 7d 3c 1c bf 0e 35 5d 69 03 2f dc 9c f9 2d
       0.015444709 5.3177223e-07 1.1951813e-10 2.8377682e-11
000370 e3 7f 89 2f 5e 13 75 38 d7 53 18 2f 09 d9 e8 3e
       2.5011024e-10 5.843059e-05 1.3854105e-10 0.45478085
000380 e8 6d 9c 3e c1 d2 ac 2f 3b db c7 ba 2d 94 47 2e
       0.30552602 3.1436367e-10 -0.0015247831 4.5378968e-11
000390 69 da b4 be 96 fc 0f 31 67 f8 50 2e cc c8 6c 2e
       -0.35322884 2.0952817e-09 4.751435e-11 5.383853e-11
0003a0 91 40 40 3c 39 c9 19 b0 95 60 17 2b 96 fd 1f 3f
       0.011734144 -5.594703e-10 5.378001e-13 0.62496316
0003b0 c1 f5 da 3b 17 21 1a 29 e7 f8 81 be e7 7a ed 3c
       0.006682128 3.422357e-14 -0.2538521 0.028989268
0003c0 0d 17 d2 3e 49 00 f5 3b b3 67 77 b8 f2 39 f4 3c
       0.4103321 0.0074768406 -5.8985966e-05 0.029812787
0003d0 11 3e ba 3e a5 a6 73 bd bc 30 2d bd bb 49 b8 3f
       0.36375478 -0.059485096 -0.042282805 1.4397501
0003e0 46 03 95 aa 66 f2 ce 31 ba ba 32 2f ca b6 78 3b
       -2.6469988e-13 6.0229466e-09 1.6255344e-10 0.0037950748
0003f0 59 90 4c 33 e7 65 d9 bc ea ab 6f 3e e8 8e 63 39
       4.7628735e-08 -0.026537849 0.23405424 0.00021701644

bias f4 [16]
000000 49 70 ce 3e c8 65 c4 3e c6 8f 8c ac 7c 7b 84 3b
       0.40320042 0.38358903 -3.9950014e-12 0.004043041
000010 e4 03 2b ae 11 1a cc b0 b2 c6 a2 3d 2b d6 08 bc
       -3.8884354e-11 -1.4850362e-09 0.079480544 -0.008351843
000020 3d 5c 26 3f e0 ea d2 3d 77 de 16 b6 8f 44 2f bd
       0.64984494 0.10298705 -2.2481233e-06 -0.042789992
000030 88 44 97 3d b3 05 c9 3e b4 81 04 3e d8 05 24 bd
       0.07386118 0.3926216 0.12940103 -0.040044636

weight f4 [4, 16]
000000 da c2 0a 3f 7f 4b 13 3f 24 ec b2 aa 1e 42 94 be
       0.5420357 0.5753707 -3.1783007e-13 -0.28956693
000010 e5 81 5d af d8 70 b2 a9 cc 0a a6 be 08 bf aa be
       -2.0145981e-10 -7.924363e-14 -0.32430112 -0.3334887
000020 13 32 88 3e d5 a0 6a 3e 6e 01 0c 36 82 9b 00 be
       0.26600704 0.22912915 2.0862458e-06 -0.12559322
000030 99 6e 89 3d 69 35 00 3f 5a dd 87 3e 59 32 b6 bf
       0.06710548 0.500815 0.26536065 -1.4234115
000040 c1 84 05 3f ee 67 0c 3f ec 80 85 2b 42 d2 a0 be
       0.5215569 0.54846084 9.486001e-13 -0.31410414
000050 c0 d6 c7 aa c7 59 22 aa c2 3a fa 3d 6b 5b 9e be
       -3.5498514e-13 -1.4419638e-13 0.122182384 -0.3092912
000060 c2 56 87 3e eb a6 84 3e 41 47 08 36 68 e1 b3 bf
       0.26433378 0.25908598 2.0307054e-06 -1.4053164
000070 98 16 9f be cb 37 08 3f 64 86 87 3e e5 19 c5 bd
       -0.31071925 0.53210133 0.2646972 -0.096240796
000080 30 d8 0e 3f 6b ff 13 3f 8d 3c 5d ab 2d b3 46 bf
       0.55798626 0.5781161 -7.8599003e-13 -0.7761715
000090 c0 fb 01 2b 86 b3 a7 2a 00 e5 b1 be d8 aa 0f 3d
       4.617938e-13 2.9789729e-13 -0.34745026 0.03507504
0000a0 27 e5 55 3e da c7 4e bf 0d bd 6f 35 43 65 9b bc
       0.20888196 -0.807737 8.9309543e-07 -0.018969184
0000b0 5f c7 ca be 72 7a 04 3f 30 3d 07 3e 3d 21 98 bc
       -0.39605233 0.51749337 0.13206935 -0.018570537
0000c0 5d 40 ec 3e ff 1e 1e 3f 22 17 83 a8 8d c9 61 3d
       0.46142855 0.61766046 -1.4553954e-14 0.055123854
0000d0 0a c6 01 aa b5 a3 90 31 84 fd c0 be 9a 76 51 bf
       -1.152621e-13 4.209563e-09 -0.37693417 -0.81821597
0000e0 2d f4 61 3e 09 39 3b 3e 30 db 58 31 7d f8 5f bd
       0.22065802 0.18283476 3.155673e-09 -0.054680336
0000f0 ba c9 b8 be 41 48 0a 3f 09 21 55 bf 2d 37 f0 bc
       -0.36091405 0.540165 -0.8325353 -0.029323185

bias f4 [4]
000000 1c 3c 8d 3e 06 03 91 3e 95 bc 27 3c da f7 36 3d
       0.27584922 0.2832262 0.010237833 0.044669963
