data/126800.pth (torch, 33751 bytes, 6 tensors)

weight f4 [64, 33]
-0.0004965914 -0.00022329224 0.0003667785 9.7539334e-05 0.0023093089 0.0018737197 0.0009670629 -0.001881747
-0.002095762 0.0063546635 0.0032566974 0.0031236056 -0.0015831316 0.003713929 -0.0010181594 -0.0016635454
0.00021238472 0.0031813697 0.0031993033 -0.00037208784 0.0013511254 0.0015833772 0.0015398485 -0.001016026
0.0027738868 -0.02008807 -0.033039115 -0.016560568 -0.0030508651 -0.0001886285 0.005889117 0.00064228236
-0.001109917 -0.06193615 -0.12120708 -0.07168824 -0.067109935 -0.07591518 -0.04872509 -0.1382792
-0.021436276 -0.004367976 -0.07602717 0.019094141 0.0991984 0.09303473 -0.041363575 -0.02084035
0.061721776 -0.11352442 -0.027499357 -0.16659805 -0.082050465 -0.09234654 -0.17692728 -0.14606401
-0.15362416 -0.028932128 0.12554404 0.26434198 0.07056418 -0.5645048 -0.0060727764 0.07760473
-0.035773598 0.0177187 4.553499e-10 -2.34979e-11 1.1653985e-10 -2.36413e-10 1.4888145e-10 -2.6440983e-10
3.2313582e-10 -2.272717e-10 5.078773e-10 -2.3675907e-06 -2.3681969e-06 3.8290573e-10 -2.3736607e-06 -2.3721793e-06
-2.3723228e-06 -2.371686e-06 -2.3685184e-06 3.0155617e-10 6.356137e-10 3.7476564e-11 1.15638984e-10 -2.3698942e-06
-2.3701025e-06 -2.3704454e-06 3.752287e-10 -2.3465198e-06 -2.3636153e-06 -2.3588234e-06 -2.3074497e-06 2.3399416e-06
-2.3583782e-06 -2.3785312e-06 -2.37297e-06 -6.109083e-12 -5.9647625e-12 -4.3178443e-12 -2.4769665e-12 -5.951527e-12
-6.5413217e-12 -5.7388855e-12 -1.5463916e-13 -1.7632237e-12 -6.6160736e-12 -4.863443e-12 -7.0691655e-14 4.807242e-12
1.10975716e-13 -2.5896889e-12 -5.1408964e-12 -2.403282e-12 -1.3442104e-12 -1.3248946e-12 -1.5013487e-12 -6.2254005e-13
-2.7829317e-12 -1.8417104e-13 -1.4226636e-12 -3.4737272e-12 -1.4681437e-11 -8.818714e-12 -9.793878e-12 -1.2000842e-11
6.0016185e-13 -2.0664121e-12 -1.5152611e-12 1.2257632e-11 0.026481321 0.02210204 0.068866245 0.09042148
-0.007896971 -0.038695283 0.0028268292 -0.014073588 0.009894959 0.0077939024 -0.051751576 -0.019307151
0.02752735 0.038455673 -0.02585963 0.0083075 0.03940435 -0.006355711 -0.007164932 -0.004651672
0.0577517 0.032869957 0.049076367 0.0049247015 0.030219898 0.41298962 0.27487376 0.35020638
0.30301642 -0.120302185 0.11215673 0.06181695 -0.00086999807 -0.07198761 -0.04571323 -0.09453474
0.022112023 -0.059882645 -0.04787657 -0.056836005 -0.023189913 0.010253937 -0.096461505 -0.04653786
-0.033026572 0.16862814 0.02652573 -0.011345238 0.005121991 -0.05150923 -0.041975696 -0.0235742
-0.0013856963 0.0031446328 -0.030419476 0.0051188366 0.007284408 -0.0063213175 0.2736717 0.3529166
0.2714555 0.20294607 0.069517896 0.11636869 -0.10376469 -0.10747434 0.016400194 0.019279538
0.061164644 0.081555754 -0.014514976 -0.041412268 -0.0012550624 -0.025545174 0.0005581518 -0.0007059033
-0.06368102 -0.034054313 0.012133175 0.018017203 -0.038333695 0.0017791712 0.029940076 -0.014009178
-0.015162831 -0.014090643 0.046543952 0.023229945 0.036819078 0.0032950486 0.016018454 0.42537916
0.2836183 0.359509 0.30648574 -0.11685824 0.12218914 0.07100358 -0.018591302 1.022932e-12
-3.2382703e-12 -6.2946604e-13 7.193741e-13 -6.560252e-12 -1.1514257e-12 1.3005089e-12 -6.586847e-13 3.1037289e-12
-1.0272873e-11 -9.402706e-13 3.1490378e-13 1.8429401e-13 -1.6509105e-12 1.3095491e-12 -2.9279567e-12 -6.161429e-12
-2.427069e-12 2.6999765e-13 1.1921161e-12 8.232711e-13 -2.196127e-12 5.092425e-13 -4.7502757e-13 -3.645253e-12
00000000: af2d 02ba 8e23 6ab9 2d4c c039 088e cc38
00000010: c657 173b 9a97 f53a 7e82 7d3a f4a4 f6ba
00000020: 0d59 09bb c83a d03b 516e 553b 68b5 4c3b
00000030: 1581 cfba 6465 733b c373 85ba 520b daba
00000040: 97b3 5e39 877e 503b 67ab 513b c914 c3b9
00000050: 3f18 b13a 5389 cf3a bed4 c93a 2d2c 85ba
00000060: 19ca 353b bc8f a4bc 0654 07bd 07aa 87bc
00000070: 06f1 47bb 94ca 45b9 7ef9 c03b d75e 283a
00000080: a27a 91ba c3b0 7dbd 6b3b f8bd 49d1 92bd
00000090: ef70 89bd 6b79 9bbd f693 47bd 1099 0dbe
000000a0: 219b afbc 3d21 8fbb 22b4 9bbd 516b 9c3c
000000b0: 8828 cb3d fe88 be3d da6c 29bd 62b9 aabc
000000c0: f9cf 7c3d 7e7f e8bd 5546 e1bc ae98 2abe
000000d0: 130a a8bd 2f20 bdbd 6d2c 35be ce91 15be
000000e0: a74f 1dbe 1203 edbc 9e8e 003e d557 873e
000000f0: f483 903d 6383 10bf 24fe c6bb 3bef 9e3d
00000100: 5687 12bd cf26 913c cd54 fa2f 91b0 cead
00000110: 0d23 002f 2cf8 81af 67b2 232f 605c 91af
00000120: 53a5 b12f 4ce3 79af b09a 0b30 e6e2 1eb6
00000130: 50ed 1eb6 3181 d22f 2e4b 1fb6 bb31 1fb6
00000140: 3234 1fb6 4129 1fb6 d6f2 1eb6 42c8 a52f
00000150: 56b7 2e30 dcd2 242e f64a fe2e 790a 1fb6
00000160: 0d0e 1fb6 f113 1fb6 bf48 ce2f e778 1db6
00000170: 9a9e 1eb6 474c 1eb6 afd9 1ab6 e407 1d36
00000180: a144 1eb6 db9e 1fb6 503f 1fb6 baf1 d6ac
00000190: cedd d1ac afeb 97ac 104d 2eac 9766 d1ac
000001a0: fd26 e6ac 49eb c9ac b41b 2eaa d426 f8ab
000001b0: 4bc8 e8ac 001e abac f72e 9fa9 c923 a92c
000001c0: 25e5 f929 b03b 36ac 14e1 b4ac ae1d 29ac
000001d0: 492e bdab 5c76 baab ca4b d3ab bd3a 2fab
000001e0: d7d4 43ac b05b 4faa dc38 c8ab 1b71 74ac
000001f0: a823 81ad f523 1bad b54b 2cad fd1e 53ad
00000200: 38ee 282b 2c69 11ac 0941 d5ab 78a3 572d
00000210: 5bef d83c 560f b53c bf09 8d3d e62e b93d
00000220: 4c62 01bc f27e 1ebd 5342 393b e894 66bc
00000230: 771e 223c fe63 ff3b 76f9 53bd 082a 9ebc
00000240: 0981 e13c b283 1d3d 93d7 d3bc 2e1c 083c
00000250: 7566 213d 9143 d0bb cec7 eabb 0e6d 98bb
00000260: 0c8d 6c3d a6a2 063d 4d04 493d 645f a13b
00000270: b88f f73c 6073 d33e 41bc 8c3e 404e b33e
00000280: f824 9b3e fe60 f6bd 6db2 e53d c533 7d3d
00000290: 9510 64ba 3d6e 93bd cc3d 3bbd 6e9b c1bd
000002a0: 4624 b53c 8147 75bd 391a 44bd dfcc 68bd
000002b0: c6f8 bdbc 2100 283c 9c8d c5bd 7c9e 3ebd
000002c0: df46 07bd dbac 2c3e 7d4c d93c 61e1 39bc
000002d0: 60d6 a73b 58fb 52bd b5ee 2bbd ae1e c1bc
000002e0: 41a0 b5ba 2f16 4e3b 4432 f9bc eabb a73b
000002f0: 0bb2 ee3b 0e23 cfbb b21e 8c3e 7cb1 b43e
00000300: 37fc 8a3e 18d1 4f3e 665f 8e3d b552 ee3d
00000310: 9582 d4bd 821b dcbd b359 863c 1ff0 9d3c
00000320: c787 7a3d b406 a73d 39d0 6dbc e99f 29bd
00000330: e880 a4ba 1d44 d1bc ef50 123a 5e0c 39ba
00000340: 326b 82bd 897c 0bbd 39ca 463c d098 933c
00000350: cb03 1dbd 1433 e93a e444 f53c c086 65bc
00000360: 866d 78bc 71dc 66bc dfa4 3e3d ba4c be3c
00000370: 9acf 163d bef1 573b 2239 833c 4ccb d93e
00000380: 6b36 913e 9011 b83e b3eb 9c3e 5f53 efbd
00000390: 4d3e fa3d 536a 913d c94c 98bc 02f7 8f2b
000003a0: 7edf 63ac cf2d 31ab 5e7c 4a2b 7fd1 e6ac
000003b0: 7c0c a2ab c507 b72b 3c67 39ab cf67 5a2c
000003c0: e8b8 34ad d254 84ab 6b46 b12a 227f 4f2a
000003d0: 5258 e8ab 7b4d b82b 6109 4eac 38c9 d8ac
000003e0: 30ca 2aac c3fe 972a 82c6 a72b efba 672b
000003f0: e889 1aac ca56 0f2b 58b5 05ab 8541 80ac

bias f4 [64]
-0.008785748 0.21870986 -2.156959e-06 -8.245337e-12 0.24310659 0.35216695 0.24784338 -8.759398e-12
-0.11400996 0.18173783 -5.8999897e-12 0.13877015 0.30477542 -2.6446184e-11 0.26809406 -0.12016423
-0.02446047 0.14001969 -0.06696292 0.050226633 -3.8018443e-12 -1.7561564e-12 0.27225998 -0.024446705
0.2648332 -3.265818e-08 -1.7811018e-11 -3.637343e-12 -2.6556746e-11 -2.6199864e-06 -3.193375e-10 -0.12524794
-0.27578932 -1.7102564e-10 -0.051287457 -1.1632187e-11 0.18623361 -1.10296695e-10 -6.7807734e-12 -5.865016e-12
-0.018536203 -2.4860217e-10 -3.7695128e-14 -0.2772657 -0.01655245 -3.6334854e-14 0.13056062 0.2551028
-0.029269882 -0.013616929 -7.707386e-06 -0.0012098094 0.3126458 0.27981865 0.13416402 -0.03340605
-5.714847e-14 -3.4365574e-10 -2.4933978e-11 -0.00023118255 -1.3353556e-08 -0.1339436 -0.12230728 -3.5947846e-06
00000000: 19f2 0fbc 7af5 5f3e 46c0 10b6 b20d 11ad
00000010: eff0 783e 3a4f b43e a8ca 7d3e d218 1aad
00000020: 0e7e e9bd 7b19 3a3e 6296 cfac c319 0e3e
00000030: 860b 9c3e 839f e8ad a043 893e aa18 f6bd
00000040: 5361 c8bc 5261 0f3e db23 89bd 71ba 4d3d
00000050: f8c3 85ac 3428 f7ab a965 8b3e 7544 c8bc
00000060: 3898 873e 0c44 0cb3 d9aa 9cad 8cf4 7fac
00000070: 7a98 e9ad 06d3 2fb6 c28e afaf ff40 00be
00000080: 4234 8dbe 700b 3caf cc12 52bd b7a2 4cad
00000090: 06b4 3e3e 858b f2ae c793 eeac 5e5b ceac
000000a0: 3cd9 97bc a5ab 88af 86c3 29a9 c5f5 8dbe
000000b0: 0199 87bc 3ca3 23a9 afb1 053e d69c 823e
000000c0: 64c7 efbc 8a19 5fbc f94e 01b7 7892 9eba
000000d0: 1c13 a03e 6444 8f3e 4b62 093e c8d4 08bd
000000e0: daaf 80a9 3fed bcaf 5452 dbad 9869 72b9
000000f0: 8f69 65b2 8328 09be 3d7c fabd ee3d 71b6

weight f4 [16, 64]
-0.003254002 -0.23893127 -6.6358306e-09 -2.8574487e-13 0.18470433 -0.58805245 0.18657017 -5.385183e-12
-0.47561586 -0.0077686277 4.3889957e-12 0.0037011716 -0.38895643 -1.0711297e-11 -0.54426146 -0.6984678
-0.011906862 0.24723125 -0.07422484 -0.2392078 -1.8981665e-12 -1.6838945e-12 -0.49523604 -0.251079
0.17643437 -1.2904815e-07 -6.6424544e-12 -1.3664264e-12 -2.50035e-11 -1.1940113e-05 -1.5839344e-10 -0.16575761
-0.3586952 -2.4214697e-10 -0.6414518 6.0559942e-12 0.24120817 -3.3181274e-10 -1.747702e-12 -2.4965227e-12
-0.4761136 -2.6646854e-10 3.375367e-14 -0.7233766 -0.3825727 9.921771e-15 0.30247292 0.18985264
-0.10584042 -0.3870419 -9.188041e-11 -0.0032269438 -0.46848848 0.21278903 0.23902102 -1.6911051
-4.27121e-14 -1.2079348e-09 -1.2546296e-11 -0.0001287134 -1.544927e-08 -0.43071115 -0.1395519 1.9199435e-06
-0.007875117 -0.3324057 -4.6630477e-09 -4.8943627e-12 0.17140186 -0.6240702 0.17603493 -9.450293e-12
-0.5865745 0.26683664 -2.1425576e-12 -0.30682552 -0.39827067 -1.8630989e-11 -0.4899465 -1.2257835
-0.016348975 0.22260502 -0.0566348 -0.221154 -1.4393693e-12 -1.6518239e-12 -0.48547384 -0.17633104
0.22310477 -9.8737104e-08 -8.455279e-12 -1.0908661e-12 -3.0743883e-11 -8.991839e-06 -1.7679755e-10 -0.12846945
-0.31132433 -2.936537e-10 -1.004747 5.0088145e-13 0.0590305 -3.262433e-10 -1.7404877e-12 5.72504e-13
-1.0943654 -3.068573e-10 -2.6106667e-14 -0.66335446 -1.1213331 7.3150765e-15 0.01653488 0.1724932
-0.09262464 -0.37024468 -6.5925767e-12 -0.0026331218 -0.49013463 0.17699976 0.28817827 -0.5061925
3.570945e-14 -1.0258463e-09 -1.2136041e-11 -0.00017790493 -1.3340886e-08 -0.6165452 -0.22638948 -1.8610472e-05
-2.5325136e-13 -4.645756e-13 -7.316026e-13 -6.920269e-14 -7.217673e-13 -4.5163314e-13 -6.3806187e-13 -4.1173624e-13
7.276161e-14 5.350194e-15 -8.557555e-14 -2.2639746e-13 -3.394849e-13 -4.9246587e-14 -4.1666303e-14 -2.697815e-13
-1.4530898e-13 -2.2199206e-13 -2.6425105e-13 -4.1361584e-13 1.5694377e-13 -3.574132e-14 1.8334912e-13 -2.8813255e-13
-2.859248e-14 1.7392653e-13 -2.8986657e-14 1.1799974e-14 2.0434117e-13 -4.1687378e-13 -1.5466883e-13 -3.2904888e-13
7.922015e-14 -1.1582574e-13 -2.21594e-13 -1.1451961e-13 -3.77224e-13 -6.118788e-14 -5.3029978e-14 5.2145977e-14
2.118337e-15 -6.834485e-14 2.9755085e-14 8.324891e-14 1.7262264e-13 -9.8996256e-15 -4.924816e-13 -5.023541e-13
-1.1498732e-13 2.6288317e-13 3.1570415e-14 -1.936645e-13 -1.5244683e-13 -4.643726e-13 -3.1484174e-13 3.011355e-13
-2.8856183e-14 -2.503624e-13 4.278816e-14 7.7815474e-14 -8.3322014e-14 -6.4551934e-14 3.8766692e-14 -3.2101532e-13
0.016733577 0.31717175 -2.1102446e-06 7.54304e-12 0.061966114 0.5357858 0.054238513 7.2003323e-12
-0.001612758 0.10197902 5.5732426e-13 -0.021189809 0.42511398 1.35745104e-11 0.533849 -0.030080672
0.030227462 -0.03393539 0.06877328 0.22956999 3.5741791e-12 1.6873407e-12 0.50811 0.2136416
-0.0066494634 6.847715e-08 1.5390314e-11 3.6544058e-12 3.2206404e-11 7.5244e-06 1.7840306e-11 0.18056814
0.37191725 4.048296e-11 0.0031363016 5.8437213e-12 -0.17431676 2.698252e-10 6.1188134e-12 6.9330665e-12
-0.01055783 -7.204659e-11 6.9255745e-14 0.8819014 0.02271152 4.407219e-15 -0.38351858 0.055372503
0.0517731 0.025071312 -7.596128e-06 0.003839263 0.48382542 0.012682425 -0.018115453 1.4664762
-3.408733e-14 7.756289e-10 2.0933177e-11 0.0004887369 6.13344e-09 -0.010230361 0.3795672 2.7947812e-05
00000000: 1841 55bb 66aa 74be 6201 e4b1 2ddc a0aa
00000010: 2223 3d3e 9b8a 16bf 400c 3f3e 6b79 bdac
00000020: ec83 f3be f98f febb 8f6c 9a2c 5b8f 723b
00000030: 4c25 c7be 656f 3cad b854 0bbf c9ce 32bf
00000040: 0015 43bc 302a 7d3e 3103 98bd e4f2 74be
00000050: 5492 05ac b1fc ecab 948f fdbe 6d8d 80be
00000060: 36ab 343e 7c90 0ab4 e9b5 e9ac b34e c0ab
00000070: e0ee dbad 6552 48b7 ca27 2eaf 5dbc 29be
00000080: e6a6 b7be 281f 85af 2f36 24bf 8c13 d52c
00000090: 46ff 763e 7e6a b6af 9af7 f5ab 5bad 2fac
000000a0: 29c5 f3be 1d7e 92af 5503 1829 352f 39bf
000000b0: 92e0 c3be 18bc 3228 bbdd 9a3e bb68 423e
000000c0: ddc2 d8bd 5b2a c6be 130c caae 227b 53bb
000000d0: b9dd efbe 5ee5 593e edc1 743e 2276 d8bf
000000e0: b35b 40a9 6d04 a6b0 7eb7 5cad 3df7 06b9
000000f0: 4eb5 84b2 2c86 dcbe b1e6 0ebe 61d8 0036
00000100: a206 01bc 1431 aabe 9a38 a0b1 8034 acac
00000110: f883 2f3e 11c3 1fbf 8042 343e 5640 26ad
00000120: bf29 16bf d09e 883e e3c4 16ac 3c18 9dbe
00000130: 22ea cbbe 42e1 a3ad 45da fabe 79e6 9cbf
00000140: 49ee 85bc 92f2 633e e4f9 67bd 3276 62be
00000150: bf92 caab 3a79 e8ab 0790 f8be 2090 34be
00000160: 9475 643e 4c09 d4b3 31bf 14ad 9886 99ab
00000170: 8936 07ae a8db 16b7 1664 42af 7f8d 03be
00000180: e765 9fbe 1670 a1af 8d9b 80bf 50fc 0c2b
00000190: f7c9 713d aa5a b3af aef3 f4ab 4325 212b
000001a0: 2a14 8cbf 53b2 a8af e025 eba8 99d1 29bf
000001b0: d887 8fbf d6c6 0328 2874 873c 0fa2 303e
000001c0: fdb1 bdbd b690 bdbe a7f4 e7ac 7490 2cbb
000001d0: edf2 fabe 6d3f 353e 1a8c 933e d595 01bf
000001e0: 31d2 2029 c2fd 8cb0 df7f 55ad fe8b 3ab9
000001f0: d631 65b2 e8d5 1dbf a5d2 67be af1d 9cb7
00000200: 5e91 8eaa 33c4 02ab 86ed 4dab a2d4 9ba9
00000210: d128 4bab 323f feaa 3499 33ab 72c9 e7aa
00000220: 36d8 a329 d4c2 c027 f2b2 c0a9 a0e6 7eaa
00000230: ee1c bfaa 73c9 5da9 faa5 3ba9 9ddf 97aa
00000240: 769a 23aa dbf0 79aa 97c2 94aa 53d8 e8aa
00000250: f6b3 302a f0f6 20a9 c96e 4e2a 4734 a2aa
00000260: e3c4 00a9 e9d2 432a 578b 02a9 c691 5428
00000270: 5511 662a d8ad eaaa 4124 2eaa f13c b9aa
00000280: 4f63 b229 7f68 02aa 1f7e 79aa 08f0 00aa
00000290: b55b d4aa 69c8 89a9 67d3 6ea9 38d8 6a29
000002a0: 6ca4 1827 20e6 99a9 4701 0629 bb75 bb29
000002b0: 175b 422a f755 32a8 0a9f 0aab 6e66 0dab
000002c0: d776 01aa 75fd 932a 362e 0e29 fe0b 5aaa
000002d0: cfa3 2baa 93b5 02ab 7a3d b1aa 3386 a92a
000002e0: eaf4 01a9 06f1 8caa 64b3 4029 9139 af29
000002f0: df9f bba9 a85b 91a9 f496 2e29 2fb7 b4aa
00000300: db14 893c 5664 a23e ba9d 0db6 d5b2 042d
00000310: 2ed0 7d3d 4229 093f 3429 5e3d d456 fd2c
00000320: 2e63 d3ba 60da d03d 72df 1c2b 4096 adbc
00000330: 8aa8 d93e 29ce 6e2d 54aa 083f be6b f6bc
00000340: 959f f73c d6ff 0abd 01d9 8c3d 6514 6b3e
00000350: b082 7b2c db78 ed2b 7f13 023f ddc4 5a3e
00000360: bee3 d9bb b60d 9333 e85f 872d f693 802c
00000370: 30a5 0d2e 1b7a fc36 ccec 9c2d dbe6 383e
00000380: f06b be3e c30b 322e 698a 4d3b 909b cd2c
00000390: 1880 32be 8556 942f 5f49 d72c 83ef f32c
000003a0: c0fa 2cbc a06e 9eae 38f3 9b29 4ac4 613f
000003b0: 820d ba3c 6cc9 9e27 8c5c c4be 47ce 623d
000003c0: 0810 543d 5a62 cd3c 3ee2 feb6 259c 7b3b
000003d0: f7b7 f73e f2c9 4f3c dc66 94bc 7eb5 bb3f
000003e0: 0484 19a9 0834 5530 5321 b82d 941e 003a
000003f0: 4fbe d231 3e9d 27bc a256 c23e 7871 ea37

bias f4 [16]
0.37879366 0.37260482 -5.145065e-13 0.01899541 -5.007404e-12 -1.9123927e-10 0.07463042 -0.0010369521
0.592674 0.0569213 -2.8952195e-07 -0.026109802 0.07918085 0.36505947 0.11500716 -0.027878655
00000000: 3ef1 c13e 0fc6 be3e 1ad2 10ab 439c 9b3c
00000010: b02e b0ac 1245 52af d5d7 983d 57ea 87ba
00000020: 7cb9 173f 4f26 693d 986f 9bb4 39e4 d5bc
00000030: 9229 a23d 13e9 ba3e e088 eb3d c761 e4bc

weight f4 [4, 16]
0.53506964 0.596212 -4.0929194e-14 -0.32496536 -2.5942637e-11 -1.0204799e-14 -0.3178102 -0.35818207
0.26308075 0.3043962 2.686756e-07 -0.16031392 0.061980784 0.49460915 0.2618246 -1.379724
0.5348206 0.55807436 1.2215597e-13 -0.3209268 -4.5713298e-14 -1.8568953e-14 0.08472248 -0.33853057
0.2628514 0.29245538 2.615039e-07 -1.4401209 -0.31483695 0.548209 0.24682276 -0.12818809
0.5569764 0.5689829 -1.0121255e-13 -0.79133475 5.947394e-14 3.8362217e-14 -0.3819719 0.025581315
0.20119044 -0.74629766 1.1500961e-07 -0.033672668 -0.41391844 0.50688046 0.18976383 -0.036946125
0.44607845 0.61585104 -1.8742431e-15 0.018274834 -1.484426e-14 5.421102e-10 -0.42905188 -0.84551704
0.22138967 0.23747571 4.0637774e-10 -0.034008328 -0.40743914 0.5273284 -0.94866717 -0.04191198
00000000: 53fa 083f 5aa1 183f 2654 38a9 dc61 a6be
00000010: a031 e4ad 54d5 37a8 05b8 a2be a463 b7be
00000020: 85b2 863e d2d9 9b3e 7e3e 9034 5529 24be
00000030: 90df 7d3d 693d fd3e e00d 863e cc9a b0bf
00000040: 01ea 083f f6dd 0e3f 1089 092a 8450 a4be
00000050: d8df 4da9 1741 a7a8 fb82 ad3d e153 adbe
00000060: 7594 863e b6bc 953e d364 8c34 e255 b8bf
00000070: 4f32 a1be 6d57 0c3f 1bbf 7c3e bd43 03be
00000080: 0196 0e3f dda8 113f 10e9 e3a9 ea94 4abf
00000090: 64ec 8529 a0c4 2c29 d291 c3be e88f d13c
000000a0: de04 4e3e 5d0d 3fbf 34fb f633 5aec 09bd
000000b0: 1eed d3be ebc2 013f 7351 423e d254 17bd
000000c0: 6564 e43e 6aa8 1d3f af0d 07a7 1bb5 953c
000000d0: 88b4 85a8 9d03 1530 b0ac dbbe ce73 58bf
000000e0: f9b3 623e d52c 733e 9568 df2f 514c 0bbd
000000f0: dd9b d0be fefe 063f dadb 72bf e5ab 2bbd

bias f4 [4]
0.2593798 0.25921643 0.011389406 0.048009727
00000000: 6ecd 843e 04b8 843e a29a 3a3c d9a5 443d
