data/128000.pth (torch, 33943 bytes, 6 tensors)

weight f4 [64, 33]
0	0xb9bc33aa	-0.00035896647
1	0xb9293bc9	-0.00016139368
2	0x398affb5	0.00026511928
3	0x3893d92a	7.049956e-05
4	0x3adacc52	0.0016692972
5	0x3ab18009	0.0013542186
6	0x3a373c73	0.00069899036
7	0xbab24471	-0.0013600719
8	0xbac68bcd	-0.0015147865
9	0x3b967f45	0.0045928084
10	0x3b1a4488	0.0023539383
11	0x3b13f5b6	0.0022576875
12	0xba95fbed	-0.0011442878
13	0x3b2feb83	0.0026843257
14	0xba40e7fa	-0.0007358786
15	0xba9d9a21	-0.0012024083
16	0x3920f5ab	0.00015350308
17	0x3b16af30	0.0022992603
18	0x3b178833	0.0023121953
19	0xb98cfbb8	-0.00026890426
20	0x3a800351	0.0009766613
21	0x3a9601c0	0.0011444613
22	0x3a91de2b	0.0011128833
23	0xba407f59	-0.0007343195
24	0x3b0365e3	0.0020049743
25	0xbc6de0f9	-0.01451897
26	0xbcc3a5e6	-0.023882817
27	0xbc44239a	-0.011971379
28	0xbb1082e0	-0.0022050664
29	0xb90ef7ae	-0.00013634443
30	0x3b8b7adb	0.004256589
31	0x39f36294	0.00046422018
32	0xba525280	-0.0008023158
33	0xbcdf2563	-0.027239507
34	0xbe0e0090	-0.13867402
35	0xbdd2922a	-0.10281785
36	0xbdd78150	-0.10522711
37	0xbd169adc	-0.03676878
38	0x3bb826b7	0.0056198495
39	0xbe28a897	-0.16470562
40	0xbd28a7fd	-0.04117583
41	0xbd3afffb	-0.04565428
42	0xbd2df2e5	-0.04246797
43	0x3d74d747	0.059775617
44	0x3e06a97a	0.13150588
45	0x3da01647	0.07816749
46	0xbd29aec3	-0.04142643
47	0xbba6f6b8	-0.005095329
48	0x3dbc79bc	0.092029065
49	0xbdf2c43a	-0.118538335
50	0xbd59f521	-0.05321229
51	0xbe067d7f	-0.1313381
52	0xbd5ef4eb	-0.05443279
53	0xbd5155a6	-0.05110707
54	0xbe5de781	-0.21670343
55	0xbe01dd64	-0.1268211
56	0xbde38041	-0.11108447
57	0xbd050592	-0.032476015
58	0x3d94ea84	0.07271293
59	0x3e826b34	0.25472414
60	0x3d22b896	0.039726816
61	0xbf399e76	-0.7250742
62	0x3b8e2223	0.0043375655
63	0x3d5985fb	0.05310629
64	0xbc3678e5	-0.011137222
65	0x3c5c681f	0.013452559
66	0x2fb4ecff	3.2910205e-10
67	0xad956566	-1.6984369e-11
68	0x2eb939ee	8.4231164e-11
69	0xaf3be477	-1.7088718e-10
70	0x2eeca2d0	1.0760959e-10
71	0xaf522632	-1.9112958e-10
72	0x2f806818	2.3357027e-10
73	0xaf349bec	-1.6426299e-10
74	0x2fc9ce2a	3.6708175e-10
75	0xb5e5aec1	-1.711269e-06
76	0xb5e5bddf	-1.7117089e-06
77	0x2f9824a3	2.767467e-10
78	0xb5e64621	-1.7156746e-06
79	0xb5e62130	-1.7145994e-06
80	0xb5e624c4	-1.7147036e-06
81	0xb5e614e2	-1.7142413e-06
82	0xb5e5c5e1	-1.711942e-06
83	0x2f6faae0	2.179763e-10
84	0x2ffc90a8	4.5941317e-10
85	0x2dee4272	2.7086975e-11
86	0x2eb7ccc9	8.358254e-11
87	0xb5e5e833	-1.7129408e-06
88	0xb5e5ed65	-1.713092e-06
89	0xb5e5f5f2	-1.7133409e-06
90	0x2f951a22	2.712151e-10
91	0xb5e3a275	-1.6960099e-06
92	0xb5e54b9d	-1.7083836e-06
93	0xb5e4d41c	-1.7049056e-06
94	0xb5dfd9e9	-1.6678215e-06
95	0x35e30211	1.6913419e-06
96	0xb5e4c902	-1.7045825e-06
97	0xb5e6bf98	-1.7192096e-06
98	0xb5e634e7	-1.7151732e-06
99	0xac9b5942	-4.4152746e-12
100	0xac97ad15	-4.310894e-12
101	0xac5ba054	-3.1210772e-12
102	0xabfbf77c	-1.7903313e-12
103	0xac9755da	-4.3012096e-12
104	0xaca654bc	-4.727411e-12
105	0xac91ee74	-4.1476215e-12
106	0xa9fbb05d	-1.1177233e-13
107	0xabb35dcf	-1.2744752e-12
108	0xaca841f1	-4.782168e-12
109	0xac77615b	-3.5154854e-12
110	0xa9661d2c	-5.1095562e-14
111	0x2c74810b	3.4746119e-12
112	0x29b49d3e	8.020883e-14
113	0xac03b7ee	-1.8718321e-12
114	0xac82b8f3	-3.7153557e-12
115	0xabf4782a	-1.7370595e-12
116	0xab88baf0	-9.715267e-13
117	0xab86c5dc	-9.57619e-13
118	0xab98b8e1	-1.0851564e-12
119	0xaafd4e06	-4.4995968e-13
120	0xac0d893a	-2.0113481e-12
121	0xaa15e177	-1.3312082e-13
122	0xab90b674	-1.0282456e-12
123	0xac30a94c	-2.5105083e-12
124	0xad3aab6f	-1.0610942e-11
125	0xace046d8	-6.374328e-12
126	0xacf913a9	-7.0791884e-12
127	0xad189818	-8.673971e-12
128	0x2af4331e	4.3378577e-13
129	0xabd238ef	-1.49372e-12
130	0xab9a2430	-1.0952402e-12
131	0x2d1bd837	8.858739e-12
132	0x3c986ff7	0.018608076
133	0x3d66e176	0.05636736
134	0x3d4ea173	0.05044694
135	0x3d1ea13a	0.038727976
136	0x3c869265	0.016427228
137	0x3c1a828e	0.009430541
138	0x3cb94632	0.02261648
139	0xbc68523d	-0.014179763
140	0x3bdb6b4f	0.006696142
141	0xbc45f78b	-0.012082945
142	0xbcf74774	-0.030185439
143	0x3ab85385	0.0014062977
144	0x3c6e2b8a	0.014536748
145	0x3d384044	0.044983163
146	0xbbce651c	-0.0062986743
147	0x3c8a9099	0.016914653
148	0x3daed383	0.085364364
149	0x3b45ba78	0.0030170958
150	0x3b6e77fd	0.0036387437
151	0x39858d33	0.00025472938
152	0x3dad1c7a	0.08452697
153	0xbb13761b	-0.0022500816
154	0x3d808fd5	0.06277434
155	0x3bd91d87	0.0066258344
156	0x3c2c3d14	0.010512609
157	0x3ecd0448	0.4004233
158	0x3e859099	0.26086882
159	0x3eb505d6	0.35356015
160	0x3e954dbb	0.29160866
161	0xbdc20476	-0.09473507
162	0x3df1e793	0.118117474
163	0x3d266769	0.040625963
164	0xbc59863a	-0.013276631
165	0xbd77e778	-0.06052348
166	0xbd48eca8	-0.049053818
167	0xbdcbddfb	-0.09954449
168	0xbcb53202	-0.022118572
169	0xbd77ae54	-0.060468987
170	0xbc24b366	-0.010052538
171	0xbcb27057	-0.021782083
172	0xbd5a0ad1	-0.05323297
173	0xbad3e167	-0.0016165198
174	0xbdb637aa	-0.08897336
175	0x3b1f32e5	0.002429181
176	0xbb91d121	-0.004449979
177	0x3e085292	0.13312748
178	0x3c218889	0.009859213
179	0x3c06f954	0.008238155
180	0x3a69e68e	0.00089226
181	0xbb7ab6cd	-0.003825593
182	0xbc52eb7f	-0.012873529
183	0x3ac6b13f	0.0015159025
184	0xbc2e65ef	-0.01064442
185	0x3a2b4c99	0.0006534546
186	0x3bd36f1d	0.0064524547
187	0x3be7c74c	0.0070733186
188	0x3c41dc83	0.011832359
189	0x3d5060ac	0.050873443
190	0x3e11e445	0.14247234
191	0x3e9d29b4	0.3069588
192	0x3e8f5f5e	0.28002447
193	0x3e0a4be8	0.13505518
194	0x3dcae613	0.099071644
195	0x3da7f2c9	0.082006045
196	0xbdc13cdd	-0.09435437
197	0xbd8c251f	-0.06843018
198	0x3bb77717	0.0055989134
199	0x3d586467	0.052830126
200	0x3d20dcb6	0.039272986
201	0x3d050d1b	0.0324832
202	0x3bdfeed9	0.006833893
203	0x3b780808	0.0037846584
204	0x3c7c9a56	0.015417656
205	0xbccdb964	-0.025112815
206	0xbb5044f1	-0.0031779374
207	0xbca6e986	-0.020375025
208	0xbd356f1e	-0.044295423
209	0xbc50e742	-0.012750449
210	0xba823e3a	-0.0009936758
211	0x3cc6e5fb	0.024279585
212	0xbcad00a0	-0.021118462
213	0x3bdd0f28	0.0067461915
214	0x3d98dfb3	0.07464542
215	0xbb9d4720	-0.0047997385
216	0xbc00ebb4	-0.007868696
217	0xbc492725	-0.012277399
218	0x3d91c0dd	0.07116864
219	0xbc17e59a	-0.00927105
220	0x3d4270bb	0.04747079
221	0x3aca6df1	0.0015444142
222	0xbbca8ab2	-0.0061810846
223	0x3ed61460	0.4181242
224	0x3e8c18a5	0.27362552
225	0x3eba1feb	0.36352476
226	0x3e96e246	0.29469508
227	0xbdb7cc83	-0.089745544
228	0x3e04fb2e	0.12986442
229	0x3d4fb07d	0.05070542
230	0xbd003209	-0.031297717
231	0x2b501ae8	7.3933784e-13
232	0xac24b5cd	-2.3406721e-12
233	0xab0012b9	-4.550072e-13
234	0x2b12592a	5.199336e-13
235	0xaca6d139	-4.741232e-12
236	0xab6a444d	-8.3228286e-13
237	0x2b844b51	9.400069e-13
238	0xab06020c	-4.7609204e-13
239	0x2c1ddcce	2.2433613e-12
240	0xad029b1c	-7.424086e-12
241	0xab3f4988	-6.7958876e-13
242	0x2a80244d	2.2762556e-13
243	0x2a15fa8b	1.3320783e-13
244	0xaba7efd4	-1.1932629e-12
245	0x2b85368f	9.465361e-13
246	0xac14ec30	-2.1163175e-12
247	0xac9cae56	-4.453142e-12
248	0xabf6e773	-1.7543591e-12
249	0x2a5bbbac	1.9516219e-13
250	0x2b72889f	8.616527e-13
251	0x2b277c69	5.950297e-13
252	0xabdf64e5	-1.5873107e-12
253	0x2acf315e	3.6804842e-13
254	0xaac147d4	-3.4333528e-13
255	0xac3965ce	-2.6346594e-12

bias f4 [64]
0	0xbbd013b8	-0.006350007
1	0x3e464d22	0.19365361
2	0xb5d1419e	-1.559081e-06
3	0xacd1b2fc	-5.9600085e-12
4	0x3e6e7f39	0.23290719
5	0x3e9b0af4	0.30281794
6	0x3e75825e	0.23975512
7	0xacdebf09	-6.3308287e-12
8	0xbdf82baf	-0.12117707
9	0x3e3ed1ba	0.18634692
10	0xac960afe	-4.264477e-12
11	0x3e02de4b	0.1278011
12	0x3e94cc57	0.2906215
13	0xada82409	-1.9115392e-11
14	0x3ea47616	0.32121342
15	0xbe050c03	-0.12992863
16	0xbc90d382	-0.01767898
17	0x3e21a7b3	0.15786628
18	0xbd463ef8	-0.048399895
19	0x3b350cdb	0.002762607
20	0xac415d34	-2.7478688e-12
21	0xabb2a425	-1.269322e-12
22	0x3e7e6b22	0.24845555
23	0xbd53221c	-0.0515462
24	0x3e8d1256	0.27553052
25	0xb2cac639	-2.3606036e-08
26	0xad627e01	-1.2874591e-11
27	0xac38ff35	-2.628964e-12
28	0xada8d803	-1.9195317e-11
29	0xb5fe2d46	-1.8937651e-06
30	0xaf7dc8e2	-2.3081584e-10
31	0xbdb9650b	-0.090524755
32	0xbe80ffd1	-0.25195172
33	0xaf07e6b0	-1.2360135e-10
34	0xbd453754	-0.048148468
35	0xad13e829	-8.4075325e-12
36	0x3e5192b3	0.20466118
37	0xaeaf4ea9	-7.9720515e-11
38	0xacac6fde	-4.9009538e-12
39	0xac9527a3	-4.2392353e-12
40	0xbcd018ea	-0.025402505
41	0xaf459153	-1.7968675e-10
42	0xa8f56964	-2.724617e-14
43	0xbe8946cb	-0.26811823
44	0xbcbe63aa	-0.023240883
45	0xa8ec8d01	-2.6262414e-14
46	0x3e0ea11d	0.13928647
47	0x3e7cb1c9	0.24677195
48	0xbcad4e65	-0.021155545
49	0xbc234876	-0.0099660065
50	0xb6baea0d	-5.570479e-06
51	0xba653a00	-0.00087442994
52	0x3e9b30c4	0.30310643
53	0x3e8fa82c	0.28057992
54	0x3e120798	0.1426071
55	0xbd005c68	-0.031338125
56	0xa93a04ad	-4.1304352e-14
57	0xaf888b7a	-2.483736e-10
58	0xad9e85e0	-1.8021973e-11
59	0xb92f361d	-0.0001670946
60	0xb225ce07	-9.651109e-09
61	0xbe07575e	-0.13216922
62	0xbe12b728	-0.14327681
63	0xb62e5d57	-2.5982351e-06

weight f4 [16, 64]
0	0xbb1a243c	-0.0023520133
1	0xbe8cd3bc	-0.2750529
2	0xb1a4cde7	-4.7964366e-09
3	0xaa688c36	-2.0654385e-13
4	0x3e2cbca5	0.16868837
5	0xbef4ab6f	-0.47787043
6	0x3e2f0118	0.17090261
7	0xac88f1c2	-3.892193e-12
8	0xbf006971	-0.5016089
9	0xbc52d221	-0.012867481
10	0x2c5f39dc	3.1722324e-12
11	0xbc02c45c	-0.007981386
12	0xbe80f6c9	-0.25188282
13	0xad082fa1	-7.741281e-12
14	0xbf0d48ba	-0.55189097
15	0xbf3aa691	-0.7291041
16	0xbc0cfbe0	-0.008604974
17	0x3e8241b0	0.2544074
18	0xbd5bc206	-0.053651832
19	0xbe6cd75a	-0.23129025
20	0xabc114a7	-1.3719207e-12
21	0xabab46dd	-1.2169949e-12
22	0xbf040cc9	-0.5158201
23	0xbe7711f1	-0.24127938
24	0x3e2f54e5	0.17122228
25	0xb3c84da6	-9.32735e-08
26	0xaca8ed21	-4.8011738e-12
27	0xab8b0180	-9.87696e-13
28	0xad9ef6bc	-1.8072092e-11
29	0xb710c8ca	-8.629819e-06
30	0xaefbc1c8	-1.1448581e-10
31	0xbdf55efa	-0.11981006
32	0xbebef828	-0.37298703
33	0xaf406c53	-1.7500783e-10
34	0xbf275c2f	-0.65375036
35	0x2c9a03b3	4.377354e-12
36	0x3e84176e	0.25799125
37	0xaf83d9ba	-2.3983465e-10
38	0xabb1c609	-1.2631572e-12
39	0xabfdf5e0	-1.8044975e-12
40	0xbeee82b6	-0.465841
41	0xaf53c70c	-1.9261054e-10
42	0x28dbc239	2.4398115e-14
43	0xbf56bdc0	-0.83883286
44	0xbed7da81	-0.42158893
45	0x28012f37	7.171177e-15
46	0x3ea37203	0.31922922
47	0x3e343d40	0.1760149
48	0xbd9ca9a6	-0.07649545
49	0xbed89bd4	-0.42306387
50	0xae9206d4	-6.640524e-11
51	0xbb18db86	-0.0023324206
52	0xbf09bf06	-0.53807104
53	0x3e4fa5ea	0.20278135
54	0x3e53ce7c	0.20684236
55	0xbfd66636	-1.6749942
56	0xa90b0abd	-3.0873514e-14
57	0xb0700340	-8.731611e-10
58	0xad1f875d	-9.06816e-12
59	0xb8c31e49	-9.3039656e-05
60	0xb23fd2d6	-1.1165602e-08
61	0xbedc4722	-0.4302302
62	0xbe5c548a	-0.21516624
63	0x35ba3f09	1.3876426e-06
64	0xbbba81a5	-0.0056917244
65	0xbe6b64ed	-0.22987719
66	0xb1679ec6	-3.3705176e-09
67	0xac78f234	-3.537737e-12
68	0x3e260e31	0.16216351
69	0xbf0b152a	-0.5432917
70	0x3e29ded3	0.16588907
71	0xacf05b3b	-6.831339e-12
72	0xbf00852f	-0.5020322
73	0x3e80dfe0	0.25170803
74	0xabd9f65c	-1.5487156e-12
75	0xbea92176	-0.3303334
76	0xbeab6a42	-0.33479506
77	0xad6ce62a	-1.34661535e-11
78	0xbf042328	-0.51616144
79	0xbfa4feaf	-1.2890223
80	0xbc419b0d	-0.011816752
81	0x3e5efde1	0.21776535
82	0xbd27aa95	-0.040934164
83	0xbe2f2723	-0.17104773
84	0xab926962	-1.0403174e-12
85	0xaba807f5	-1.1939326e-12
86	0xbef54006	-0.47900409
87	0xbe2e4df9	-0.17021932
88	0x3e561697	0.20907055
89	0xb399438a	-7.136903e-08
90	0xacd7066f	-6.111382e-12
91	0xab5ded4c	-7.884429e-13
92	0xadc37acd	-2.2223468e-11
93	0xb6da181f	-6.4997143e-06
94	0xaf0c7c7f	-1.2777156e-10
95	0xbdbe2de0	-0.09286094
96	0xbe977e08	-0.29588342
97	0xaf696378	-2.1226565e-10
98	0xbf85d5fc	-1.0455928
99	0x2acbd4b1	3.6207628e-13
100	0x3d4514ef	0.048115667
101	0xaf81a07a	-2.357899e-10
102	0xabb10882	-1.2578968e-12
103	0x2ae8f654	4.1382403e-13
104	0xbf8dd425	-1.1080366
105	0xaf73dc03	-2.2178885e-10
106	0xa8a9f51b	-1.8869067e-14
107	0xbf422c36	-0.7584871
108	0xbf8d69fb	-1.1047968
109	0x27be7f7a	5.2873804e-15
110	0xbbbf9f94	-0.0058478806
111	0x3e28baa8	0.16477454
112	0xbd891b09	-0.0669461
113	0xbeb037c0	-0.34417534
114	0xaca7a6bd	-4.764937e-12
115	0xbaf976bd	-0.0019032579
116	0xbf0c1626	-0.54721296
117	0x3e30011e	0.17187926
118	0x3e931ad6	0.28731412
119	0xbf06d3ee	-0.5266713
120	0x28e87dba	2.58117e-14
121	0xb04bd6c0	-7.415615e-10
122	0xad1a5112	-8.771888e-12
123	0xb906d57a	-0.00012858762
124	0xb225a667	-9.6421e-09
125	0xbf13068d	-0.5743187
126	0xbe87e965	-0.26545253
127	0xb761b51c	-1.3453213e-05
128	0xaa4e1756	-1.8304572e-13
129	0xaabd0f6a	-3.358384e-13
130	0xab14d800	-5.287992e-13
131	0xa96149f8	-5.0024194e-14
132	0xab12d62e	-5.2166854e-13
133	0xaab7c450	-3.264355e-13
134	0xab01cd25	-4.61147e-13
135	0xaaa7870d	-2.975887e-13
136	0x296cd926	5.2590873e-14
137	0x278b5406	3.867135e-15
138	0xa98b48bd	-6.185458e-14
139	0xaa383cdd	-1.6363599e-13
140	0xaa8a23e4	-2.4538629e-13
141	0xa9204cde	-3.559381e-14
142	0xa9079d4b	-3.011245e-14
143	0xaa5b8f07	-1.950073e-13
144	0xa9ec8062	-1.0502776e-13
145	0xaa34a59b	-1.6044667e-13
146	0xaa570b5b	-1.9099776e-13
147	0xaaa84db2	-2.9896707e-13
148	0x29ff7764	1.1344986e-13
149	0xa8e8b30f	-2.5834828e-14
150	0x2a1535b5	1.3252492e-13
151	0xaa6a7d82	-2.0826919e-13
152	0xa8ba22f8	-2.0665314e-14
153	0x2a0d87ce	1.2570432e-13
154	0xa8bcbe46	-2.095471e-14
155	0x2819a701	8.529419e-15
156	0x2a264556	1.4767818e-13
157	0xaaa99eff	-3.0130756e-13
158	0xa9fbbcaf	-1.11793706e-13
159	0xaa85e37f	-2.3783403e-13
160	0x2980efcd	5.725941e-14
161	0xa9bc8ab6	-8.3729397e-14
162	0xaa3453a7	-1.6016234e-13
163	0xa9ba611a	-8.276904e-14
164	0xaa997fd7	-2.7266966e-13
165	0xa9472ca7	-4.4225606e-14
166	0xa92c9de5	-3.8328624e-14
167	0x2929bd65	3.7689812e-14
168	0x26dca91e	1.5311406e-15
169	0xa95e763a	-4.9396447e-14
170	0x28c1b6cf	2.1506585e-14
171	0x29877b65	6.01661e-14
172	0x2a0c761a	1.2475473e-13
173	0xa800e644	-7.155358e-15
174	0xaac862ac	-3.5595604e-13
175	0xaacc6c48	-3.6312815e-13
176	0xa9bb250e	-8.310896e-14
177	0x2a55edda	1.9000722e-13
178	0x28cd89ae	2.2819281e-14
179	0xaa1d9a9d	-1.3998043e-13
180	0xa9f822ab	-1.1019426e-13
181	0xaabcfa9a	-3.3569398e-13
182	0xaa801deb	-2.2758127e-13
183	0x2a75102e	2.1765985e-13
184	0xa8bbdfa5	-2.0858161e-14
185	0xaa4bc48e	-1.8098216e-13
186	0x290b490e	3.0927565e-14
187	0x297d4c57	5.62435e-14
188	0xa9879902	-6.021747e-14
189	0xa9522525	-4.6661585e-14
190	0x28fc61fd	2.8020116e-14
191	0xaa8299d4	-2.3199379e-13
192	0x3c46294b	0.012094806
193	0x3e884845	0.26617637
194	0xb5ccbb46	-1.5253688e-06
195	0x2cbfcf51	5.4515632e-12
196	0x3db5f6f0	0.0888499
197	0x3ef72933	0.4827362
198	0x3da4047f	0.0800867
199	0x2cb71ca1	5.2043513e-12
200	0xbc2e338e	-0.010632409
201	0x3de9ca21	0.11415506
202	0x2ae2c8a9	4.02849e-13
203	0xbc018091	-0.007904188
204	0x3e767b33	0.24070434
205	0x2d2c9a1a	9.8112855e-12
206	0x3efeb2c7	0.4974577
207	0xbbc5ec56	-0.0060401363
208	0x3cb2fb2f	0.02184829
209	0xbd196407	-0.03744891
210	0x3d4ba240	0.04971528
211	0x3e66a005	0.2252198
212	0x2c35c4b2	2.5830835e-12
213	0x2baba0c1	1.2194899e-12
214	0x3efca9b2	0.49348217
215	0x3e7a513c	0.24445051
216	0x3c15205d	0.009101954
217	0x335492a3	4.949346e-08
218	0x2d43b744	1.112516e-11
219	0x2c39dc84	2.6412492e-12
220	0x2dccc5f1	2.3280019e-11
221	0x36b67a77	5.4382795e-06
222	0x2d62db99	1.2895373e-11
223	0x3e05a552	0.13051346
224	0x3ed8cffc	0.4234618
225	0x2e00b142	2.9261267e-11
226	0x3c8dd9fd	0.017315859
227	0x2c949c93	4.2237962e-12
228	0xbe38fa90	-0.18064332
229	0x2f566ed7	1.9502565e-10
230	0x2c9b97db	4.4222243e-12
231	0x2cb04d58	5.0108077e-12
232	0xbc0bcbe9	-0.008532503
233	0xae6505f8	-5.2073873e-11
234	0x296176d4	5.0063103e-14
235	0x3f689bbd	0.9086264
236	0x3cb885a1	0.022524657
237	0x276589c3	3.1854815e-15
238	0xbec23d11	-0.37937215
239	0x3da465fc	0.080272645
240	0x3d194878	0.037422627
241	0x3cc4cd14	0.02402357
242	0xb6b839b6	-5.4903458e-06
243	0x3b35d766	0.0027746796
244	0x3efeab45	0.49740043
245	0x3d0cb383	0.034350883
246	0xbc4ba566	-0.012429571
247	0x3fb43a49	1.4080287
248	0xa8dde99a	-2.4637237e-14
249	0x301a1ae7	5.6063104e-10
250	0x2d8516ab	1.5130416e-11
251	0x39b9337c	0.0003532431
252	0x3198515c	4.4330317e-09
253	0xbd167577	-0.036733117
254	0x3ef2b27a	0.47401792
255	0x37a973af	2.020024e-05

bias f4 [16]
0	0x3ebddc97	0.3708236
1	0x3ebc5f88	0.36791635
2	0xaad15bb9	-3.7189503e-13
3	0x3d195a8e	0.037439875
4	0xac7eb414	-3.6195534e-12
5	0xaf17f8a6	-1.3821708e-10
6	0x3dcad1c5	0.099032916
7	0xbbb83411	-0.005621441
8	0x3f1a1214	0.60183835
9	0x3d5cc9c1	0.053903345
10	0xb460b5c5	-2.0927753e-07
11	0xbca6afe1	-0.020347537
12	0x3db3308b	0.08749493
13	0x3ebd821c	0.37013328
14	0x3dccc987	0.09999376
15	0xbcd89258	-0.02643697

weight f4 [4, 16]
0	0x3f0728de	0.52796733
1	0x3f104b6f	0.563651
2	0xa9053b5e	-2.9583425e-14
3	0xbea38865	-0.31939998
4	0xada4f036	-1.8751316e-11
5	0xa804dfc8	-7.375997e-15
6	0xbea55705	-0.32292953
7	0xbeaba78e	-0.33526272
8	0x3e87083e	0.26373476
9	0x3ea343e5	0.31887737
10	0x34508393	1.9419376e-07
11	0xbe02d2b9	-0.12775697
12	0x3d5b0148	0.05346802
13	0x3ef71751	0.48259977
14	0x3e9903ac	0.29885614
15	0xbfa9eecc	-1.3276
16	0x3f065635	0.5247529
17	0x3f0d03b8	0.550838
18	0x29c6d127	8.8292485e-14
19	0xbe9bf1e3	-0.30457982
20	0xa914ce14	-3.3041346e-14
21	0xa871ca9a	-1.342212e-14
22	0x3d730e59	0.059339855
23	0xbebcc9d5	-0.36872736
24	0x3e855fe4	0.2604972
25	0x3e91c7b1	0.28472665
26	0x344af6c6	1.8902492e-07
27	0xbfb4a695	-1.4113337
28	0xbea66e24	-0.32505906
29	0x3f07a401	0.52984625
30	0x3e8d2760	0.27569103
31	0xbe01aaa1	-0.12662746
32	0x3f0c94f6	0.54914796
33	0x3f0f044c	0.5586593
34	0xa9a4bc9c	-7.3157816e-14
35	0xbf47e2be	-0.78080356
36	0x29419848	4.298669e-14
37	0x28f9c1ed	2.7728655e-14
38	0xbed7a72f	-0.42119738
39	0x3c1da57a	0.009621972
40	0x3e4abfdc	0.19799751
41	0xbf442f09	-0.7663427
42	0x33b28355	8.31266e-08
43	0xbd299f87	-0.041411903
44	0xbedb6273	-0.42848548
45	0x3efdf263	0.4959899
46	0x3e41266b	0.18862312
47	0xbd0f27cc	-0.034950063
48	0x3ee56607	0.44804403
49	0x3f1cd59b	0.61263436
50	0xa6c33f17	-1.3547944e-15
51	0x3bed9842	0.0072508166
52	0xa84146a4	-1.072897e-14
53	0x2fd76987	3.9183254e-10
54	0xbed19c62	-0.40939623
55	0xbf58b0f7	-0.84645027
56	0x3e5f2ff0	0.2179563
57	0x3e791432	0.2432411
58	0x2fa176bc	2.9370095e-10
59	0xbd51b79c	-0.051200494
60	0xbed65a2d	-0.41865674
61	0x3f0bcc10	0.5460825
62	0xbf66b798	-0.9012389
63	0xbd3ee381	-0.046603683

bias f4 [4]
0	0x3e858849	0.2608054
1	0x3e84d396	0.25942677
2	0x399f8b8e	0.0003043082
3	0x3d525432	0.051349826
