data/147200.pth (torch, 36439 bytes, 6 tensors)

weight f4 [64, 33]
000000 69 51 04 b6 84 f3 6d b5 64 72 c3 35 f3 e1 cf 34
       -1.971692e-06 -8.864374e-07 1.4561924e-06 3.8721154e-07
000010 44 d4 19 37 a6 98 f9 36 a8 d3 80 36 a2 ab fa b6
       9.168933e-06 7.438549e-06 3.8393373e-06 -7.4705613e-06
000020 e5 95 0b b7 a5 a0 d3 37 66 e9 58 37 4f 0a 50 37
       -8.319946e-06 2.5227966e-05 1.2928946e-05 1.2400166e-05
000030 f7 e6 d2 b6 ca 5f 77 37 63 9b 87 b6 9f 9b dd b6
       -6.2853755e-06 1.474465e-05 -4.041403e-06 -6.60443e-06
000040 04 59 62 35 64 e4 53 37 f0 14 55 37 80 42 c6 b5
       8.4321096e-07 1.2629756e-05 1.2700664e-05 -1.4771504e-06
000050 cf fe b3 36 31 ef d2 36 b6 22 cd 36 ce 53 87 b6
       5.3642793e-06 6.2863332e-06 6.113517e-06 -4.0330697e-06
000060 e1 c5 38 37 2a 3d a7 b8 68 8d 09 b9 b8 e6 89 b8
       1.1013327e-05 -7.974573e-05 -0.00013118016 -6.575644e-05
000070 97 32 4b b7 02 06 49 b5 b7 1f c4 37 fd 1a 2b 36
       -1.2111522e-05 -7.488708e-07 2.337979e-05 2.5496695e-06
000080 e0 dd 93 b6 e9 f8 c9 3c 0b 41 c2 3a b8 d0 7f 3c
       -4.406771e-06 0.024654822 0.001482041 0.015613727
000090 ad d2 6b 3b 7e fc 28 bc bc 2c b2 3b a6 74 af 3c
       0.0035983727 -0.010314105 0.0054374617 0.021417927
0000a0 64 3c ac 3c 3e 77 8e 3c 05 08 6a bc 7a 8c a0 bc
       0.02102489 0.017390843 -0.014284139 -0.019598234
0000b0 70 7e 38 3c bf 8c cb bc 27 1b ba 3c b3 88 ba bb
       0.011260614 -0.024847386 0.022718025 -0.0056925653
0000c0 38 a1 84 3c 00 27 33 bb 39 62 3e bb b7 9b 06 3c
       0.016190156 -0.0027336478 -0.0029050244 0.008215836
0000d0 3e b4 30 3c 5f 63 61 3c 7a b1 7e 3b f3 d4 f2 b9
       0.010785161 0.013756602 0.0038863108 -0.00046316496
0000e0 0f 17 c2 3c ff ce 70 3c 67 83 d7 bd f8 12 5d bc
       0.023692636 0.014697789 -0.1052311 -0.013493292
0000f0 05 88 0d be b5 1f 4d be 38 0f 80 bc 64 02 51 bd
       -0.13821419 -0.20031627 -0.015632257 -0.05102767
000100 b5 54 d5 3b a7 8e c0 bc 62 69 fe 2b 24 12 d2 a9
       0.006510342 -0.023505522 1.8077035e-12 -9.32902e-14
000110 77 35 02 2b c1 19 84 ab 56 59 26 2b 8b be 93 ab
       4.6259475e-13 -9.386312e-13 5.9099026e-13 -1.0497865e-12
000120 e7 8b b4 2b 90 f5 7d ab 68 e1 0d 2c 0d 76 21 b2
       1.28286e-12 -9.022444e-13 2.016243e-12 -9.398275e-09
000130 cd 80 21 b2 f6 ef d5 2b b6 e1 21 b2 6d c7 21 b2
       -9.400719e-09 1.5201163e-12 -9.422754e-09 -9.416778e-09
000140 fc c9 21 b2 ad be 21 b2 82 86 21 b2 74 7f a8 2b
       -9.417359e-09 -9.414788e-09 -9.402017e-09 1.1972493e-12
000150 6d 8f 31 2c 63 82 27 2a e3 37 01 2b e7 9e 21 b2
       2.523283e-12 1.4877817e-13 4.5907565e-13 -9.407564e-09
000160 9c a2 21 b2 ad a8 21 b2 be a7 d1 2b 9c 0a 20 b2
       -9.4084065e-09 -9.409786e-09 1.4896901e-12 -9.315638e-09
000170 4e 30 21 b2 fe dd 20 b2 39 60 1d b2 9b 99 1f 32
       -9.382417e-09 -9.363701e-09 -9.160481e-09 9.289944e-09
000180 55 d6 20 b2 16 38 22 b2 76 d5 21 b2 d8 71 da a8
       -9.361959e-09 -9.4423935e-09 -9.419969e-09 -2.4252234e-14
000190 95 48 d5 a8 2e 68 9a a8 05 22 31 a8 73 ce d4 a8
       -2.3679228e-14 -1.7142615e-14 -9.832851e-15 -2.3626261e-14
0001a0 f7 e6 e9 a8 d6 39 cd a8 37 ef 30 a6 8c 35 fc a7
       -2.5968362e-14 -2.2784654e-14 -6.1386463e-16 -7.0002106e-15
0001b0 3f 97 ec a8 3e ec ad a8 96 c4 a1 a5 b0 e2 ab 28
       -2.6266856e-14 -1.9309312e-14 -2.806226e-16 1.9083124e-14
0001c0 70 f7 fd 25 7b 37 39 a8 6e d6 b7 a8 63 dc 2b a8
       4.4056174e-16 -1.0281593e-14 -2.0410075e-14 -9.540196e-15
0001d0 01 41 c0 a7 67 84 bd a7 80 bf d6 a7 b3 16 32 a7
       -5.3361183e-15 -5.260159e-15 -5.9604557e-15 -2.4714768e-15
0001e0 9b 07 47 a8 8c c1 52 a6 48 7c cb a7 07 6c 78 a8
       -1.1048368e-14 -7.312069e-16 -5.6478565e-15 -1.379019e-14
0001f0 bc 3c 83 a9 f9 ac 1d a9 12 1d 2f a9 96 91 56 a9
       -5.8281044e-14 -3.5011033e-14 -3.888302e-14 -4.764382e-14
000200 7c ab 2b 27 cc cb 13 a8 1e bc d8 a7 d5 27 5b 29
       2.382398e-15 -8.204331e-15 -6.0156e-15 4.8662317e-14
000210 84 45 9c 3c e0 26 a7 bd 3d de f5 bc 78 38 93 bd
       0.019076116 -0.08161712 -0.030013198 -0.07188505
000220 c1 3d 56 bc 22 b2 3e bd 8f 7a 53 be d2 b1 87 bd
       -0.013076247 -0.0465566 -0.20652221 -0.066257134
000230 db 08 2f 3c 77 84 1b 3e 93 98 6b 3d 6b 1d fc b9
       0.010683264 0.1518725 0.057518553 -0.00048087104
000240 c9 8f 99 3d 73 33 82 3e e9 16 44 3c 70 68 f4 bd
       0.07498128 0.25429878 0.011968353 -0.11933982
000250 02 77 65 bc c6 c6 98 bd 81 f6 65 be f6 f2 cd bd
       -0.014005424 -0.07459788 -0.22457315 -0.10056107
000260 3e af 80 bd d2 15 20 be c4 6f 8f be 28 ed 3d be
       -0.06283425 -0.15633324 -0.28014958 -0.18547499
000270 3b db 2c be 6f 62 ab 3c 24 64 3b bf fa 82 d3 bc
       -0.16880505 0.02092096 -0.7319968 -0.02581929
000280 bb 95 6c 3e 1a 75 77 bc 49 72 d5 3c 29 36 bf bc
       0.23103993 -0.015103603 0.026055472 -0.023341255
000290 5f 32 fe 3c e4 27 ca bc 31 25 91 be cc 02 28 be
       0.031029878 -0.024677224 -0.28348687 -0.16407317
0002a0 16 c2 03 be dd bf 04 be 61 7e 4c bd d1 67 53 be
       -0.12867007 -0.12963815 -0.04992521 -0.20645072
0002b0 7b b9 8c bd 8e ea 1d bd 07 5e 9b bd fd 9c bb 3b
       -0.06871315 -0.038553767 -0.07586294 0.0057255016
0002c0 97 cf 57 3e 6b 4e 9f 3d ab 81 ab bd 8a d3 76 bc
       0.21075283 0.07778629 -0.083743416 -0.015065083
0002d0 5e fe 27 3d a4 cb 3d be dd 12 56 be bd 9a 5f be
       0.041014068 -0.18534714 -0.20905633 -0.21836372
0002e0 e4 0f 38 bd cc 52 35 bd 4b 59 ad be ac 2a 3b be
       -0.04493703 -0.044268414 -0.33857188 -0.18277997
0002f0 84 8c bb bd 8a 35 12 bd 70 b4 71 bb 4e 75 3f 3e
       -0.091576606 -0.03569559 -0.003688123 0.18697092
000300 c9 a1 17 bd 76 28 85 bf 93 03 de bc 02 39 dc bb
       -0.037019525 -1.0402973 -0.027101314 -0.006720663
000310 e0 4d f2 3c 7b 86 67 3d 4f 0c c7 3d 91 3e 7d bd
       0.02957815 0.056524735 0.097191446 -0.061827246
000320 c3 c9 f4 3d 00 00 43 3c 47 d8 3d 3d d4 43 d4 bd
       0.119525455 0.0119018555 0.046348836 -0.103645
000330 53 2e 3b 3e 72 42 1e 3d be 83 74 3d e2 a9 5c 3b
       0.1827939 0.038637586 0.05969595 0.0033670594
000340 de db 61 3d 71 d7 20 bd 65 30 6f 3e 3c 2c b8 bc
       0.055141322 -0.03926796 0.23358305 -0.02248203
000350 1d 7a 81 bd 3e ce a6 bd d1 df ec 3d e9 df 55 bd
       -0.063221194 -0.08144806 0.11566127 -0.05221549
000360 2c db 55 3e 65 d9 0d bd a6 64 5b 3d a6 54 0e 3c
       0.20884389 -0.03463115 0.053562783 0.008687174
000370 97 22 52 3e 56 e9 59 bd 33 9d 59 3e bd b1 58 3d
       0.20521007 -0.053201042 0.21251373 0.05290388
000380 44 94 08 3c 2e ca 3f 3c c8 32 a8 3d 90 28 29 bd
       0.0083361305 0.011705918 0.08212811 -0.04129845
000390 aa 40 9a 3b 8f 80 83 bc 7c 84 7a 3e 68 4c 92 27
       0.0047074156 -0.016052512 0.24464601 4.060598e-15
0003a0 3d 9a 67 a8 63 14 34 a7 06 cd 4d 27 43 95 ea a8
       -1.2856521e-14 -2.499107e-15 2.8560608e-15 -2.604395e-14
0003b0 67 b3 a4 a7 8d 03 ba 27 bf 6d 3c a7 1c f8 5d 28
       -4.5713652e-15 5.162922e-15 -2.6149735e-15 1.23217646e-14
0003c0 1c ad 37 a9 73 7c 86 a7 ff 2c b4 26 03 e5 52 26
       -4.078431e-14 -3.73274e-15 1.2502205e-15 7.3168755e-16
0003d0 c9 24 ec a7 2a 4c bb 27 c6 66 51 a8 8f 54 dc a8
       -6.554304e-15 5.1985504e-15 -1.1624116e-14 -2.4461578e-14
0003e0 e1 95 2d a8 42 7b 9a 26 a5 82 aa 27 e3 83 6b 27
       -9.635929e-15 1.0719306e-15 4.7326124e-15 3.2684297e-15
0003f0 c8 0d 1d a8 da a8 11 27 c7 de 07 a7 ef 53 82 a8
       -8.718239e-15 2.0214327e-15 -1.8855781e-15 -1.44693e-14

bias f4 [64]
000000 55 47 12 b8 67 3b 62 bd de 1c 13 b2 0c 6d 13 a9
       -3.4875546e-05 -0.05523243 -8.56309e-09 -3.273514e-14
000010 30 52 14 3e 93 25 b2 3d ef 57 be 3d ed 98 1c a9
       0.14484477 0.08698573 0.09294116 -3.47716e-14
000020 8c 44 ee bd 10 dd 88 3e 44 fc d2 a8 3f b4 8f be
       -0.11634168 0.26731157 -2.3424086e-14 -0.28067204
000030 2f c3 0d be 8f 6d ec a9 af 6f a7 3e d9 db 02 be
       -0.13843988 -1.0499511e-13 0.32702395 -0.12779178
000040 c6 a5 cb b8 bf 79 0e 3e b2 60 8b b9 86 42 32 3e
       -9.710672e-05 0.1391363 -0.0002658419 0.17408189
000050 f7 ed 87 a8 9e 31 fb a7 13 a0 93 3e 6f 20 51 be
       -1.5091212e-14 -6.972029e-15 0.28833064 -0.20422529
000060 aa 8b 93 3e 0a 91 0e af 8d 3c 9f a9 ae 0c 82 a8
       0.28817493 -1.2966353e-10 -7.071522e-14 -1.4438398e-14
000070 70 68 ed a9 75 b3 32 b2 2f 6d b2 ab 67 53 02 ba
       -1.0543031e-13 -1.04017674e-08 -1.2677965e-12 -0.00049715344
000080 c8 92 24 be 70 1c 3f ab 88 84 68 bd 29 f7 4f a9
       -0.16071618 -6.7896296e-13 -0.056767017 -4.617761e-14
000090 39 3b 9b 3e 5a 82 f6 aa f1 78 f2 a8 d5 ba d1 a8
       0.3031862 -4.3788828e-13 -2.6919847e-14 -2.3284687e-14
0000a0 4c ab 2c bd 7c e8 8a ab 44 87 2c a5 46 12 ae bb
       -0.04215555 -9.870017e-13 -1.4964452e-16 -0.005312237
0000b0 8f 18 0d bd 27 4a 26 a5 49 87 4d 3e 11 91 5c 3e
       -0.03444725 -1.4423329e-16 0.20071138 0.21539713
0000c0 2a af f3 b8 3d 80 a1 3b ca 69 03 b3 2c 24 a1 b6
       -0.0001161977 0.0049286173 -3.059703e-08 -4.802385e-06
0000d0 51 b1 95 3e 9c 39 8a 3e e1 d0 1b 3e 04 75 43 bd
       0.29236844 0.26997077 0.152164 -0.047719017
0000e0 4d c4 82 a5 41 fe bf ab 9d e3 de a9 b3 5f 76 b5
       -2.2684424e-16 -1.3641936e-12 -9.898265e-14 -9.17814e-07
0000f0 57 25 69 ae 18 be e9 bd 0b dd 83 bc aa 2d 75 b2
       -5.301123e-11 -0.11413211 -0.016096612 -1.427126e-08

weight f4 [16, 64]
000000 2e bc 58 b7 49 e1 67 bd 21 bc e7 ad a2 7f a3 a6
       -1.2918417e-05 -0.056611333 -2.6345206e-11 -1.1344992e-15
000010 f6 a3 b4 3d 0e 96 c3 be 8b 01 38 3e 2b 8e c0 a8
       0.088203356 -0.3820042 0.17969339 -2.1377938e-14
000020 e7 d9 0a bf 5b 9d fc 3d 76 ef 9c 28 aa ef 55 bf
       -0.5423874 0.12334701 1.7423329e-14 -0.83568823
000030 a5 ce 60 be 67 80 3f a9 15 d7 36 bf 3f fa 33 bf
       -0.21953829 -4.252189e-14 -0.7142194 -0.7030372
000040 b6 42 46 b8 75 e6 94 3e af 7f 9a b9 5a 10 da bc
       -4.7269008e-05 0.29082075 -0.000294683 -0.026619125
000050 6a ba 07 a8 ca db f0 a7 59 ef 38 bf b6 a4 c9 be
       -7.5344275e-15 -6.6851677e-15 -0.72240216 -0.39383477
000060 7c be 2e 3e 58 cd 0c b0 df 85 ed a8 ea 74 c3 a7
       0.17064852 -5.1223514e-10 -2.6370343e-14 -5.425013e-15
000070 cd 83 df a9 76 96 4b b3 a8 fb 30 ab e1 7f 2c ba
       -9.926053e-14 -4.7401464e-08 -6.2877004e-13 -0.0006580335
000080 aa 88 21 bf c9 46 87 ab 55 c3 1d bf a6 8e d8 28
       -0.6309916 -9.611974e-13 -0.6162618 2.4042681e-14
000090 4f 69 44 3e 49 66 b9 ab a6 fa f9 a7 b0 8c 32 a8
       0.19180797 -1.317343e-12 -6.9383137e-15 -9.911492e-15
0000a0 9f 19 e9 be 64 e5 94 ab d4 7f 1a 25 e6 d1 a7 bc
       -0.4552736 -1.0579701e-12 1.340068e-16 -0.02048583
0000b0 a0 eb c0 be ac a2 35 24 89 21 c2 3e 70 f2 7c be
       -0.37679768 3.9385907e-17 0.3791621 -0.24701858
0000c0 14 4e dc b9 56 29 cd be 79 5b cd aa fc ef 56 b7
       -0.00042019843 -0.400706 -3.6478787e-13 -1.281127e-05
0000d0 f1 59 11 bf 45 58 23 3e d2 c1 64 3e 5a b5 d6 bf
       -0.56777865 0.15951641 0.22339562 -1.6774094
0000e0 ed 81 43 a5 84 bd a8 ac 18 51 60 a9 0e 2d 09 b5
       -1.6957574e-16 -4.7958876e-12 -4.980833e-14 -5.110204e-07
0000f0 ef dc 86 ae eb 26 f2 be fc 67 a4 bc 73 ee 02 32
       -6.13286e-11 -0.47295317 -0.020069115 7.621213e-09
000100 8c 1e 03 b8 4f c5 20 bd c7 d6 a2 ad da 05 af a8
       -3.1261283e-05 -0.03925067 -1.8512648e-11 -1.943144e-14
000110 59 54 7d be 02 6d e3 bd c8 f0 e2 3d 49 fb 28 a9
       -0.24739207 -0.11104776 0.11081082 -3.752145e-14
000120 85 37 09 bf 7a be 56 3e fe 3e 19 a8 3d e5 33 bf
       -0.5360034 0.20971099 -8.506865e-15 -0.70271665
000130 25 72 97 be 3c 89 a6 a9 6d ae 43 bf 10 83 a4 bf
       -0.29579273 -7.395687e-14 -0.7643803 -1.2852497
000140 e7 19 88 b8 6e a6 79 3e 40 c4 6b b9 ce 80 6f 3e
       -6.48981e-05 0.24379894 -0.00022484455 0.23388979
000150 69 e3 cd a7 6c 46 ec a7 cb 35 3a bf 0f 9c 89 be
       -5.714549e-15 -6.557951e-15 -0.7273833 -0.26876876
000160 7a 1a 4d 3e 9c 81 d7 af 72 27 17 a9 15 03 9c a7
       0.20029631 -3.9200365e-10 -3.356295e-14 -4.330204e-15
000170 c7 6e 09 aa 8c 56 19 b3 24 8d 45 ab 20 b5 05 ba
       -1.2206478e-13 -3.5701802e-08 -7.018433e-13 -0.0005100537
000180 77 86 1e bf 02 17 a4 ab 13 95 7e bf 5e 4e 0f 27
       -0.6192393 -1.1659287e-12 -0.9944622 1.988772e-15
000190 bc c8 50 3e dd 44 b6 ab 54 f1 f8 a7 16 cb 23 27
       0.20389074 -1.2950991e-12 -6.9095476e-15 2.2730887e-15
0001a0 03 a6 8c bf 76 6e ab ab bb fa ee a4 be 1d 8f bc
       -1.0988163 -1.218094e-12 -1.036408e-16 -0.017470237
0001b0 77 84 8e bf 77 ee 05 24 95 9b 07 3d 7f ff 79 be
       -1.1134175 2.9041765e-17 0.03310736 -0.2441387
0001c0 45 c8 c0 b9 6f b3 80 be e7 be eb a8 cf 61 2f b7
       -0.00036770306 -0.25136897 -2.6173032e-14 -1.0453586e-05
0001d0 00 8d 20 bf e5 42 43 3e 80 37 ab 3e bc b1 19 bf
       -0.6271515 0.19068487 0.3344078 -0.60036826
0001e0 56 75 23 25 d0 4f 8f ac f4 fa 58 a9 a2 9a 3d b5
       1.4177751e-16 -4.0731654e-12 -4.8179302e-14 -7.0633007e-07
0001f0 95 ec 68 ae 42 da 04 bf ed ef 55 bc 06 af 9e b3
       -5.296082e-11 -0.51895535 -0.013057691 -7.389285e-08
000200 6e e3 90 a6 d4 eb 04 a7 3e 4a 51 a7 87 63 9e a5
       -1.0053652e-15 -1.8446523e-15 -2.9044823e-15 -2.7476073e-16
000210 76 79 4e a7 03 32 01 a7 2d 85 36 a7 bc 92 eb a6
       -2.8654087e-15 -1.7929458e-15 -2.5329769e-15 -1.6346173e-15
000220 e8 7f a6 25 0d e9 c3 23 2b d9 c3 a5 b8 85 81 a6
       2.8883082e-16 2.1240643e-17 -3.3974267e-16 -8.987418e-16
000230 06 3d c2 a6 6c 69 61 a5 fa b6 3e a5 1c 5c 9a a6
       -1.3477995e-15 -1.9551357e-16 -1.6541868e-16 -1.0710863e-15
000240 62 41 26 a6 64 03 7e a6 f6 2a 97 a6 a2 a7 ec a6
       -5.768143e-16 -8.812855e-16 -1.0489374e-15 -1.6421227e-15
000250 89 9a 33 26 42 9b 23 a5 b7 ce 51 26 36 db a4 a6
       6.2312535e-16 -1.41906e-16 7.279159e-16 -1.1439203e-15
000260 2e da 02 a5 a0 05 47 26 cf b2 04 a5 e0 0c 58 24
       -1.1349625e-16 6.904962e-16 -1.1509758e-16 4.684844e-17
000270 d4 d0 69 26 17 80 ee a6 06 f8 30 a6 44 42 bc a6
       8.112113e-16 -1.6549286e-15 -6.13984e-16 -1.3063082e-15
000280 e2 49 b5 25 93 8e 04 a6 54 8e 7d a6 0d 07 03 a6
       3.144856e-16 -4.5989924e-16 -8.79699e-16 -4.545931e-16
000290 0b d6 d7 a6 40 05 8c a5 95 b8 72 a5 61 ab 6e 25
       -1.4976638e-15 -2.4289686e-16 -2.1052693e-16 2.0701275e-16
0002a0 e9 20 1b 23 89 64 9c a5 a0 2d 08 25 bd 86 be 25
       8.409536e-18 -2.7129811e-16 1.1811578e-16 3.3051048e-16
0002b0 eb 83 45 26 8b 3c 35 a4 70 dc 0c a7 7c b8 0f a7
       6.8526887e-16 -3.92994e-17 -1.9548402e-15 -1.9945246e-15
0002c0 3e 93 03 a6 bc 64 96 26 46 80 10 25 4b 9c 5d a6
       -4.5649305e-16 1.0435645e-15 1.253347e-16 -7.6886594e-16
0002d0 2c 75 2e a6 34 dd 04 a7 0d 24 b4 a6 12 48 ac 26
       -6.0527174e-16 -1.8438594e-15 -1.2499781e-15 1.1954432e-15
0002e0 5c 16 04 a5 16 43 8f a6 9d d9 43 25 7e 15 b2 25
       -1.145675e-16 -9.940802e-16 1.6987284e-16 3.0892642e-16
0002f0 e2 b0 be a5 cb bd 93 a5 17 6e 31 25 57 ab b7 a6
       -3.3079606e-16 -2.5629044e-16 1.5389603e-16 -1.2744618e-15
000300 b4 51 8b 38 13 dc 85 3d ca ef 0f b2 74 da 06 29
       6.643255e-05 0.065361165 -8.378217e-09 2.9943455e-14
000310 0b a6 8e bd 61 ee 79 3e c9 ca 1c 3e 90 bd 00 29
       -0.06965264 0.2440734 0.15311731 2.858613e-14
000320 72 5a b4 bc 6a c7 37 3c 29 71 1f 27 42 ff 61 3f
       -0.022015784 0.011216978 2.2127027e-15 0.8828012
000330 92 be c6 3e 53 b3 72 29 d4 e8 09 3f 09 65 07 bd
       0.3881727 5.3890333e-14 0.5387089 -0.03305534
000340 75 ab fb 38 8e ff d6 bc 10 2b 8f 39 b0 43 0b 3e
       0.00012000549 -0.026244905 0.0002730717 0.1360004
000350 70 9d 7f 28 a7 5a f1 27 8a 1d 09 3f cb 6f c1 3e
       1.4189482e-14 6.6989223e-15 0.535607 0.37780604
000360 cf b8 66 3d fc 74 95 2f bf 99 89 29 4c a7 82 28
       0.05632859 2.7186065e-10 6.110693e-14 1.4505453e-14
000370 3e f7 0f 2a f2 4c 00 33 81 7e 9f 29 ca e9 3b 3a
       1.2786731e-13 2.9872304e-08 7.0829634e-14 0.0007168321
000380 47 f1 95 3e 54 f2 34 2a 2f 9d 11 bc 38 f6 d0 28
       0.29285643 1.6071286e-13 -0.008887573 2.319942e-14
000390 f3 77 18 3d cc bd 96 2b 95 cb da 28 e4 e9 f7 28
       0.037223767 1.071082e-12 2.4291152e-14 2.7523943e-14
0003a0 67 89 62 3c 54 00 a1 aa 22 83 9e 25 0a f3 8d 3c
       0.013826705 -2.8599573e-13 2.749749e-16 0.017327804
0003b0 2c 19 1d 3b c2 5b a1 23 9f ea da be 4f cd 9e 3e
       0.0023971302 1.7494516e-17 -0.42757127 0.31016013
0003c0 80 88 57 39 c3 40 b6 3c 89 83 01 b3 6a b7 7f 37
       0.00020554848 0.022247678 -3.0154784e-08 1.5241889e-05
0003d0 f0 ec f4 3e 45 80 95 3d 29 78 94 bd 8f 6c c7 3f
       0.4783702 0.07299856 -0.07249481 1.5580004
0003e0 81 00 1c a5 22 af 58 2c c8 1e bb 29 fe 30 02 36
       -1.3531014e-16 3.0792664e-12 8.309808e-14 1.9400027e-06
0003f0 8e 2e d6 2d 12 e9 22 bd 2e cb 0b 3d 67 42 ee 33
       2.4349658e-11 -0.039773054 0.034129314 1.1094817e-07

bias f4 [16]
000000 86 e4 b7 3e eb d4 c3 3e 55 2f 13 a7 1c 84 0b 3d
       0.35916537 0.3824838 -2.0426007e-15 0.034061536
000010 d1 11 b3 a8 5c b2 55 ab a4 ec 92 3d b8 5c 9a bc
       -1.9880719e-14 -7.5920325e-13 0.07174042 -0.01884304
000020 43 a3 25 3f 08 8b b4 3d 20 fb 9d b0 d4 da 40 bc
       0.6470224 0.088155806 -1.1494627e-09 -0.011770923
000030 9f e5 a3 3d 55 ed c0 3e b6 82 9c 3d de 3b 93 bc
       0.08002781 0.3768107 0.07642119 -0.017972883

weight f4 [4, 16]
000000 0f e1 12 3f 36 95 18 3f 04 53 3b a5 6a f1 a1 be
       0.5737466 0.5960268 -1.6247791e-16 -0.31629497
000010 5b ec e7 a9 1f d1 3a a4 d8 c1 a6 be 2d 09 e5 be
       -1.0299462e-13 -4.0509453e-17 -0.32569766 -0.44733563
000020 27 26 8b 3e d8 0d 8a 3e 73 96 92 30 0a 52 ac bd
       0.27177545 0.26963687 1.0665658e-09 -0.08414085
000030 4f 00 f4 3c aa 96 09 3f 24 aa 9e 3e c1 28 b2 bf
       0.029785303 0.5374552 0.30989182 -1.3918687
000040 a5 5a 0d 3f 11 6b 0e 3f e8 c5 0b 26 58 4d a8 be
       0.5521644 0.5563212 4.8493526e-16 -0.3287151
000050 35 3c 51 a5 3a fd a9 a4 ad a6 6b 3d 44 11 ce be
       -1.8148259e-16 -7.372105e-17 0.057532 -0.40247548
000060 72 1b 88 3e 3a b5 a0 3e 0a b3 8e 30 9c 47 ab bf
       0.2658344 0.31388265 1.0382746e-09 -1.3381228
000070 65 fd 9b be 63 15 0b 3f b9 e6 8e 3e 53 84 dd bd
       -0.30466762 0.5432951 0.27910402 -0.108162545
000080 35 d3 11 3f 23 62 16 3f cb a3 e7 a5 9f 15 4d bf
       0.569629 0.58743495 -4.0183103e-16 -0.80111116
000090 f1 17 88 25 fb 95 2f 25 45 aa dc be 29 ff 89 bc
       2.3608463e-16 1.5229646e-16 -0.43098655 -0.016845303
0000a0 e8 8d 67 3e 92 5c 5e bf ae 03 fb 2f 7c 5b 1c bd
       0.22612727 -0.8686 4.5659249e-10 -0.038173184
0000b0 c2 fb e5 be 69 18 0b 3f 4f 59 8c 3e 2a 28 f3 bc
       -0.44918638 0.5433412 0.27411887 -0.029682238
0000c0 18 bf 04 3f cd 34 1d 3f 5d 44 09 a3 fe d2 8f 3c
       0.51854086 0.6140869 -7.441261e-18 0.017556664
0000d0 ef dd 87 a4 3a 6e 17 2c 07 43 dc be fd 65 5a bf
       -5.892289e-17 2.1519579e-12 -0.43019888 -0.8531187
0000e0 d8 14 70 3e 3c 86 97 3e 19 0e e3 2b 29 b8 1f bd
       0.23445451 0.295946 1.6133233e-12 -0.03899399
0000f0 c6 bd e2 be 0a d8 0a 3f 7b e8 56 bf 89 05 44 bd
       -0.4428541 0.542359 -0.8394849 -0.04785684

bias f4 [4]
000000 ed 18 82 3e 25 ab 81 3e 99 db 19 3b 63 79 b2 3d
       0.25409642 0.25325885 0.0023476838 0.08714559
