data/155200.pth (torch, 37527 bytes, 6 tensors)

weight f4 [64, 33]
000000 99 87 6a bb ba d0 da 3a d7 36 11 bd ad 52 90 bc
       -0.003578639 0.0016694285 -0.03545269 -0.017617548
000010 18 1c ad bc eb f8 8c 3c d3 c4 58 bc 93 7b 94 bc
       -0.02113156 0.017208537 -0.01323052 -0.018125331
000020 2f 2c ac bc 25 ef 33 bd c3 b0 0f bd ba 27 04 bc
       -0.021017162 -0.043929238 -0.035080682 -0.008066112
000030 5c 18 64 3e 84 87 4f bc a2 82 b0 bb af cd 66 b9
       0.22274917 -0.012666587 -0.0053866664 -0.00022011132
000040 15 ac 2e 3c f0 20 6d 3c b4 29 13 3c 52 41 3f bc
       0.010661145 0.014473185 0.008982111 -0.011673288
000050 0f 82 6b ba 1a 39 bf 3c 5e 15 6f 3c 3e 7d 86 bc
       -0.0008983919 0.023342658 0.014592497 -0.016417142
000060 4d 00 bf 3b 8b 73 28 3e 6d b0 43 3e a3 ab 6b 3e
       0.0058288933 0.16450326 0.1911027 0.23014693
000070 01 84 67 3e e8 40 cb 3d 94 01 50 bd b2 27 20 be
       0.22608949 0.09924489 -0.050782755 -0.15640143
000080 5e 9a 89 bc 59 e8 3f 3b db 93 38 39 3d 0f f3 3a
       -0.01679724 0.0029282777 0.00017602688 0.001854397
000090 6c 12 e0 39 f1 8e a0 ba 4b 4d 29 3a 97 b4 26 3b
       0.00042738335 -0.0012249631 0.0006458356 0.002543723
0000a0 71 aa 23 3b b1 5a 07 3b d6 5d de ba bf 8e 18 bb
       0.0024973417 0.0020653422 -0.0016965221 -0.0023278443
0000b0 b1 4c af 3a 07 69 41 bb d9 d3 30 3b 5a 3e 31 ba
       0.0013374296 -0.0029512064 0.002698174 -0.0006761305
0000c0 d2 0b fc 3a 46 39 aa b9 ed e4 b4 b9 92 d2 7f 3a
       0.0019229597 -0.000324676 -0.00034502838 0.00097588554
0000d0 53 ea a7 3a 90 28 d6 3a 37 01 f2 39 7a be 66 b8
       0.0012810923 0.0016338993 0.00046158742 -5.501367e-05
0000e0 18 6c 38 3b 8e ce e4 3a 21 c7 4c bc 18 10 d2 ba
       0.00281406 0.0017456578 -0.012498648 -0.0016026525
0000f0 8d 7c 86 bc d9 e7 c2 bc 1a 59 f3 ba b3 98 c6 bb
       -0.016416812 -0.023792194 -0.0018565983 -0.0060606836
000100 0d b3 4a 3a 53 f8 36 bb 76 bd 71 2a 2f 9b 47 a8
       0.0007732369 -0.002791901 2.1470832e-13 -1.1080369e-14
000110 8b 79 77 29 85 0c fb a9 50 14 9e 29 fb 5e 0c aa
       5.495044e-14 -1.1148811e-13 7.020133e-14 -1.2467451e-13
000120 e9 89 2b 2a 97 50 f1 a9 8d cf 86 2a 64 6f 99 b0
       1.5235698e-13 -1.071653e-13 2.39472e-13 -1.1163874e-09
000130 78 79 99 b0 e7 46 4b 2a 50 d4 99 b0 ae bb 99 b0
       -1.1166739e-09 1.8054621e-13 -1.1192558e-09 -1.1185557e-09
000140 11 be 99 b0 7a b3 99 b0 cf 7e 99 b0 7b 19 20 2a
       -1.1186235e-09 -1.1183225e-09 -1.1168256e-09 1.4219695e-13
000150 fb b8 a8 2a c0 2b 9f 28 ae 92 75 29 b0 95 99 b0
       2.997115e-13 1.767152e-14 5.4528153e-14 -1.1174759e-09
000160 27 99 99 b0 da 9e 99 b0 f8 35 47 2a 11 11 98 b0
       -1.1175744e-09 -1.1177363e-09 1.7693475e-13 -1.1064306e-09
000170 4c 2d 99 b0 a2 dd 98 b0 f1 89 95 b0 b5 a3 97 30
       -1.1145089e-09 -1.1122447e-09 -1.0880382e-09 1.1033224e-09
000180 3a d6 98 b0 4a 25 9a b0 d4 c8 99 b0 4a 8e 4f a7
       -1.1120342e-09 -1.1215573e-09 -1.1189294e-09 -2.8804156e-15
000190 7e a7 4a a7 f1 b4 12 a7 d2 51 a8 a6 72 33 4a a7
       -2.812393e-15 -2.0359659e-15 -1.1679519e-15 -2.806102e-15
0001a0 ee 3e 5e a7 aa 00 43 a7 ed 21 a8 a4 66 a5 6f a6
       -3.0842803e-15 -2.7062046e-15 -7.291586e-17 -8.314394e-16
0001b0 74 ce 60 a7 e2 40 25 a7 02 b9 19 a4 02 56 23 27
       -3.1198163e-15 -2.2933523e-15 -3.3333294e-17 2.266742e-15
0001c0 59 52 71 24 73 fb af a6 04 ae 2e a7 16 50 a3 a6
       5.2328296e-17 -1.221122e-15 -2.4241685e-15 -1.1332104e-15
0001d0 c7 ae 36 a6 19 13 34 a6 8f 0c 4c a6 84 38 a9 a5
       -6.33808e-16 -6.2475927e-16 -7.079374e-16 -2.9355123e-16
0001e0 aa 1d bd a6 0b 42 c8 a4 61 59 41 a6 b8 0e ec a6
       -1.312255e-15 -8.6848055e-17 -6.7081457e-16 -1.6379779e-15
0001f0 fc 6b f9 a7 be d1 95 a7 c7 5f a6 a7 d6 e0 cb a7
       -6.922846e-15 -4.158321e-15 -4.6178098e-15 -5.6587586e-15
000200 0d 22 a3 25 52 6b 8c a6 f6 f0 4d a6 cc 3b d0 27
       2.8299066e-16 -9.743541e-16 -7.1450225e-16 5.779643e-15
000210 41 f5 a0 3d 99 f0 33 3c 0a f6 63 3d dd a5 4f bd
       0.078592785 0.010982656 0.055654563 -0.05069529
000220 f1 a8 64 3d a9 49 58 3d 08 32 32 3d 5c 6a 11 bd
       0.055825178 0.052804623 0.043504745 -0.035501823
000230 9e f4 83 3c d7 39 ad 3d d9 e9 43 3d ba 58 34 3d
       0.016107854 0.08458298 0.047830436 0.04402993
000240 53 46 d2 3d 39 63 33 3e ab dd 6f 3d 57 f3 45 bd
       0.102673195 0.17518319 0.05856101 -0.04832777
000250 88 3d 4e 3d aa e9 ce 3b 27 61 ee 3c d1 48 db bc
       0.05035165 0.006314476 0.02909906 -0.02676812
000260 7d 6f e3 bb 17 0d 81 bd fb 93 e7 3c 92 da b2 bc
       -0.0069407807 -0.06301325 0.028268805 -0.021832738
000270 ac fb 37 3d 77 e5 82 be dc 3e 35 bf f9 2a 44 be
       0.044917747 -0.25565693 -0.7079904 -0.19157018
000280 2a 8f 77 3d af 38 da bb f6 7d 1b 3e fd 5b 7b 3d
       0.060439266 -0.0066595892 0.15184769 0.061367024
000290 05 9d d5 3d 7a b2 50 3d 7c af 55 bd 53 f9 37 3d
       0.1043034 0.05095146 -0.052169308 0.04491551
0002a0 cd 33 a1 bb 1f b6 2b 3c ff 91 0d bc 0b 41 5e 3d
       -0.004919505 0.010480433 -0.008640765 0.05426125
0002b0 99 8d 3c 3d d6 1e 01 3d 3b e7 67 bc 22 fa 73 3d
       0.046033476 0.031523548 -0.014154251 0.059564717
0002c0 c2 10 36 3e 39 cc fd 3d 23 50 8d 3d 4e bf 58 3d
       0.1777983 0.12392468 0.069000505 0.052916817
0002d0 09 01 d0 3d 33 6f 1e bd a8 14 5b bd 8d fd 52 3d
       0.101564474 -0.038680267 -0.053486496 0.051511336
0002e0 50 90 85 3c ca 83 a6 3c 41 c4 33 bd b4 82 a7 3c
       0.016304165 0.020326514 -0.043888334 0.020448066
0002f0 21 67 be bc 5e aa 84 3c 64 02 45 be f4 44 a0 3d
       -0.023242535 0.016194519 -0.19239193 0.07825652
000300 30 c9 70 be cf 91 46 bf 8b 0e 66 bd d4 32 2e be
       -0.23514247 -0.77566236 -0.056166213 -0.17011577
000310 88 5a ab 3d d3 03 07 3e 69 61 24 3e c1 ee 81 3d
       0.08366877 0.13185053 0.16052784 0.06344367
000320 c3 76 1b 3e 5a 0f 46 3b 76 74 de bc 5a eb c7 bc
       0.15182023 0.0030221553 -0.027155142 -0.024404217
000330 65 5b 5a 3e d9 fb 5e 3d 3b fd c4 3c ff bf 83 bd
       0.21323927 0.0544394 0.024046531 -0.06433105
000340 d7 c6 f6 3c fd c6 a7 bd 94 02 80 3e 99 71 ce bd
       0.030124111 -0.08192251 0.25001967 -0.10080261
000350 f1 fc 8e bd f2 92 a6 bd 48 3f 52 3c 23 18 d9 3a
       -0.069818385 -0.08133496 0.01283247 0.001656298
000360 ed 65 67 3e 2c e3 48 bd aa 79 76 bb d4 92 e6 3b
       0.22597475 -0.049044773 -0.0037609139 0.0070365462
000370 e1 39 c2 3d 05 68 98 bc 6c 5f 15 3e cc 41 1b bc
       0.09483696 -0.018604288 0.14587182 -0.009476136
000380 aa 58 37 bb 13 69 0d 3c 09 6a b2 3c 30 b2 9e 3c
       -0.0027976432 0.008631009 0.021779077 0.019372076
000390 e7 1d 5e 3d aa 7b 1e bc d7 4b 88 3e 60 06 0b 26
       0.054227736 -0.0096730385 0.2662036 4.823395e-16
0003a0 5f 11 dc a6 14 19 ab a5 7e 8c c3 25 d4 e2 5e a7
       -1.5270275e-15 -2.9680765e-16 3.392231e-16 -3.0931653e-15
0003b0 93 7b 1c a6 e7 bc 30 26 81 0b b3 a5 93 ea d2 26
       -5.4290847e-16 6.1318277e-16 -3.1059346e-16 1.4635259e-15
0003c0 fe 86 ae a7 72 96 ff a5 48 30 2b 25 c3 63 c8 24
       -4.844106e-15 -4.4337394e-16 1.4848244e-16 8.690518e-17
0003d0 f8 60 60 a6 94 f9 31 26 2d f8 c6 a6 8c 5a 51 a7
       -7.784703e-16 6.174745e-16 -1.3806278e-15 -2.9053662e-15
0003e0 9c ef a4 a6 63 c7 12 25 4d 03 22 26 14 c7 df 25
       -1.1444732e-15 1.2731036e-16 5.6209514e-16 3.8819234e-16
0003f0 d2 3c 95 a6 e3 6b 8a 25 30 1e 81 a5 0b b4 f7 a6
       -1.0355437e-15 2.401229e-16 -2.239839e-16 -1.7187869e-15

bias f4 [64]
000000 c7 31 5c 3e c9 f6 d6 bb 76 c8 8b b0 1c 13 8c a7
       0.21503364 -0.006560181 -1.0170556e-09 -3.8878524e-15
000010 3b c5 1d bd 1c 98 41 bd 2a a2 a4 3d 81 cf 94 a7
       -0.03851817 -0.047264203 0.08038743 -4.130323e-15
000020 6d c0 ee bd 21 d2 a5 3e e3 79 48 a7 a6 9f 92 bd
       -0.11657796 0.32386878 -2.782165e-15 -0.07159357
000030 7f e4 86 be 94 a6 60 a8 84 f5 89 3e fc 12 12 be
       -0.26346204 -1.2470619e-14 0.26945126 -0.14265054
000040 ce 80 41 b7 e1 df 11 3e 15 70 04 b8 23 21 5e 3e
       -1.1533686e-05 0.1424556 -3.1575637e-05 0.21692328
000050 40 2c 01 a7 14 ac 6e a6 67 28 ae 3e d8 59 84 be
       -1.7926334e-15 -8.2806047e-16 0.340152 -0.25849795
000060 be d4 81 3e a3 72 87 ad aa 49 17 a8 3e 2b f7 a6
       0.25357622 -1.5398632e-11 -8.398157e-15 -1.7150789e-15
000070 8d 96 61 a8 53 cc a9 b0 11 8a 29 aa 0a b3 77 b8
       -1.25226545e-14 -1.2354441e-09 -1.5058117e-13 -5.9056132e-05
000080 fa 5b 9c bc 14 95 b5 a9 cf 5a 82 bd 7d 9a c5 a7
       -0.019086827 -8.0638756e-14 -0.063649766 -5.484598e-15
000090 df 71 8d 3e f2 39 6a a9 5e 66 66 a7 22 48 47 a7
       0.2762594 -5.2008697e-14 -3.1974405e-15 -2.76559e-15
0000a0 1b da 1e bd 53 fc 03 aa e7 f0 a3 a3 ad 64 25 ba
       -0.03878222 -1.172268e-13 -1.7774522e-17 -0.00063092523
0000b0 0f f1 1d bd 9d 05 9e a3 fa ae 49 3e a2 3c 18 3d
       -0.03855997 -1.7132772e-17 0.19695655 0.0371672
0000c0 e8 8c 67 b7 c3 fb ff bc e2 c0 79 b1 8e 21 19 b5
       -1.380148e-05 -0.031247979 -3.634391e-09 -5.704577e-07
0000d0 74 5c a7 3e 67 45 53 3e bc 55 0d 3e 8a 31 4c bd
       0.32687724 0.20631944 0.13802236 -0.04985193
0000e0 03 89 f8 a3 7f 6f 36 aa 32 ca 53 a8 bd 18 ea b3
       -2.694624e-17 -1.620353e-13 -1.1756697e-14 -1.0900974e-07
0000f0 ec 89 dd ac 5d 0e 02 be 17 9a fa ba 80 f3 e8 b0
       -6.29651e-12 -0.12700792 -0.0019119409 -1.6949429e-09

weight f4 [16, 64]
000000 70 15 58 be 46 55 dc bb c1 31 5c ac 5d 58 1b a5
       -0.21101928 -0.0067240326 -3.12915e-12 -1.3474046e-16
000010 b9 a1 98 bd 86 ff af be b5 d2 20 3e e1 f7 36 a7
       -0.07452721 -0.34374636 0.15705378 -2.539195e-15
000020 81 71 04 bf 05 a0 5a 3e 75 20 15 27 d3 8c 65 be
       -0.51735693 0.21350105 2.0695499e-15 -0.22417001
000030 27 3e 16 bf 09 f5 b5 a7 98 65 35 bf 0b 11 47 bf
       -0.58688587 -5.050326e-15 -0.70858145 -0.7776038
000040 e1 62 bc b6 b5 76 99 3e ab cb 12 b8 8b 1a 6d 3c
       -5.6143476e-06 0.2997338 -3.4998793e-05 0.01447166
000050 83 fc 80 a6 ca da 64 a6 87 cc 3a bf 05 2a f3 be
       -8.950228e-16 -7.9399905e-16 -0.72968334 -0.47492996
000060 55 2d 37 3e 35 cf 85 ae b4 b2 61 a7 88 b7 39 a6
       0.17888387 -6.084947e-11 -3.1321898e-15 -6.44335e-16
000070 76 5f 54 a8 42 72 c1 b1 a8 2d a8 a9 f6 e9 a3 b8
       -1.1789064e-14 -5.630029e-09 -7.468619e-14 -7.816024e-05
000080 da 80 99 bd c5 8d 00 aa 39 f9 27 bf a7 c5 4d 27
       -0.074952796 -1.141787e-13 -0.6561466 2.8556613e-15
000090 e5 50 46 3e a6 27 30 aa ee 84 6d a6 c3 a7 a9 a6
       0.19366796 -1.5645696e-13 -8.2406046e-16 -1.1772203e-15
0000a0 39 84 01 bf 9a 77 0d aa ce cb 92 23 6f 76 1f bb
       -0.5059238 -1.2564811e-13 1.5915666e-17 -0.0024332067
0000b0 6a e2 d7 be b7 98 ac 22 70 09 c5 3e 45 c6 80 be
       -0.42164928 4.6782387e-18 0.38483763 -0.25151268
0000c0 5b 54 51 b8 b8 4a cd be 9a 20 43 a9 c0 3a cc b5
       -4.9908045e-05 -0.40096068 -4.3326975e-14 -1.5216283e-06
0000d0 2a 49 0b bf 35 e6 22 3e 99 39 62 3e 54 ef d2 bf
       -0.54408514 0.1590813 0.22092284 -1.6479287
0000e0 d9 c3 b9 a3 c5 53 20 ab be 22 d5 a7 b2 53 82 b3
       -2.0140685e-17 -5.695967e-13 -5.9157044e-15 -6.068821e-08
0000f0 ff 27 00 ad c6 53 e9 be 80 32 1c bb 72 d8 78 30
       -7.2848385e-12 -0.45571727 -0.0023833811 9.052946e-10
000100 1d ec 2f be be c5 98 bb 12 ba 1a ac ed 49 26 a7
       -0.17179914 -0.0046622446 -2.1988006e-12 -2.3077203e-15
000110 0f 0a 81 be d2 71 1e be 94 63 ae 3c cc 8d a0 a7
       -0.25202987 -0.15473107 0.021287717 -4.4562657e-15
000120 e2 e7 04 bf 07 ab 7e 3e 9e 98 91 a6 9f c9 3b be
       -0.51916325 0.24869929 -1.0102763e-15 -0.18338631
000130 68 db 11 bf b3 41 1e a8 1f 7a 3c bf c7 17 a9 bf
       -0.5697541 -8.785008e-15 -0.7362384 -1.3210381
000140 ee 54 01 b7 b5 43 7c 3e a5 04 e0 b7 01 3c 92 3e
       -7.708773e-06 0.24635203 -2.6705044e-05 0.28561404
000150 be a1 43 a6 25 81 60 a6 5d 6a 51 bf a4 10 d3 be
       -6.7873417e-16 -7.7890635e-16 -0.8180292 -0.41223633
000160 23 2b 32 3e 6e c5 4c ae c6 a4 8f a7 27 42 14 a6
       0.17399268 -4.6559583e-11 -3.986912e-15 -5.143747e-16
000170 9b 90 82 a8 9a ae 91 b1 a0 b6 bb a9 1e 17 7e b8
       -1.4495612e-14 -4.2399053e-09 -8.3361486e-14 -6.057985e-05
000180 32 9d 96 bd 47 e6 1b aa 84 26 80 bf eb 26 88 25
       -0.073542014 -1.3846659e-13 -1.0011754 2.361861e-16
000190 1f 1d 3b 3e c0 32 2d aa d9 8b 6c a6 1a 9f 9b 25
       0.18272828 -1.5383094e-13 -8.2068477e-16 2.6996025e-16
0001a0 c4 18 89 bf fc e7 22 aa ad 12 63 a3 08 f8 07 bb
       -1.0710683 -1.4468976e-13 -1.2309649e-17 -0.0020747203
0001b0 03 90 91 bf 66 85 7e 22 cc 53 22 3d 39 88 36 be
       -1.1372074 3.449404e-18 0.039630696 -0.17825402
0001c0 e9 2e 37 b8 65 e6 8c be 84 ff 5f a7 4d a2 a6 b5
       -4.367429e-05 -0.27519527 -3.1085982e-15 -1.24152e-06
0001d0 92 02 10 bf 97 78 1e 3e 9b b8 98 3e b0 8d 21 bf
       -0.5625392 0.15475689 0.29828343 -0.6310682
0001e0 b6 4e 9b 23 50 28 08 ab ce 2c ce a7 1f 28 b4 b3
       1.6838469e-17 -4.837285e-13 -5.7225063e-15 -8.389201e-08
0001f0 ad 54 dd ac 7a ef 00 bf de 46 cb ba 25 c3 16 b2
       -6.2905987e-12 -0.5036541 -0.0015508791 -8.77552e-09
000200 84 ad 09 a5 6b 98 7c a5 09 dd c6 a5 86 7c 16 a4
       -1.1941645e-16 -2.1909157e-16 -3.4497304e-16 -3.263154e-17
000210 4d 30 c4 a5 64 87 75 a5 7f 6f ad a5 45 d5 5f a5
       -3.403331e-16 -2.1296235e-16 -3.008627e-16 -1.9414425e-16
000220 ed 38 1e 24 8f 25 3a 22 83 16 3a a4 1e 28 f6 a4
       3.4309007e-17 2.5227584e-18 -4.035139e-17 -1.06753455e-16
000230 0e 90 38 a5 54 2e d6 a3 1a 35 b5 a3 46 a9 12 a5
       -1.6008264e-16 -2.3221547e-17 -1.9646549e-17 -1.2720833e-16
000240 1b fd 9d a4 97 5d f1 a4 0e a8 0f a5 21 de 60 a5
       -6.8516674e-17 -1.0467564e-16 -1.2460212e-16 -1.9504163e-16
000250 33 a6 aa 24 43 72 9b a3 0c 5b c7 24 21 a2 1c a5
       7.40073e-17 -1.6853525e-17 8.645673e-17 -1.3585775e-16
000260 3c b2 78 a3 c9 1b bd 24 f8 2c 7c a3 0f 4a cd 22
       -1.34818495e-17 8.2012754e-17 -1.367047e-17 5.5643774e-18
000270 3a 2a de 24 dd 9f 62 a5 39 2a a8 a4 60 e2 32 a5
       9.634869e-17 -1.9656539e-16 -7.2929914e-17 -1.5515738e-16
000280 78 42 2c 24 ab e8 7b a4 89 ef f0 a4 cc 06 79 a4
       3.7352856e-17 -5.4624026e-17 -1.044892e-16 -5.3999025e-17
000290 d6 15 4d a5 8b 0e 05 a4 4b a3 e6 a3 64 c8 e2 23
       -1.7788314e-16 -2.8852096e-17 -2.5005807e-17 2.4587838e-17
0002a0 85 67 93 21 80 9e 14 a4 31 67 81 23 79 07 35 24
       9.988509e-19 -3.222664e-17 1.4029911e-17 3.9254448e-17
0002b0 de ad bb 24 81 35 ac a2 39 dd 85 a5 3f 8d 88 a5
       8.1392865e-17 -4.6677343e-18 -2.3221729e-16 -2.3687951e-16
0002c0 04 0f 7a a4 ba e9 0e 25 e5 4d 89 23 0b 93 d2 a4
       -5.4222827e-17 1.2395726e-16 1.488656e-17 -9.132208e-17
0002d0 c2 c1 a5 a4 db 7c 7c a5 db 27 2b a5 6d b5 23 25
       -7.188558e-17 -2.1899818e-16 -1.4845389e-16 1.4199466e-16
0002e0 1f 06 7b a3 09 1c 08 a5 ef 16 ba 23 61 37 29 24
       -1.36080335e-17 -1.1805618e-16 2.0175873e-17 3.669294e-17
0002f0 56 2f 35 a4 49 5e 0c a4 8d 99 a8 23 51 85 2e a5
       -3.9288214e-17 -3.0437523e-17 1.8279628e-17 -1.5137264e-16
000300 17 a0 87 3e 0a 62 fe 3b 92 c2 88 b0 9c 25 80 27
       0.26489326 0.007763152 -9.950603e-10 3.5567913e-15
000310 ae ea 70 3e 23 b3 82 3e f4 1f f7 3d d3 a7 74 27
       0.23527023 0.25527295 0.120666414 3.395278e-15
000320 87 4b 58 3c 44 62 67 bc 91 7c 97 25 47 f3 6b 3e
       0.013201601 -0.014122549 2.6278734e-16 0.23042022
000330 d4 02 43 3f 44 9e e6 27 67 39 35 3f b6 f0 47 bc
       0.7617619 6.4009416e-15 0.70790714 -0.012203386
000340 f6 20 6f 37 fe ec 9e bc e0 04 08 38 5a d4 19 3e
       1.4253184e-05 -0.019400116 3.2429467e-05 0.15022412
000350 05 df f2 26 41 54 65 26 e1 40 31 3f b6 2a c4 3e
       1.6852573e-15 7.956452e-16 0.6923962 0.38313836
000360 a2 46 82 3d 3e 02 0e 2e fc b9 02 28 57 52 f8 26
       0.063611284 3.2289053e-11 7.256779e-15 1.7230775e-15
000370 c3 c9 88 28 9a cf 73 31 7b 89 17 28 ae 8e b2 38
       1.5186533e-14 3.5479162e-09 8.411995e-15 8.5142776e-05
000380 40 7a 0e 3d 69 ed ab 28 8b 5e 61 bc 1f 8d 46 27
       0.034784555 1.9087774e-14 -0.013755451 2.7554522e-15
000390 fd aa 45 3d b6 3f 0f 2a d6 e3 4f 27 85 92 6b 27
       0.04825877 1.2723056e-13 2.885053e-15 3.269223e-15
0003a0 3b e4 c1 3c de fe 18 a9 17 9a 16 24 ec df 06 3b
       0.0236684 -3.3971842e-14 3.2656584e-17 0.0020580245
0003b0 bb 35 e1 3c bb 56 19 22 60 ef d6 be 4e 2a 69 3e
       0.027491441 2.0781281e-18 -0.41979504 0.22770044
0003c0 fe cb cc 37 0a b0 ea bc eb 23 76 b1 70 f7 f2 35
       2.4413686e-05 -0.028648395 -3.5818128e-09 1.8102419e-06
0003d0 a3 c7 e3 3e 6d 05 af 3d 8f 2f 17 bd c8 71 b8 3f
       0.44488248 0.08545957 -0.03691059 1.4409723
0003e0 a9 3f 94 a3 97 e4 cd 2a a6 ce 31 28 f4 70 77 34
       -1.6073153e-17 3.657393e-13 9.8702835e-15 2.304476e-07
0003f0 88 82 4b 2c 67 0e 53 bd 9e d6 84 3b 1d 66 62 32
       2.8920494e-12 -0.051527407 0.0040539047 1.3178149e-08

bias f4 [16]
000000 bf a9 bd 3e cd 85 bd 3e a7 d9 8b a5 c5 a8 e6 3c
       0.37043568 0.37016144 -2.4260143e-16 0.028156647
000010 4b 25 2a a7 40 0c cb a9 81 cd 5a 3d ad e4 2c bd
       -2.3612456e-15 -9.017136e-14 0.05341864 -0.04221027
000020 95 a1 22 3f b0 33 8c 3d da 1a 16 af cc ee 7d bc
       0.63527805 0.06845796 -1.365196e-10 -0.015498828
000030 64 e6 93 3d e0 6d c5 3e a9 25 99 3d 39 27 f3 bc
       0.07221678 0.3856039 0.07477886 -0.029681789

weight f4 [4, 16]
000000 65 56 11 3f 41 6c 18 3f 0d 00 b2 a3 f2 e7 aa be
       0.5677245 0.5954018 -1.929882e-17 -0.33380085
000010 d7 5f 5c a8 c3 84 b1 a2 82 83 ac be fa 05 d9 be
       -1.2233235e-14 -4.8116513e-18 -0.33694082 -0.42387372
000020 34 08 87 3e 6d 57 98 3e 4f 4b 0b 2f b3 92 90 bd
       0.26373446 0.297542 1.2668731e-10 -0.07059231
000030 1f 8a 20 3b 31 13 08 3f 2b fe 9d 3e e0 8b b5 bf
       0.002449639 0.53154284 0.30857977 -1.4183311
000040 e4 6f 0f 3f a2 de 0d 3f 8a d1 84 24 e8 5e b7 be
       0.56030107 0.55417836 5.760085e-17 -0.35814595
000050 b2 cf c6 a3 ed 81 21 a3 85 f5 80 3d 05 4f d7 be
       -2.1555165e-17 -8.75534e-18 0.06296829 -0.42052475
000060 0f 47 8b 3e 2f 0e a1 3e 34 92 07 2f ee 96 b4 bf
       0.2720265 0.31456134 1.233012e-10 -1.410856
000070 1c 70 99 be 6a 64 0b 3f 98 da 97 3e 89 6a da bd
       -0.29968345 0.54450095 0.2965896 -0.10664851
000080 4a a5 10 3f f1 10 16 3f 83 1a 5c a4 7d 7d 3f bf
       0.5650221 0.586196 -4.7727352e-17 -0.74800855
000090 1e 53 01 24 f0 d4 a6 23 34 05 d6 be d3 26 f3 bb
       2.804282e-17 1.8087939e-17 -0.41800845 -0.0074203997
0000a0 99 62 62 3e e5 62 59 bf 04 80 6e 2e 02 62 22 bd
       0.22107925 -0.84916526 5.4228635e-11 -0.03964425
0000b0 85 9f d9 be 78 52 ff 3e 93 0e 9e 3e 62 37 c3 bc
       -0.42504516 0.49867606 0.30870494 -0.02383012
0000c0 2d 35 0a 3f d0 c7 1c 3f 47 69 82 a1 48 8d a3 3c
       0.5398739 0.6124239 -8.837009e-19 0.01996483
0000d0 68 1d 01 a3 d6 e6 8f 2a 67 50 e7 be 65 94 58 bf
       -6.999331e-18 2.5562077e-13 -0.4517853 -0.8460143
0000e0 d0 c9 6d 3e 39 b8 87 3e e5 bf 57 2a 3f 5c 0d bd
       0.23221517 0.26507738 1.9162413e-13 -0.0345118
0000f0 fc bc e0 be ea a8 07 3f ab 0c 62 bf 5a c3 3d bd
       -0.43894184 0.5299212 -0.8830058 -0.04632888

bias f4 [4]
000000 0b f6 84 3e da 2a 7d 3e b7 ef 36 3c d5 90 ba 3d
       0.25968966 0.24723378 0.011165551 0.09109656
