data/156000.pth (torch, 37591 bytes, 6 tensors)

weight f4 [64, 33]
00000000: 6088 59bd b9be 11bd 5ed2 a1bd d94b 38bd
00000010: 42c8 30bd 8be1 38bd 9770 b0bd 1ff8 53bd
00000020: 00c0 e0bc db5a 3abd 8347 85bc 581a 18bc
00000030: 0056 753e a415 93bb a4cf 5e3c 6c04 9f3c
00000040: 7c54 24bd 6882 26bb 939f b13c 0d49 ecbc
00000050: 7bd6 8f3b bc8b 243d ac80 ac3c bcc9 4fbd
00000060: d0f9 863c f520 543e 2762 6a3e 9525 913e
00000070: daaa 973e c35b a43d 7b5a 13be 0cf1 b5bd
00000080: 4820 a4bc 30a2 1a3b ecb7 1439 6dd7 c33a
00000090: 3189 b439 545e 81ba 2866 083a a153 063b
000000a0: 4fdd 033b 7022 da3a 3d2c b3ba acd8 f5ba
000000b0: 0c3b 8d3a 62d2 1bbb 0a7c 0e3b 3ed1 0eba
000000c0: 2912 cb3a 3b27 89b9 e9bc 91b9 631d 4e3a
000000d0: a947 873a a68b ac3a 1bfd c239 39e8 39b8
000000e0: e497 143b 7c5b b83a 48fd 24bc 4640 a9ba
000000f0: 68b8 58bc cd07 9dbc 8112 c4ba b102 a0bb
00000100: a153 233a 6a6c 13bb 54c6 422a 28d0 20a8
00000110: ce65 4729 c041 caa9 10bd 7e29 4839 e2a9
00000120: 8b3a 0a2a 4e6e c2a9 7d3e 592a 1a40 77b0
00000130: 3a50 77b0 e7c9 232a 93e1 77b0 2aba 77b0
00000140: fbbd 77b0 0aad 77b0 c458 77b0 9aff 002a
00000150: ceec 872a e13f 8028 3ada 4529 5e7d 77b0
00000160: eb82 77b0 0a8c 77b0 b57f 202a 940f 75b0
00000170: 5ad6 76b0 e356 76b0 11fb 70b0 9b60 7430
00000180: 0a4b 76b0 7f63 78b0 33cf 77b0 b33b 27a7
00000190: 624a 23a7 446d eca6 3699 87a6 56ed 22a7
000001a0: 1513 33a7 0c1c 1da7 7973 87a4 ea14 41a6
000001b0: c31e 35a7 8c27 05a7 e3b5 f7a3 b698 0327
000001c0: b96f 4224 f6ca 8da6 18b9 0ca7 e593 83a6
000001d0: 2b31 13a6 0a15 11a6 0768 24a6 2955 88a5
000001e0: b85e 98a6 3655 a1a4 07c6 1ba6 8d31 bea6
000001f0: 1df6 c8a7 6f6f 71a7 a610 86a7 0d45 a4a7
00000200: 806e 8325 644d 62a6 8deb 25a6 5ac7 a727
00000210: 0242 293d 2492 c63b 7e3b fa3c 7f3f f1bc
00000220: 7542 463d 6d3a 123d 187e e93c 65f3 afbc
00000230: d9a1 253c 4237 9a3d c5d3 223d 967a 243d
00000240: 4fa6 013e 75cd 1e3e 294a 273d 36f5 bfbc
00000250: 3430 2a3d 8c80 bf3c 323d 8d3d b041 8abc
00000260: 60be 01bb fbc7 6abd 3703 cc3c bbe5 41bc
00000270: 4e16 8d3d ff85 9ebe cd9b 33bf 65ca 11be
00000280: c910 723d c12b b2bc b069 9d3d f443 9c3d
00000290: 173d 073e 6eca 183d c4d7 6ebd e26c 2e3d
000002a0: 4e3d a6bb 4d28 f1bb 4e36 28bc 6038 873d
000002b0: f786 3bbc c210 113c 771e eebc 0cf6 143d
000002c0: 4583 1c3e 53a8 0e3e b77b 0d3d 8cbd 643d
000002d0: c52b b33d 4c5c a23b a991 15bd 18b4 9e3d
000002e0: cf71 8e3c c794 fa3c 3192 fdbc 4580 a13c
000002f0: 8f1e 13bc ab50 063d 030c 4fbe dafa 0e3d
00000300: 6d6b 99be 45d8 3fbf a95b 0bbd b53c 25be
00000310: 419f a83d 3624 1d3e e73c 173e ebcc e43d
00000320: d9d6 1f3e 6021 41bd 8476 813b 46a9 0b3d
00000330: 6b2f 643e 11e8 e33c 58fd 993b 3579 91bc
00000340: 5505 5f3d a5d0 2ebd bd41 743e edc4 1dbe
00000350: e1c4 8cbd a12d 8ebd 9551 d03c b310 95bc
00000360: 995b 633e 46a9 0dbd c0a5 3c3d 8f1a 3cbb
00000370: 024d 9f3d cc5d 50bd 90cf 093e e32f 25bd
00000380: a6ee 06bd 66b9 263c 23eb 383d ce39 523d
00000390: 75d2 83bd 59ff a7bc 945b 833e b407 e025
000003a0: 414d b1a6 59de 89a5 1e8e 9d25 b397 33a7
000003b0: 5530 fca5 b069 0e26 2a42 90a5 20f0 a926
000003c0: 1c9a 8ca7 48ed cda5 55f1 0925 e270 a124
000003d0: acc7 34a6 0667 0f26 964e a0a6 27ae 28a7
000003e0: 83e5 84a6 868a ec24 e485 0226 434d b425
000003f0: 137e 70a6 f10b 5f25 0410 50a5 5695 c7a6
-0.053108573 -0.035582278 -0.079014525 -0.04499421 -0.04315973 -0.04513697 -0.08615225 -0.0517503
-0.027435303 -0.045496803 -0.016269451 -0.009283625 0.23958588 -0.0044886637 0.01359931 0.019411288
-0.040119633 -0.0025407318 0.021682536 -0.028843427 0.0043895817 0.040172324 0.02105745 -0.0507295
0.016476542 0.20715697 0.22889005 0.28348985 0.29622537 0.08025315 -0.14389984 -0.08883867
-0.020034924 0.0023595206 0.00014182896 0.0014941521 0.0003443449 -0.0009870031 0.0005203211 0.0020496624
0.0020120924 0.0016642343 -0.00136698 -0.001875659 0.0010775044 -0.002377652 0.0021741414 -0.00054480496
0.0015493083 -0.00026159905 -0.00027797304 0.00078626553 0.0010321039 0.0013164177 0.00037191142 -4.432371e-05
0.0022673542 0.001406535 -0.010070153 -0.0012912832 -0.01322756 -0.019168759 -0.0014959128 -0.0048831333
0.0006230418 -0.002249504 1.729947e-13 -8.926921e-15 4.4275178e-14 -8.982008e-14 5.6563315e-14 -1.0046353e-13
1.2277173e-13 -8.6344655e-14 1.9295152e-13 -8.994917e-10 -8.9972085e-10 1.4547357e-13 -9.0178637e-10 -9.012263e-10
-9.0128055e-10 -9.010398e-10 -8.998422e-10 1.1457363e-13 2.4145134e-13 1.4238558e-14 4.393207e-14 -9.0036234e-10
-9.004412e-10 -9.0057084e-10 1.4255162e-13 -8.915262e-10 -8.979889e-10 -8.961775e-10 -8.766828e-10 8.890397e-10
-8.9600916e-10 -9.0363267e-10 -9.0152524e-10 -2.3208269e-15 -2.2661117e-15 -1.6405406e-15 -9.409035e-16 -2.2610676e-15
-2.4851585e-15 -2.1803331e-15 -5.8742536e-17 -6.698867e-16 -2.5135472e-15 -1.8478896e-15 -2.6856826e-17 1.8262687e-15
4.2161677e-17 -9.838853e-16 -1.9529242e-15 -9.130038e-16 -5.1067505e-16 -5.0335494e-16 -5.7039913e-16 -2.3649946e-16
-1.0572792e-15 -6.996697e-17 -5.4044805e-16 -1.3197329e-15 -5.5777988e-15 -3.3505877e-15 -3.721052e-15 -4.559401e-15
2.2799755e-16 -7.8514385e-16 -5.7565106e-16 4.656795e-15 0.041322716 0.006059902 0.030545946 -0.029449223
0.048403222 0.03570025 0.028502509 -0.021478364 0.010109388 0.07530071 0.03975274 0.04015597
0.12661098 0.15508063 0.04084221 -0.023432355 0.041549876 0.023376726 0.06896438 -0.016877025
-0.001979731 -0.057319622 0.024903877 -0.011834557 0.0688902 -0.30961606 -0.7015961 -0.14237364
0.05909804 -0.02174938 0.07686174 0.076301485 0.13206898 0.037302427 -0.05831124 0.042584307
-0.005073226 -0.0073595406 -0.0102668535 0.066025496 -0.011445752 0.008854093 -0.029067261 0.03636746
0.1528445 0.13931398 0.03454181 0.05584483 0.08748583 0.0049548503 -0.036515865 0.07749194
0.017388253 0.03058852 -0.030953499 0.019714484 -0.008979454 0.032791775 -0.20219426 0.0349072
-0.29964772 -0.74939376 -0.03402296 -0.16136439 0.082335 0.15345845 0.14769326 0.111718975
0.15609302 -0.04715097 0.0039508957 0.03409698 0.22283714 0.027820619 0.0046993904 -0.017757991
0.054448444 -0.042679448 0.23853202 -0.15407152 -0.06873489 -0.06942297 0.025429526 -0.01819644
0.2220291 -0.03458526 0.04605651 -0.0028702354 0.0777836 -0.0508707 0.13458085 -0.04032887
-0.032942437 0.010176038 0.04514612 0.051324658 -0.06436626 -0.020507501 0.25655806 3.8863026e-16
-1.2302782e-15 -2.391638e-16 2.733146e-16 -2.4923476e-15 -4.3747783e-16 4.940938e-16 -2.5024853e-16 1.1791817e-15
-3.902489e-15 -3.572262e-16 1.1964622e-16 7.001385e-17 -6.272065e-16 4.9752714e-16 -1.1123531e-15 -2.3409092e-15
-9.221549e-16 1.0258335e-16 4.5284266e-16 3.1277377e-16 -8.343759e-16 1.9346213e-16 -1.804655e-16 -1.3848876e-15

bias f4 [64]
00000000: ac87 903e 9832 adbb fd43 61b0 a4bd 61a7
00000010: 9275 5fbd 162b 9ebd 12be 813d e8cc 6fa7
00000020: db5e 00be 4699 ae3e 0783 21a7 7d4b 6cbd
00000030: 2273 8fbe 0bff 34a8 5156 a93e 0660 1ebe
00000040: 28e5 1bb7 dcfc 103e 3069 d5b7 ff6f 5c3e
00000050: 1427 d0a6 564b 40a6 22b6 a63e 6c42 88be
00000060: eed0 873e 094a 5aad 8ad0 f3a7 2f26 c7a6
00000070: efbd 35a8 16ce 88b0 e097 08aa 8694 47b8
00000080: 64fe 7bbc 334d 92a9 ef9f 89bd a238 9fa7
00000090: 15c3 933e 7eb8 3ca9 bca1 39a7 238e 20a7
000000a0: 5568 5cbd 33ae d4a9 9016 84a3 a244 05ba
000000b0: f0c3 3fbd 58a5 7ea3 1865 4f3e 3886 bd3c
000000c0: 5d8d 3ab7 6cf9 05bd b039 49b1 8ec3 f6b4
000000d0: d041 a03e 9565 5b3e fc6a 0c3e 967d 52bd
000000e0: 7641 c8a3 31fe 12aa 1da4 2aa8 ca9d bcb3
000000f0: bf7f b2ac 175b febd 90e6 c9ba e1b1 bbb0
0.2822851 -0.0052855723 -8.195114e-10 -3.1327827e-15 -0.054555483 -0.07723062 0.06335081 -3.3278993e-15
-0.12536184 0.34101313 -2.2414268e-15 -0.05768918 -0.28017527 -1.0047311e-14 0.33073667 -0.15466318
-9.2920745e-06 0.14158958 -2.544056e-05 0.21527098 -1.4443491e-15 -6.671548e-16 0.3256083 -0.26613176
0.26526588 -1.2408304e-11 -6.7672147e-15 -1.3818749e-15 -1.0088704e-14 -9.953876e-10 -1.2131919e-13 -4.758362e-05
-0.015380476 -6.4970944e-14 -0.06719958 -4.4192767e-15 0.28859773 -4.1904407e-14 -2.5761584e-15 -2.2281513e-15
-0.053810436 -9.44491e-14 -1.4321024e-17 -0.00050837744 -0.04681772 -1.38043805e-17 0.20253408 0.02313529
-1.1119378e-05 -0.03270857 -2.9282141e-09 -4.5963355e-07 0.3130021 0.21425469 0.13712686 -0.0513893
-2.1711767e-17 -1.3055595e-13 -9.472482e-15 -8.783134e-08 -5.073247e-12 -0.12419718 -0.0015403796 -1.3656597e-09

weight f4 [16, 64]
00000000: c1c6 b4be 8684 b1bb 9c67 31ac 0d59 faa4
00000010: 5531 99bd c5a3 aabe 1d94 213e 0d6c 13a7
00000020: cb61 02bf 190e 673e 1c50 f026 b3f3 38be
00000030: d1d4 23bf 8c9b 92a7 fa20 39bf 80d8 40bf
00000040: 44c7 97b6 8d5d a03e 5191 ecb7 c02c ca3b
00000050: c9d8 4fa6 4565 38a6 b79e 43bf efcd ffbe
00000060: c91a 443e 65a0 57ae d5d4 35a7 e3a2 15a6
00000070: 411c 2ba8 acd9 9bb1 b77c 87a9 eb10 84b8
00000080: 0a5c 77bd 8e24 cfa9 a41e 22bf e7c8 2527
00000090: 75d4 523e 5eef 0daa 8c5e 3fa6 2eb0 88a6
000000a0: 06c2 fdbe 69f9 e3a9 8891 6c23 1d7c 00bb
000000b0: c571 cfbe 9811 8b22 70e1 c63e 1f9e 79be
000000c0: 2ca9 28b8 b7cf c3be 1b36 1da9 fc8c a4b5
000000d0: 9e83 0bbf e631 2e3e be3a 773e dfc2 d5bf
000000e0: d0ac 95a3 9c2e 01ab b4b7 aba7 9c0b 52b3
000000f0: b881 ceac 293f eabe d6bc fbba af80 4830
00000100: f1a1 b6be a930 76bb 8056 f9ab e6fe 05a7
00000110: 7121 85be 3f2b 1dbe ead1 1c3d 685d 81a7
00000120: d80c 0abf a868 873e 94a5 6aa6 004b 17be
00000130: 4831 18bf 4406 ffa7 5f50 40bf 15b2 a6bf
00000140: ca69 d0b6 7988 803e 3b7e b4b7 2c49 a53e
00000150: 759f 1da6 45e1 34a6 ed76 56bf 1fa8 ebbe
00000160: f701 3f3e edfb 24ae de78 67a7 d2e7 eea5
00000170: 6a6f 52a8 b2c9 6ab1 9a3b 97a9 9fba 4cb8
00000180: 2bb9 72bd d840 fba9 178a 7abf ca6c 5b25
00000190: 3ad0 483e ec8b 0baa 3496 3ea6 97cc 7a25
000001a0: cda3 86bf 513f 03aa cff4 36a3 1f22 dbba
000001b0: a71f 8dbf d812 4d22 7916 1a3d 18b3 23be
000001c0: 6498 13b8 b8f9 93be 277a 34a7 3945 86b5
000001d0: 0377 14bf f26a 273e e12d a93e 2e8e 1bbf
000001e0: 4949 7a23 046f dbaa 6d1b a6a7 de25 91b3
000001f0: 6854 b2ac b70e 0bbf e2c9 a3ba acf6 f2b1
00000200: dbda dda4 ef84 4ba5 0239 a0a5 3784 f2a3
00000210: c013 9ea5 10d1 45a5 29bc 8ba5 8d58 34a5
00000220: 1ef8 fe23 85fb 1522 66ef 15a4 a553 c6a4
00000230: dcb4 14a5 5290 aca3 adfd 91a3 c25a eca4
00000240: a297 7ea4 d178 c2a4 247e e7a4 3c2b 35a5
00000250: 5a80 8924 5a83 7aa3 2d9d a024 486d fca4
00000260: 4662 48a3 325d 9824 382d 4ba3 0766 a522
00000270: 3b02 b324 df96 36a5 027a 87a4 4421 10a5
00000280: 1bcd 0a24 76f5 4aa4 d71f c2a4 93a5 48a4
00000290: 423c 25a5 2b69 d6a3 79d2 b9a3 09b8 b623
000002a0: 8688 6d21 7e7d efa3 bd87 5023 8ad8 1124
000002b0: 7f34 9724 cfc2 8aa2 09b7 57a5 c30f 5ca5
000002c0: de77 49a4 414c e624 9242 5d23 aca9 a9a4
000002d0: 4290 85a4 6f6e 4ba5 6eea 09a5 3ee6 0325
000002e0: 8b3c 4aa3 765b dba4 bdef 9523 3a54 0824
000002f0: e5f8 11a4 2538 e2a3 18d3 8723 c798 0ca5
00000300: d5d7 d93e 90f6 cc3b af64 5cb0 e67d 4e27
00000310: 7def 8b3e 825f 703e d846 1f3e 7e1b 4527
00000320: 1995 f9bc f693 62bc fb21 7425 7b1b 3e3e
00000330: 8929 563f 74ce b927 ebbb 383f b9f6 cbbc
00000340: d7a9 4037 3c8a cebc 9436 db37 298b 193e
00000350: 70b0 c326 71c6 3826 f5b7 353f 55b3 d33e
00000360: 6f1e 793d 39d8 e42d acb0 d227 f315 c826
00000370: 2270 5c28 5170 4431 a436 f427 4ede 8f38
00000380: 1999 e53c 9089 8a28 41ee 4cbc 7df9 1f27
00000390: 95bb 393d 72d6 e629 8f80 2727 a7cd 3d27
000003a0: 931c 8b3c 0e8c f6a8 22b4 f223 f058 d93a
000003b0: eea0 473c a418 f721 a676 dbbe 0002 3e3e
000003c0: 2d01 a537 90b0 a5bc 3c50 46b1 2ec4 c335
000003d0: 581b f63e 7c36 ab3d b5fc 96bd b268 bc3f
000003e0: c8e3 6ea3 a7e1 a52a ae44 0f28 d55e 4734
000003f0: 9cf9 232c 606a 36bd d40e 563b 9f67 3632
-0.35307887 -0.0054174094 -2.5210728e-12 -1.08571075e-16 -0.074801125 -0.3332807 0.15779157 -2.0458923e-15
-0.5093047 0.22563972 1.6675059e-15 -0.18061714 -0.6399661 -4.0691785e-15 -0.72315943 -0.7533035
-4.5233483e-06 0.31321374 -2.820106e-05 0.0061698854 -7.211135e-16 -6.397507e-16 -0.76414055 -0.49961802
0.19150843 -4.90278e-11 -2.5234172e-15 -5.191551e-16 -9.4985334e-15 -4.53584e-09 -6.016839e-14 -6.297402e-05
-0.06039051 -9.198988e-14 -0.63328004 2.300726e-15 0.20588858 -1.2606363e-13 -6.639457e-16 -9.484649e-16
-0.4956209 -1.0124091e-13 1.2824403e-17 -0.0019605227 -0.40516487 3.7694654e-18 0.3884387 -0.24376725
-4.0211875e-05 -0.3824441 -3.4907932e-14 -1.2259984e-06 -0.54497707 0.17011222 0.24143502 -1.6700095
-1.6227801e-17 -4.589469e-13 -4.7661206e-15 -4.8904994e-08 -5.869274e-12 -0.45751312 -0.0019206058 7.2942447e-10
-0.35670426 -0.0037565625 -1.7716523e-12 -1.8595639e-15 -0.26002076 -0.15348528 0.038286127 -3.5905964e-15
-0.5392585 0.26447034 -8.140946e-16 -0.14774704 -0.594502 -7.078351e-15 -0.75122637 -1.3023096
-6.2111985e-06 0.2510412 -2.1516453e-05 0.32282388 -5.468642e-16 -6.275534e-16 -0.83775216 -0.46026704
0.18653093 -3.7513038e-11 -3.2123212e-15 -4.1443506e-16 -1.1681501e-14 -3.4166132e-09 -6.716086e-14 -4.8811195e-05
-0.05925862 -1.1157888e-13 -0.9786696 1.9032081e-16 0.19610682 -1.2394225e-13 -6.6123055e-16 2.1753361e-16
-1.0518738 -1.1657105e-13 -9.91808e-18 -0.0016718543 -1.1025285 2.7792656e-18 0.037619088 -0.15986288
-3.5189456e-05 -0.28901458 -2.5046237e-15 -1.0003924e-06 -0.579941 0.1634939 0.33042815 -0.60763824
1.3568046e-17 -3.8979247e-13 -4.610399e-15 -6.758977e-08 -5.0684353e-12 -0.5431933 -0.0012496079 -7.0711703e-09
-9.621423e-17 -1.7652483e-16 -2.7794206e-16 -2.6293688e-17 -2.7422014e-16 -1.715786e-16 -2.4240159e-16 -1.5642513e-16
2.7643817e-17 2.0326419e-18 -3.2512003e-17 -8.601051e-17 -1.2898231e-16 -1.87094e-17 -1.5828367e-17 -1.02502435e-16
-5.520591e-17 -8.433876e-17 -1.0039397e-16 -1.5713896e-16 5.9631715e-17 -1.3580342e-17 6.9655205e-17 -1.0947271e-16
-1.0862832e-17 6.607737e-17 -1.10142275e-17 4.4831365e-18 7.7632654e-17 -1.5837101e-16 -5.8753607e-17 -1.250128e-16
3.009771e-17 -4.400968e-17 -8.418803e-17 -4.3508334e-17 -1.4331885e-16 -2.3246467e-17 -2.0146879e-17 1.9810421e-17
8.047941e-19 -2.596558e-17 1.1304446e-17 3.162528e-17 6.557474e-17 -3.7611237e-18 -1.8710292e-16 -1.9087299e-16
-4.368646e-17 9.987578e-17 1.1994531e-17 -7.35795e-17 -5.792394e-17 -1.764486e-16 -1.1962284e-16 1.1440448e-16
-1.09632624e-17 -9.513105e-17 1.6256145e-17 2.9561642e-17 -3.1652685e-17 -2.4526747e-17 1.4726131e-17 -1.2194827e-16
0.4254748 0.0062549785 -8.0178614e-10 2.8656493e-15 0.27331153 0.23473933 0.15554368 2.7354146e-15
-0.030466603 -0.013829222 2.117514e-16 0.1856517 0.8365713 5.157165e-15 0.7216174 -0.02489792
1.1483636e-05 -0.0252124 2.613225e-05 0.14994492 1.3578667e-15 6.410676e-16 0.7098382 0.41347757
0.06082004 2.6016621e-11 5.8478257e-15 1.3883737e-15 1.2236768e-14 2.8585598e-09 6.7782846e-15 6.860179e-05
0.028027104 1.5380736e-14 -0.012507976 2.220093e-15 0.045344908 1.0251252e-13 2.3245597e-15 2.6340503e-15
0.016981399 -2.7372225e-14 2.6313982e-17 0.0016582292 0.012184365 1.6743893e-18 -0.4286396 0.1855545
1.967008e-05 -0.020225793 -2.88584e-09 1.4585728e-06 0.48067737 0.083600014 -0.07372419 1.471945
-1.295024e-17 2.9466466e-13 7.952987e-15 1.8567819e-07 2.3302254e-12 -0.04453504 0.0032662647 1.0617355e-08

bias f4 [16]
00000000: 8939 c53e 45a5 c53e 0160 61a5 8a24 aa3c
00000010: e216 09a7 fc9a a3a9 df9d 4a3d 0a32 28bd
00000020: 793d 273f 033b 8b3d ebe5 f1ae 7bc2 3ebc
00000030: 302e 7e3d 176a ca3e 2cd0 7c3d 97a7 05bd
0.38520458 0.38602653 -1.9548166e-16 0.020769376 -1.9024974e-15 -7.2655396e-14 0.049466964 -0.041063346
0.65328175 0.06798365 -1.1000253e-10 -0.011643047 0.062055767 0.39534065 0.061721966 -0.03263053

weight f4 [4, 16]
00000000: fdbb 113f 5346 183f 366c 8fa3 9db9 a0be
00000010: 208d 31a8 9209 8fa2 8462 afbe 11a5 dabe
00000020: 3604 843e 0a78 973e 0978 e02e 8c9d 93bd
00000030: fade 003d fbec 073f 0222 9e3e 7d40 b9bf
00000040: 1668 0f3f 20ce 0d3f a006 5624 0f74 b8be
00000050: 682e a0a3 d120 02a3 6bb2 923d b3f1 cfbe
00000060: 7b0d 8a3e dcc3 933e 3f7e da2e 9f4b b1bf
00000070: cf1d 92be e691 0c3f 5a63 963e 2546 d6bd
00000080: 72f5 113f c0da 143f b254 31a4 4803 46bf
00000090: d266 d023 1d6d 8623 3611 d3be 84ec 323c
000000a0: 0411 613e b0da 59bf b627 402e 81b6 0ebd
000000b0: fd8f dfbe fabd 073f a414 a43e 95f5 afbc
000000c0: 1d3f 013f aff9 173f 012f 52a1 dd3b 9e3c
000000d0: bc0e d0a2 0ae3 672a 6978 e3be 13b7 56bf
000000e0: 824c 7f3e 2990 973e 66d5 2d2a 8fc1 19bd
000000f0: 839f e2be 4aae 093f 3269 66bf 284e 28bd
0.5692747 0.59482306 -1.554992e-17 -0.31391612 -9.856075e-15 -3.877036e-18 -0.3425485 -0.4270406
0.25784463 0.2958377 1.0207663e-10 -0.07207784 0.031462647 0.5309598 0.3088532 -1.4472805
0.560182 0.55392647 4.6409465e-17 -0.36026046 -1.7366889e-17 -7.054263e-18 0.07162937 -0.4061409
0.2696341 0.28860366 9.935918e-11 -1.3851203 -0.28538367 0.54910123 0.29372674 -0.10462598
0.57015145 0.58146286 -3.8452497e-17 -0.77348757 2.2594951e-17 1.457452e-17 -0.41224068 0.0109206475
0.21979147 -0.85099316 4.3691016e-11 -0.034842018 -0.43664542 0.53024256 0.32046998 -0.021479407
0.5048693 0.5936536 -7.1212977e-19 0.019315654 -5.6394114e-18 2.0595691e-13 -0.44427803 -0.838731
0.24931529 0.29602173 1.5439524e-13 -0.037538107 -0.44262323 0.5378157 -0.90004265 -0.04109016

bias f4 [4]
00000000: bd32 843e 8aff 7c3e 99ee 2b3c 582c db3d
0.2581996 0.24706855 0.010493898 0.10701817
