data/160800.pth (torch, 38231 bytes, 6 tensors)

weight f4 [64, 33]
000000 1e a2 45 be 44 34 69 bd d7 98 51 be c6 8e 72 bd
       -0.19300124 -0.05693461 -0.2046846 -0.05921819
000010 b8 70 d1 bc 73 62 a6 bc 36 a7 78 be a6 ca e2 ba
       -0.025566444 -0.020310616 -0.24282536 -0.0017302826
000020 bf b7 42 bd cc 4d d6 3d 60 7c 0c 3c 8f ec 27 bd
       -0.047538515 0.10464057 0.008574575 -0.040997084
000030 f1 23 b9 3d 02 55 d0 3d 43 2a 6f ba 37 79 94 bd
       0.090400584 0.10172464 -0.0009123424 -0.072496824
000040 f3 33 10 bd 54 d5 4a bd ba 78 63 be 9f 69 0f bd
       -0.035205793 -0.04951985 -0.22214022 -0.035012837
000050 fb 60 55 bd c5 bd c1 bd 64 63 e4 bd 8b a9 cb bd
       -0.05209444 -0.09460024 -0.1115177 -0.09944447
000060 e2 9c 86 bd fe 37 6b 3e dc 3a ac be 8b 12 01 3e
       -0.06572892 0.22970578 -0.33638656 0.1260473
000070 39 db 9d 3e 89 a9 e6 bb 64 cf b8 bd 7e b1 26 bd
       0.30831316 -0.007039253 -0.090239316 -0.040696613
000080 3f b0 b7 bc 6d 45 25 3a 97 f3 1e 38 4f 52 d1 39
       -0.022422908 0.0006304596 3.7896996e-05 0.0003992491
000090 19 f5 c0 38 e8 46 8a b9 10 c7 11 39 0e 93 0f 3a
       9.2009264e-05 -0.0002637424 0.00013902434 0.000547693
0000a0 43 ec 0c 3a b9 24 e9 39 be 7d bf b9 a8 5e 03 ba
       0.0005375782 0.00044468584 -0.00036524044 -0.00050113583
0000b0 0b f2 96 39 04 8b 26 ba 22 49 18 3a 6c a4 18 b9
       0.00028790566 -0.00063531124 0.00058092375 -0.00014557102
0000c0 3b 0b d9 39 22 95 92 b8 7e c5 9b b8 81 4d 5c 39
       0.00041397833 -6.989601e-05 -7.427762e-05 0.00021009707
0000d0 df 99 90 39 10 6d b8 39 c3 66 d0 38 5c b4 46 b7
       0.00027580463 0.00035176473 9.937354e-05 -1.1843713e-05
0000e0 58 d1 1e 3a 2e 07 c5 39 0d 55 30 bb d0 e3 b4 b9
       0.00060584163 0.00037580117 -0.0026906163 -0.0003450201
0000f0 3b a3 67 bb 77 d7 a7 bb 0d 92 d1 b9 93 03 ab ba
       -0.0035345096 -0.005122121 -0.00039972403 -0.001304733
000100 cc 90 2e 39 36 91 1d ba a6 2b 50 29 02 e1 2b a7
       0.00016647874 -0.0006010713 4.6223137e-14 -2.3852994e-15
000110 49 1c 55 28 66 30 d8 a8 2a 1e 88 28 76 ca f1 a8
       1.1830009e-14 -2.4001807e-14 1.5112115e-14 -2.6844178e-14
000120 d8 bc 13 29 ad cc cf a8 e1 32 68 29 5a 21 84 af
       3.2804353e-14 -2.307038e-14 5.155848e-14 -2.4034358e-10
000130 16 2a 84 af 76 0e 2f 29 d1 78 84 af 78 63 84 af
       -2.4040564e-10 3.887035e-14 -2.4096505e-10 -2.4081337e-10
000140 8b 65 84 af 5c 5c 84 af b8 2e 84 af 9a e0 09 29
       -2.408281e-10 -2.4076285e-10 -2.4043856e-10 3.061492e-14
000150 36 49 91 29 8b 11 89 27 92 78 53 28 8a 42 84 af
       6.4519936e-14 3.804416e-15 1.17389974e-14 -2.405794e-10
000160 8d 45 84 af 7c 4a 84 af c6 88 2b 29 be f1 82 af
       -2.406008e-10 -2.4063584e-10 3.808826e-14 -2.381863e-10
000170 12 e8 83 af 07 a3 83 af a5 c7 80 af f7 92 82 2f
       -2.3993657e-10 -2.39446e-10 -2.342492e-10 2.3751287e-10
000180 9c 9c 83 af ff be 84 af dd 6e 84 af ec bf 32 a6
       -2.394004e-10 -2.414637e-10 -2.4089433e-10 -6.201626e-16
000190 f8 86 2e a6 32 b1 fc a5 b2 f1 90 a5 19 24 2e a6
       -6.0551294e-16 -4.3835104e-16 -2.5143797e-16 -6.04173e-16
0001a0 26 63 3f a6 04 ed 27 a6 0c c9 90 a3 61 5e 4e a5
       -6.640081e-16 -5.826098e-16 -1.5697658e-17 -1.7899629e-16
0001b0 7d 97 41 a6 e6 4f 0e a6 27 61 04 a3 e5 a3 0c 26
       -6.716563e-16 -4.937443e-16 -7.176307e-18 4.8794376e-16
0001c0 37 ce 4f 23 68 8b 97 a5 b1 6a 16 a6 e5 9e 8c a5
       1.126516e-17 -2.628879e-16 -5.21863e-16 -2.43938e-16
0001d0 e1 51 1d a5 a2 11 1b a5 78 b6 2f a5 6e b5 91 a4
       -1.3645321e-16 -1.3450081e-16 -1.5240653e-16 -6.319108e-17
0001e0 56 db a2 a5 77 72 ac a3 6f 7d 26 a5 ee 46 cb a5
       -2.8251148e-16 -1.8696755e-17 -1.4440703e-16 -3.526295e-16
0001f0 5f cb d6 a6 89 05 81 a6 f0 4a 8f a6 4e 91 af a6
       -1.4904357e-15 -8.952673e-16 -9.94293e-16 -1.2182449e-15
000200 11 78 8c 24 f1 df 71 a5 57 57 31 a5 0c 54 b3 26
       6.091872e-17 -2.0979292e-16 -1.5381895e-16 1.2443401e-15
000210 2a c1 93 3c c7 85 86 3d e7 96 0b 3d ec d9 fe 3c
       0.018036444 0.06568485 0.03407946 0.031109773
000220 e6 95 88 3d 44 b1 f0 3c 73 47 c0 3d b7 ce 43 3d
       0.06669216 0.029381402 0.09388628 0.04780456
000230 73 6b 2a 3d 84 e8 8e 3d 9a a6 93 3d 41 35 3f 3d
       0.041606378 0.069779426 0.07209511 0.046681646
000240 b0 3f 55 3d ef 55 f2 3d e8 cd 5b bc 30 55 55 bc
       0.05206269 0.11832797 -0.013415791 -0.013020799
000250 37 f0 7d 3d ad 90 ed bc 79 9e 51 3d f3 40 36 3d
       0.061996665 -0.02899965 0.051176522 0.044495534
000260 c1 3e 10 3d ee e0 63 bc e2 81 45 3d 6c a0 82 3d
       0.035216097 -0.013908608 0.04821957 0.06378254
000270 09 dc 2b 3d 37 d2 ac be 1b 3d 22 bf 52 43 bf be
       0.04195789 -0.3375413 -0.6337449 -0.3735605
000280 13 1b 1f bd 46 ef a0 bb e9 6f 7d 3d 11 ed ca 3d
       -0.03884418 -0.004911336 0.061874304 0.09908498
000290 df 30 86 3d 8d 2a 0f 3b 33 a5 08 bc be 07 29 3d
       0.0655229 0.002184543 -0.008340168 0.04126715
0002a0 56 90 73 3b 6c 32 8b 3c c0 65 15 3d 68 40 58 3d
       0.0037164888 0.016991816 0.03647399 0.052795798
0002b0 8c 3c ee 3b d3 3f 4a 3d 61 22 83 3b 49 23 ad 3b
       0.0072704013 0.049377274 0.004001901 0.0052837473
0002c0 b6 bb e8 3d be 53 5a 3d 61 a2 6e 3d 64 80 16 3d
       0.11363928 0.05330252 0.058260325 0.036743537
0002d0 10 7f e3 3d 39 95 62 bb 52 5a 43 3d f8 2d 8e 3d
       0.111082196 -0.0034573807 0.047693558 0.069423616
0002e0 07 11 a8 bb a9 df f7 3c 03 fd 31 3d 47 48 48 3d
       -0.005128983 0.030258017 0.04345418 0.048897054
0002f0 5b e2 ce b9 f0 b9 09 3c 29 52 b1 be df f7 2f 3d
       -0.0003946003 0.008406147 -0.34632996 0.042960998
000300 dc 3d 99 be c3 82 3b bf f8 9c 3a bd f1 1f 00 be
       -0.29930007 -0.732464 -0.045559853 -0.12512185
000310 ed 2e bb 3d 9b 0c 90 3d 3c 07 3f 3e 1a 95 79 3d
       0.0913981 0.07033654 0.18655103 0.06093321
000320 1c 17 20 3e ed 6a c3 3d 53 fc 17 bc b2 68 fa bc
       0.15633816 0.09541879 -0.009276467 -0.0305675
000330 a5 09 6e 3e 92 9f 01 3d 88 cd 32 bd 8c 7c 53 bd
       0.23245867 0.03164632 -0.04365304 -0.05163245
000340 53 b8 29 3d 68 16 38 bd aa ab 82 3e 60 04 29 be
       0.04143555 -0.044943243 0.25521594 -0.16505575
000350 ae 72 85 bd 81 e8 99 bd ab 9d 42 3c df 66 64 bd
       -0.06516014 -0.0751505 0.011878411 -0.055762168
000360 34 d9 35 3e 10 72 e4 bd 4f 67 af 3c 37 d9 ca bc
       0.17758638 -0.11154568 0.021411566 -0.02476178
000370 84 fa 11 3e 9b af b0 bc 3e 90 3c 3e f8 34 25 bd
       0.1425572 -0.02156811 0.18414399 -0.040333718
000380 ec 90 fd bc fa 21 02 bd ec 80 c1 3c b6 2f 2e 3d
       -0.030952893 -0.031770684 0.023621045 0.04252597
000390 74 d4 84 bd f7 fb d1 3a b2 b5 8d 3e 94 72 ef 24
       -0.06485835 0.0016020526 0.27677685 1.0384383e-16
0003a0 64 83 bd a5 d0 59 93 a4 72 66 a8 24 58 ef 3f a6
       -3.2875307e-16 -6.3903236e-17 7.3031935e-17 -6.659081e-16
0003b0 32 c3 06 a5 78 35 18 25 b2 2f 9a a4 52 9e b5 25
       -1.1688782e-16 1.3202014e-16 -6.686765e-17 3.1505777e-16
0003c0 69 49 96 a6 cc 19 dc a4 34 6e 13 24 e0 8f ac 23
       -1.0428239e-15 -9.545349e-17 3.196889e-17 1.870921e-17
0003d0 ef 38 41 a5 e5 44 19 25 60 54 ab a5 d4 48 34 a6
       -1.6759371e-16 1.3293977e-16 -2.9720946e-16 -6.2548746e-16
0003e0 c8 08 8e a5 59 d0 fc 23 1f 86 0b 25 05 b4 c0 24
       -2.4639024e-16 2.7410133e-17 1.210177e-16 8.357169e-17
0003f0 29 85 80 a5 a7 65 6e 24 d1 60 5e a4 79 4f d5 a5
       -2.2294693e-16 5.1694126e-17 -4.8220583e-17 -3.7003463e-16

bias f4 [64]
000000 0a 15 90 3e d4 1d b9 ba 6e c4 70 af 60 46 71 a6
       0.28141052 -0.0014123269 -2.1897659e-10 -8.370905e-16
000010 a4 67 1a be 95 e3 06 be 24 0d 62 3d ec 26 80 a6
       -0.15078598 -0.13172753 0.055188313 -8.892334e-16
000020 66 30 dd bd b5 db ab 3e 28 a3 2c a6 38 8d 7c bc
       -0.10800247 0.3356606 -5.9895606e-16 -0.015414529
000030 c0 2d 8f be 0d 75 41 a7 23 20 b4 3e 98 c7 11 be
       -0.27964592 -2.6847584e-15 0.35180768 -0.14236295
000040 aa 9f 26 b6 02 49 11 3e 7f 17 e4 b6 a5 e2 69 3e
       -2.4828864e-06 0.14188007 -6.797665e-06 0.22840364
000050 01 79 de a5 31 8a 4d a5 25 0f 86 3e d7 94 7c be
       -3.8592857e-16 -1.7827737e-16 0.2618343 -0.24666153
000060 77 25 84 3e 18 4f 69 ac c8 47 02 a7 c4 d7 d4 a5
       0.25809833 -3.3155197e-12 -1.8080037e-15 -3.6922346e-16
000070 4c 44 42 a7 63 35 92 af 29 fb 11 a9 95 4e 55 b7
       -2.6959932e-15 -2.659518e-10 -3.2414314e-14 -1.2714086e-05
000080 b0 a8 86 bb 32 5e 9c a8 00 a6 96 bd 7d 2c aa a6
       -0.0041094646 -1.736033e-14 -0.07355881 -1.1808178e-15
000090 34 80 8f 3e de b2 49 a8 00 68 46 a6 9a 98 2b a6
       0.280275 -1.1196527e-14 -6.8835996e-16 -5.9534357e-16
0000a0 95 d4 37 bd 29 52 e3 a8 ec 29 8d a2 3a 6f 0e b9
       -0.04488047 -2.5237694e-14 -3.8262513e-18 -0.0001358361
0000b0 92 62 ff bc 5c 11 88 a2 86 4b 46 3e 84 ba 0b 3c
       -0.031174932 -3.6881254e-18 0.19364747 0.0085283555
0000c0 47 67 47 b6 d6 98 a8 bc 28 14 57 b0 e4 dd 03 b4
       -2.9713426e-06 -0.02058069 -7.824519e-10 -1.2281049e-07
0000d0 32 ce b0 3e 1a 5d 2d 3e c5 06 0b 3e 81 3a 29 bd
       0.34532315 0.16930047 0.13576801 -0.04131556
0000e0 d2 08 d6 a2 63 1b 1d a9 a2 61 36 a7 b6 96 c9 b2
       -5.8014155e-18 -3.4884757e-14 -2.53105e-15 -2.3468015e-08
0000f0 67 c7 be ab b6 59 db bd 55 ce d7 b9 0f 9e c8 af
       -1.3555657e-12 -0.107104704 -0.00041161725 -3.6492095e-10

weight f4 [16, 64]
000000 8f 50 91 be ce bd bd ba 42 9f 3d ab 22 c9 05 a4
       -0.28381774 -0.0014476122 -6.7367303e-13 -2.9010144e-17
000010 7b f8 2c be 60 f2 a0 be a5 f8 2a 3e d3 90 1d a6
       -0.16891663 -0.31434917 0.16696413 -5.466659e-16
000020 2f d2 fb be ef 6e 75 3e b4 6c 00 26 75 ab 45 bd
       -0.49183795 0.23968099 4.455624e-16 -0.048259217
000030 e9 e9 77 bf f2 b1 9c a6 f8 15 52 bf 76 74 39 bf
       -0.96841294 -1.0872907e-15 -0.8206477 -0.7244333
000040 c7 39 a2 b5 02 9d 9c 3e 95 d7 fc b6 88 91 ca 3c
       -1.2086756e-06 0.30588537 -7.5352823e-06 0.024727598
000050 e9 26 5e a5 85 11 45 a5 bb 61 ee be 7e be e0 be
       -1.9268614e-16 -1.7092962e-16 -0.46558937 -0.43895334
000060 19 c3 4c 3e 35 77 66 ad 9d 5c 42 a6 c2 ee 1f a5
       0.19996299 -1.3100456e-11 -6.7432785e-16 -1.3871946e-16
000070 b2 e4 36 a7 08 93 a6 b0 00 d3 90 a8 d6 23 8d b7
       -2.538155e-15 -1.2119878e-09 -1.6078718e-14 -1.6825197e-05
000080 7c 30 84 bc 6f 68 dd a8 51 cd 20 bf 72 31 31 26
       -0.0161364 -2.458122e-14 -0.6281329 6.147622e-16
000090 31 da 5b 3e 68 b2 17 a9 56 8c 4c a5 43 15 92 a5
       0.21469952 -3.3683478e-14 -1.7741727e-16 -2.534137e-16
0000a0 54 8d dc be ce aa f3 a8 d0 d7 7c 22 9a 52 09 ba
       -0.43076575 -2.7052494e-14 3.4266619e-18 -0.0005238444
0000b0 f4 4f cc be d3 a3 94 21 d4 89 bf 3e 21 9a 9e be
       -0.3990475 1.0072234e-18 0.37409842 -0.30976966
0000c0 8e 43 34 b7 74 1e bb be c4 08 28 a8 b9 dd af b4
       -1.0744565e-05 -0.3654667 -9.327774e-15 -3.2757615e-07
0000d0 b1 b9 3a bf 50 5d 1c 3e b6 f3 87 3e f4 53 d3 bf
       -0.7293959 0.15269971 0.26553124 -1.6509995
0000e0 5e f9 9f a2 60 13 0a aa a9 8c b7 a6 89 7f 60 b2
       -4.3361064e-18 -1.2263584e-13 -1.2736302e-15 -1.3067514e-08
0000f0 5e b9 dc ab fd b0 e9 be eb 85 06 ba e8 4c 56 2f
       -1.568339e-12 -0.45642844 -0.00051316497 1.9490509e-10
000100 a0 95 e8 be 55 8e 83 ba f0 3f 05 ab d2 37 0f a6
       -0.45426655 -0.0010036925 -4.7339823e-13 -4.968874e-16
000110 e7 8d 95 be 3d 43 75 be 53 60 b5 3d eb 45 8a a6
       -0.29209825 -0.2395143 0.08856263 -9.594625e-16
000120 d0 27 0f bf c5 78 78 3e ca cb 7a a5 3d b5 21 bd
       -0.55920124 0.2426482 -2.175309e-16 -0.039479483
000130 c2 bb 45 bf b2 45 08 a7 70 ae 5b bf b7 ae 9e bf
       -0.7723962 -1.8911573e-15 -0.85813046 -1.2397069
000140 24 bf de b5 61 c6 88 3e 2f e9 c0 b6 07 7d 96 3e
       -1.6595918e-06 0.2671385 -5.749192e-06 0.29392263
000150 ea 78 28 a5 b8 54 41 a5 2a db d4 be a2 b6 bb be
       -1.4612644e-16 -1.6768785e-16 -0.4157346 -0.36662775
000160 dc 56 36 3e 9c 53 30 ad fa 65 77 a6 20 5a ff a4
       0.17806572 -1.0023007e-11 -8.5833544e-16 -1.107413e-16
000170 a4 ea 60 a7 43 f2 7a b0 cd a4 a1 a8 27 d0 5a b7
       -3.1213444e-15 -9.1293745e-10 -1.7946062e-14 -1.3042277e-05
000180 ed b4 81 bc 20 44 06 a9 59 be 7e bf 22 86 6a 24
       -0.015833342 -2.9813066e-14 -0.995092 5.0854277e-17
000190 7c f2 42 3e 35 27 15 a9 c0 b3 4b a5 6f 06 86 24
       0.19037813 -3.3118653e-14 -1.7668345e-16 5.8124135e-17
0001a0 cb 02 8f bf 10 47 0c a9 93 8c 43 a2 3e 36 ea b9
       -1.1172727 -3.114788e-14 -2.6501847e-18 -0.00044672372
0001b0 8d 5b 94 bf fa 2e 5b 21 1b 99 80 3d 25 20 d2 bd
       -1.1590439 7.426226e-19 0.062792026 -0.10260037
0001c0 3a c0 1d b7 22 e7 ae be c5 e4 40 a6 8c 83 8f b4
       -9.4026855e-06 -0.34160715 -6.692342e-16 -2.673154e-07
0001d0 5a 7a 20 bf 7f 4a ff 3d 10 c2 a6 3e a7 8c 0b bf
       -0.62686694 0.12465381 0.32569933 -0.54511493
0001e0 c3 c0 85 22 81 88 ea a9 b4 8b b1 a6 a8 23 9b b2
       3.6253817e-18 -1.0415367e-13 -1.2319709e-15 -1.806059e-08
0001f0 96 99 be ab af c5 16 bf 70 0e af b9 a4 d5 01 b1
       -1.3542941e-12 -0.5889539 -0.00033389358 -1.8893411e-09
000200 96 1f ed a3 c2 83 59 a4 68 3d ab a4 c3 98 01 a3
       -2.5708969e-17 -4.7165977e-17 -7.4263455e-17 -7.0254526e-18
000210 b6 f4 a8 a4 f0 6e 53 a4 06 5b 95 a4 48 c0 40 a4
       -7.327294e-17 -4.58473e-17 -6.477265e-17 -4.1796232e-17
000220 10 3e 08 23 7f 4d 20 21 8a 40 20 a3 37 f8 d3 a3
       7.385717e-18 5.4312674e-19 -8.687284e-18 -2.2981789e-17
000230 51 f0 1e a4 05 72 b8 a2 36 0a 9c a2 7b 9d fc a3
       -3.4464345e-17 -4.9994023e-18 -4.2294696e-18 -2.738859e-17
000240 f6 09 88 a3 05 d8 cf a3 9a 6b f7 a3 06 a5 41 a4
       -1.4749368e-17 -2.2534473e-17 -2.6825365e-17 -4.1989984e-17
000250 db f4 92 23 94 df 85 a2 18 a9 ab 23 89 e3 06 a4
       1.5933052e-17 -3.6286445e-18 1.8611471e-17 -2.9249348e-17
000260 2c 2c 56 a2 b6 d9 a2 23 a4 27 59 a2 4d c5 b0 21
       -2.9025793e-18 1.765628e-17 -2.942997e-18 1.1978449e-18
000270 56 51 bf 23 6b 29 43 a4 18 d0 90 a3 72 0c 1a a4
       2.0742709e-17 -4.2318967e-17 -1.5700642e-17 -3.340397e-17
000280 42 5a 14 23 1d ed 58 a3 07 78 cf a3 a7 74 56 a3
       8.042209e-18 -1.1759594e-17 -2.2493819e-17 -1.1625665e-17
000290 f6 97 30 a4 c0 29 e5 a2 d0 9c c6 a2 6d 4c c3 22
       -3.8292632e-17 -6.211478e-18 -5.383404e-18 5.2935775e-18
0002a0 2c e1 7d 20 58 f9 ff a2 48 df 5e 22 17 e3 1b 23
       2.1504437e-19 -6.938189e-18 3.0204814e-18 8.450655e-18
0002b0 3c 9d a1 23 34 4f 94 a1 77 8f 66 a4 77 34 6b a4
       1.7522246e-17 -1.0049835e-18 -4.999482e-17 -5.100194e-17
0002c0 1e 57 57 a3 4e 25 f6 23 b0 7c 6c 22 97 53 b5 a3
       -1.1673621e-17 2.6687173e-17 3.2049973e-18 -1.9659461e-17
0002d0 aa c0 8e a3 22 6c 59 a4 cb 66 13 a4 e2 f5 0c 24
       -1.5477267e-17 -4.7145966e-17 -3.1962613e-17 3.0565932e-17
0002e0 ec 2a 58 a2 98 73 ea a3 e7 40 a0 22 78 b4 11 23
       -2.9296181e-18 -2.5419287e-17 4.3436805e-18 7.8986815e-18
0002f0 44 05 1c a3 3e c9 f1 a2 8c 2e 91 22 fc 47 16 a4
       -8.457892e-18 -6.5536254e-18 3.9351612e-18 -3.2587038e-17
000300 28 2f 32 3e 93 10 db 3a 52 8f 6b af 46 b5 5c 26
       0.17400801 0.0016713314 -2.1424043e-10 7.6573504e-16
000310 b7 23 dc 3e ac 04 8a 3e dd 34 32 3e f5 af 52 26
       0.42995998 0.2695669 0.17402978 7.309685e-16
000320 14 e9 31 bc ce 1b 8c 3b 35 72 82 24 18 2f 4b 3d
       -0.010858793 0.0042757755 5.657199e-17 0.04960546
000330 fc 62 5f 3f 72 98 c6 26 d7 b0 2d 3f 27 67 27 bd
       0.87260413 1.378033e-15 0.6784796 -0.040869858
000340 a7 ed 4d 36 fa e9 bb bc 21 4c ea 36 9a a1 df 3d
       3.0685712e-06 -0.022938717 6.982606e-06 0.10919495
000350 42 28 d1 25 72 7a 45 25 63 a3 0a 3f 66 ec e6 3e
       3.6283e-16 1.7128512e-16 0.5415556 0.45102233
000360 81 e1 71 3d 7b 98 f4 2c a9 30 e1 26 fa d9 d5 25
       0.059052948 6.951826e-12 1.5625701e-15 3.7097317e-16
000370 92 9b 6b 27 45 f7 51 30 f8 7c 02 27 b4 c4 99 37
       3.2697136e-15 7.638515e-10 1.810887e-15 1.8330618e-05
000380 34 66 f5 3b b7 11 94 27 dc f6 0d bd c7 f9 2a 26
       0.00748899 4.109746e-15 -0.03465925 5.931911e-16
000390 96 15 36 3d ba b8 f6 28 f7 08 33 26 ef da 4a 26
       0.04445418 2.7391599e-14 6.211525e-16 7.037954e-16
0003a0 aa 1e bb 3c d4 bf 03 a8 40 b2 01 23 37 4f e8 39
       0.02284177 -7.313557e-15 7.03085e-18 0.00044309508
0003b0 53 f9 e4 3c fc 0b 04 21 12 74 d7 be 82 31 49 3e
       0.027950918 4.47392e-19 -0.42080742 0.19647792
0003c0 30 59 b0 36 7f c1 41 3c a3 f4 53 b0 8f 3d d1 34
       5.2555915e-06 0.011825918 -7.7109e-10 3.8974073e-07
0003d0 2b be 19 3f 4b 51 c1 3d 97 d5 08 bd fa ba bb 3f
       0.600558 0.094393335 -0.03340682 1.4666436
0003e0 d4 55 7f a2 84 4c b1 29 19 20 19 27 c6 14 55 33
       -3.4604381e-18 7.8736524e-14 2.1250416e-15 4.961182e-08
0003f0 23 41 2f 2b ff 20 c3 bc f9 c8 64 3a 8b f7 42 31
       6.2262885e-13 -0.023819445 0.0008727457 2.8371427e-09

bias f4 [16]
000000 68 f5 c7 3e 0f 0d c1 3e 5b e2 70 a4 e0 43 98 3c
       0.39054418 0.37705275 -5.2233435e-17 0.018587053
000010 93 83 12 a6 99 dc ae a8 5e 30 20 3d 1a e0 5b bd
       -5.083224e-16 -1.941355e-14 0.039108627 -0.053680517
000020 5c ee 2a 3f 49 82 9f 3d 91 44 01 ae 46 b2 45 bb
       0.6676996 0.07788522 -2.9392103e-11 -0.0030166074
000030 75 9d 82 3d 21 b4 c3 3e d9 7d 86 3d 02 d6 c1 bc
       0.06377689 0.38223365 0.06566972 -0.023661617

weight f4 [4, 16]
000000 4c f5 0c 3f b6 31 12 3f 74 4a 99 a2 15 6e a0 be
       0.55061793 0.571071 -4.1549563e-18 -0.31333986
000010 e9 c6 3d a7 c6 e0 98 a1 64 eb 9c be 52 a8 cb be
       -2.6336848e-15 -1.0359418e-18 -0.3064834 -0.39776856
000020 6c 1a 87 3e 3a 07 7a 3e 95 ea ef 2d 25 0e a1 bd
       0.26387346 0.24416819 2.727533e-11 -0.07864026
000030 05 5d 10 3d 60 7d 05 3f 47 4c ac 3e 1b 34 b6 bf
       0.03524496 0.5214443 0.33651945 -1.4234651
000040 1c 6b 0b 3f cf b1 0e 3f 2f c0 64 23 c7 ea b6 be
       0.5446031 0.55740064 1.2400601e-17 -0.35725996
000050 1c 32 ab a2 f6 18 0b a2 ff 7f a2 3d 11 24 d7 be
       -4.64027e-18 -1.8851227e-18 0.079345696 -0.42019704
000060 e6 54 8c 3e 23 b8 a9 3e f2 86 e9 2d a1 d1 ad bf
       0.27408522 0.33148298 2.6548961e-11 -1.3579599
000070 b2 de 81 be 61 cc 0c 3f cd 5d a9 3e 54 d0 ce bd
       -0.25365216 0.5499936 0.33079377 -0.10098329
000080 d1 bd 0f 3f 84 f5 0f 3f 41 8b 3d a3 32 f5 4e bf
       0.5614901 0.56234 -1.0275199e-17 -0.8084289
000090 f1 bb de 22 82 ae 8f 22 e8 66 d4 be d2 2b fc ba
       6.037221e-18 3.8944995e-18 -0.4148476 -0.0019239134
0000a0 5f 0a 69 3e 33 87 5c bf b1 64 4d 2d c0 cc 29 bd
       0.22757863 -0.861438 1.1675259e-11 -0.04145503
0000b0 89 e9 dd be 44 ac 04 3f 0e c5 8e 3e 1c 95 36 bd
       -0.43342236 0.51825356 0.27884716 -0.044575796
0000c0 db 71 f7 3e ae 03 1a 3f 85 a5 60 a0 ab 41 30 3c
       0.48329052 0.60161865 -1.9028304e-19 0.010757844
0000d0 79 5f de a1 3a d7 77 29 f5 f0 de be ad 67 4e bf
       -1.5068577e-18 5.5031697e-14 -0.4354321 -0.80626947
0000e0 34 1f 76 3e eb 32 7d 3e 36 ca 39 29 fe e9 67 bd
       0.2403534 0.24726455 4.1253642e-14 -0.056619637
0000f0 52 40 dc be 6a 1c 0c 3f 6d fc 73 bf cb 8b 0e bd
       -0.43017823 0.54730856 -0.95307046 -0.034801286

bias f4 [4]
000000 18 25 84 3e f3 8a 7d 3e 56 d8 c9 3c 78 6c c8 3d
       0.2580955 0.24760036 0.02463929 0.09786314
