data/17200.pth (torch, 18775 bytes, 6 tensors)

weight f4 [64, 33]
0	0x3b779902	0.0037780409
1	0xbb0ce676	-0.002149967
2	0x3c6f5b58	0.01460918
3	0x3a7a5b78	0.0009550373
4	0xbb21a687	-0.0024665908
5	0xbc655fcb	-0.01399989
6	0xbc4a6c75	-0.01235496
7	0x3c107d6b	0.0088189645
8	0xbc40e0f0	-0.011772379
9	0x3c71801b	0.014740015
10	0xbbf342b4	-0.007423723
11	0x3b7c5678	0.0038503688
12	0x3d8642b9	0.06555695
13	0x3b06cc3b	0.0020568508
14	0xbc4d1399	-0.0125168795
15	0xbbaee73d	-0.0053376243
16	0x3bca7556	0.0061785383
17	0x3b314369	0.0027048236
18	0x3b703556	0.0036652884
19	0x3b471e2e	0.0030382979
20	0x3b0ba5ef	0.002130862
21	0x3c718782	0.01474178
22	0x3ba33be2	0.004981504
23	0xbc18acaa	-0.00931851
24	0xbb2842c6	-0.0025674566
25	0x3cbe8d0d	0.023260618
26	0x3db0e731	0.08637846
27	0x3dbd490c	0.09242448
28	0x3d8e4684	0.069470435
29	0x3e58ff9e	0.2119126
30	0xbb3d6fb7	-0.0028905699
31	0xbeefe644	-0.46855366
32	0xbc3e40ca	-0.011612127
33	0x3eab8a71	0.3350406
34	0x3e42c451	0.19020201
35	0x3ef196fb	0.471855
36	0x3de29c68	0.110649884
37	0x3e2f54c8	0.17122185
38	0x3ef1165f	0.4708738
39	0x3d5c5b07	0.053797748
40	0x3ef79f50	0.48363733
41	0x3e4761df	0.19470929
42	0x3ea6c8b0	0.32574987
43	0x3f0ca80f	0.5494394
44	0x3d88fd66	0.06688957
45	0xbf238128	-0.6386895
46	0x3d4b8da2	0.04969562
47	0x3eedeb8d	0.46468773
48	0x3eb17320	0.34658146
49	0x3e264280	0.16236305
50	0x3ef65097	0.4810836
51	0x3b062060	0.0020466074
52	0x3eeedbff	0.4665222
53	0x3e028ee1	0.12749816
54	0x3de89a4c	0.11357555
55	0x3ef27d8b	0.47361407
56	0x3dd77a5e	0.105213866
57	0x3ea6a960	0.32551098
58	0x3eafd2e4	0.34340584
59	0x3ecf26fe	0.40459436
60	0x3ec4be51	0.3842645
61	0x3ea62ceb	0.32456145
62	0xbd22f1cc	-0.039781377
63	0xbd1d9a3e	-0.038477175
64	0x3e054dc6	0.1301795
65	0xbf9c0bf0	-1.2191143
66	0xbe89bf6f	-0.26903865
67	0xbe39af63	-0.18133311
68	0xbeb41d9a	-0.35178834
69	0xbdc43bd9	-0.095817275
70	0xbe33a5ef	-0.17543767
71	0xbed250dd	-0.4107732
72	0x3de0264f	0.10944807
73	0xbea2fc81	-0.3183327
74	0xbe1eee9b	-0.15520708
75	0xbe9faa5b	-0.31184658
76	0xbee6d0be	-0.45081133
77	0x3e9a9117	0.3018882
78	0x3ef8b148	0.48572755
79	0xbdb2bcf1	-0.08727444
80	0x3c5267dc	0.012842145
81	0xbdca2a6f	-0.09871375
82	0xbe1a4f76	-0.15069374
83	0xbecf7043	-0.40515336
84	0xbd7fe712	-0.062476225
85	0xbe2a7c76	-0.1664904
86	0xbd8df26f	-0.06931006
87	0xbdf51707	-0.11967283
88	0xbe8a0bb2	-0.26962048
89	0xbd2817f6	-0.041038476
90	0xbe80a61e	-0.25126737
91	0xbc9aeb04	-0.018910892
92	0x3e474637	0.19460379
93	0xbe326a2a	-0.17423311
94	0xbeedb60e	-0.4642796
95	0xbd2697a2	-0.040671952
96	0xbde48810	-0.11158764
97	0x3cc17dab	0.023619493
98	0x3f4bdaac	0.7963054
99	0xbeaabfe9	-0.3334954
100	0xbe4527bf	-0.19253443
101	0xbeff68d8	-0.49884677
102	0xbddadb91	-0.1068641
103	0xbe4b8d9b	-0.19878237
104	0xbedd8e93	-0.43272838
105	0xbd364bbd	-0.044505823
106	0xbed1ae13	-0.4095312
107	0xbe5010a2	-0.20318845
108	0xbe9fa6a3	-0.3118182
109	0xbf01d7c6	-0.5071987
110	0xbd75d164	-0.060014144
111	0x3f2df9b0	0.6795912
112	0x3c810bae	0.01575264
113	0xbefedb46	-0.49776667
114	0xbeb71ada	-0.35762674
115	0xbe3073f7	-0.17231737
116	0xbecac3c8	-0.39602494
117	0x3cc5de61	0.02415389
118	0xbecb0ab7	-0.39656612
119	0xbdf1f482	-0.11814214
120	0xbddfa4da	-0.10920115
121	0xbefd5b1e	-0.4948358
122	0xbdd4497c	-0.103655785
123	0xbea3f17a	-0.3202017
124	0xbdee8149	-0.11645753
125	0xbdc25aee	-0.0949
126	0xbe069071	-0.13141038
127	0xbe15f862	-0.14645532
128	0xbcc0d68b	-0.023539802
129	0xbd40202f	-0.046905693
130	0x3cd76086	0.026291143
131	0x3f99d249	1.2017299
132	0xbebbf26f	-0.367084
133	0xbe08ce0b	-0.13359849
134	0xbf001b19	-0.5004135
135	0xbd451a43	-0.04812075
136	0xbe2c703b	-0.16839688
137	0xbe828fac	-0.25500238
138	0xbe78067f	-0.24221228
139	0xbd574921	-0.052559976
140	0xbe1ac5a8	-0.15114462
141	0xbe8abbdf	-0.2709646
142	0xbebdf726	-0.37102622
143	0xbead3144	-0.3382665
144	0x3dff5663	0.12467649
145	0x3eeb260c	0.45927465
146	0xbeb197ff	-0.34686276
147	0xbee92556	-0.45536298
148	0xbd8e2032	-0.069397345
149	0xbbf40ee1	-0.0074480628
150	0x3e9bd822	0.30438334
151	0x3e055487	0.13020526
152	0xbd706aea	-0.05869571
153	0xbd769c12	-0.060207434
154	0xbec9bb25	-0.39400592
155	0xbd7274ce	-0.059193425
156	0xbec466d7	-0.3835971
157	0x3e0337c0	0.12814236
158	0x3e0b6bb8	0.1361531
159	0x3e48f216	0.19623598
160	0x3e712601	0.23549654
161	0xbb7ebd87	-0.0038870291
162	0x3de91b07	0.11382108
163	0x3c32fcd1	0.010924534
164	0x3c90b900	0.01766634
165	0x3ea3d279	0.31996515
166	0x3e295521	0.1653638
167	0x3ee9e579	0.45682886
168	0x3de50e74	0.11184397
169	0x3e462da7	0.19353352
170	0x3eed83e3	0.46389684
171	0x3d4b49f8	0.04963109
172	0x3efbe0e5	0.49195018
173	0x3e2f465d	0.17116685
174	0x3e9cf22e	0.30653518
175	0x3f081a71	0.53165346
176	0x3ccb4ae9	0.024815993
177	0xbf1b9553	-0.60774726
178	0x3dc84352	0.09778465
179	0x3eea47ad	0.4575781
180	0x3ea88dce	0.32920688
181	0x3e321c35	0.17393573
182	0x3ef115e2	0.47087008
183	0x3d312ba1	0.0432545
184	0x3effdc70	0.49972868
185	0x3e0ae91b	0.13565485
186	0x3dd96605	0.10615162
187	0x3ef26753	0.47344455
188	0x3e04477b	0.12917893
189	0x3ea12fa9	0.31481674
190	0x3e993416	0.2992255
191	0x3edac65c	0.4272946
192	0x3ec06ce8	0.3758309
193	0x3e9fb41d	0.31192103
194	0xbd1c00e8	-0.0380868
195	0xbbab53f4	-0.005228514
196	0x3e06964e	0.13143274
197	0xbf9733e4	-1.1812711
198	0xbebc127c	-0.36732852
199	0xbe0d3ec9	-0.13793482
200	0xbf174611	-0.5909129
201	0xbd9a0a5e	-0.07521509
202	0xbe4efa28	-0.20212615
203	0xbe8afe02	-0.27146918
204	0xbe38bb36	-0.18040165
205	0xbe570dda	-0.21001378
206	0xbe38053e	-0.1797075
207	0xbeb333e6	-0.35000533
208	0xbee8791f	-0.45404908
209	0xbdb1d629	-0.08683426
210	0x3ec2df9c	0.38061225
211	0x3e356597	0.17714535
212	0xbf0289ea	-0.5099169
213	0xbeda20ad	-0.42603055
214	0xbe055da1	-0.13023998
215	0xbe3ddd4c	-0.1854145
216	0x3e8266e2	0.25469118
217	0xbd880d61	-0.06643177
218	0xbddd1657	-0.107952766
219	0xbded8f6c	-0.11599621
220	0xbf043b15	-0.5165265
221	0xbdcf8e38	-0.10134548
222	0xbebc243d	-0.36746398
223	0x3dc224a4	0.09479645
224	0x3db7eaad	0.08980308
225	0x3d8c6878	0.06855863
226	0x3d963c33	0.07335701
227	0x3ceff68b	0.029292366
228	0x3d379402	0.044818886
229	0x3cc755dd	0.024332935
230	0x3f0a1704	0.5394137
231	0x3d0f6171	0.035005037
232	0xbd6d2417	-0.057895746
233	0x3e4af572	0.19820192
234	0x3ca6bc96	0.020353597
235	0xbe40cb95	-0.1882766
236	0xbe778629	-0.24172272
237	0x3e806eb3	0.25084457
238	0xbe3d800b	-0.18505876
239	0xbd926922	-0.07148959
240	0xbeb4039c	-0.35159004
241	0xbee83d88	-0.45359445
242	0x3e097cf9	0.1342658
243	0x3ec7b7fb	0.39007553
244	0x3e1a0b39	0.15043344
245	0xbc71e2cf	-0.014763548
246	0xbe4e0ecf	-0.20122837
247	0xbe323a92	-0.17405155
248	0xbe9c9aec	-0.30586946
249	0x3e766228	0.24060881
250	0xbe68ba60	-0.22727346
251	0xbda8b8d0	-0.08238375
252	0xbdd14d12	-0.10219778
253	0xbef3e521	-0.4763575
254	0xbdc44211	-0.09582914
255	0xbebfea3d	-0.37483397

bias f4 [64]
0	0x3d7d29eb	0.061807554
1	0x3e90c444	0.2827474
2	0xbcd2811f	-0.025696335
3	0xbd3341db	-0.043763977
4	0x3e29546e	0.16536114
5	0x3e8060e0	0.2507391
6	0x3d3fc4b6	0.046818458
7	0x3d038da7	0.032117512
8	0x3dae7ff1	0.08520497
9	0x3c715063	0.014728638
10	0xbca88913	-0.020573175
11	0x3d5d4fee	0.054031305
12	0x3d2e0d9d	0.04249345
13	0xbd80ad9f	-0.062831156
14	0x3d625afb	0.055262547
15	0x3c68ecb3	0.01421659
16	0x3d15ec23	0.03660215
17	0x3bfa6350	0.0076412335
18	0x3d59dbb2	0.053188033
19	0x3e5a10aa	0.2129542
20	0xbd4a5347	-0.049395826
21	0xbc7dece2	-0.015498372
22	0x3dca4fa5	0.09878472
23	0x3d2ccde3	0.042188536
24	0x3e241f08	0.16027462
25	0xbd2051cf	-0.03914052
26	0xbd6b95f7	-0.057516064
27	0x3bcb72a9	0.006208737
28	0xbd704e2b	-0.058668297
29	0x3cbf0c4f	0.023321299
30	0xbc854c4d	-0.016271735
31	0x3d026280	0.03183222
32	0x3d6fd79f	0.05855524
33	0xbd0fc8a6	-0.035103463
34	0x3d174bde	0.036937587
35	0xbcd86f09	-0.026420133
36	0xbc85c85b	-0.016330888
37	0xbb100643	-0.0021976389
38	0xbc7ef834	-0.015562106
39	0xbc12550d	-0.0089314105
40	0x3d28e844	0.04123713
41	0xbd3b3559	-0.045705173
42	0x3b8c86f8	0.0042885505
43	0x3da9eeeb	0.08297523
44	0xbca11286	-0.019662153
45	0x3aad7423	0.0013233464
46	0x3e59336b	0.2121102
47	0x3e4aed21	0.1981702
48	0xbce93705	-0.028468618
49	0x3da3959d	0.07987521
50	0x3ae5b580	0.0017525405
51	0x3d11d75e	0.03560578
52	0x3cf7ed61	0.030264558
53	0x3e8acc56	0.2710902
54	0x3caf8e7d	0.021430248
55	0x3c9cd2a6	0.019143414
56	0xbc680b3b	-0.014162834
57	0xbd51f870	-0.05126232
58	0xbc4724d2	-0.012154775
59	0x3d219397	0.039447393
60	0x3d56dfd0	0.052459538
61	0x3c0f037a	0.008728856
62	0x3d4ecbfd	0.050487507
63	0x3dbf5260	0.09341884

weight f4 [16, 64]
0	0xbe58081c	-0.21096843
1	0x3e660c30	0.22465587
2	0xbefe83c9	-0.4970992
3	0xbe25c543	-0.1618853
4	0x3e46c524	0.1941114
5	0x3e5d592f	0.21616052
6	0x3da9347e	0.08261965
7	0xbe2eb943	-0.17062859
8	0x3e03d439	0.12873925
9	0x3d81c13c	0.06335685
10	0xbadf339a	-0.0017028928
11	0xbe8aa6ef	-0.27080485
12	0xbe4e2e9c	-0.20134968
13	0xbddc549b	-0.10758325
14	0x3ac06700	0.0014679134
15	0xbe493200	-0.1964798
16	0xbe54d1ca	-0.20783153
17	0xbe8bb6f9	-0.27288035
18	0xbeb2fcaf	-0.34958407
19	0x3e29fc3a	0.16600123
20	0xbdd77f1b	-0.1052229
21	0x3b2460dc	0.0025082147
22	0x3c8d67ae	0.017261352
23	0xbe90c511	-0.2827535
24	0x3e87dbae	0.2653479
25	0xbe1e9402	-0.15486148
26	0xba9f83b7	-0.0012169991
27	0xbb21f85c	-0.0024714684
28	0xbcc9bf04	-0.024627216
29	0x3d8fa881	0.070145614
30	0xbddf55b1	-0.10905016
31	0xbe7ce61a	-0.24697152
32	0xbe2966b5	-0.16543086
33	0xbe1e8cb0	-0.15483356
34	0xbfa7dd30	-1.3114376
35	0xbdd00873	-0.101578616
36	0xbb5eb902	-0.0033984785
37	0xbd2db123	-0.04240526
38	0xbe207023	-0.15667777
39	0xbdd74a3a	-0.105122045
40	0xbce5fb82	-0.02807403
41	0xbdf2a873	-0.118485354
42	0x3c090ede	0.008365361
43	0xbe2ac0c3	-0.16675095
44	0xbe4392fa	-0.19099036
45	0xb9023d47	-0.00012420594
46	0x3e1705e7	0.14748345
47	0x3df7795b	0.120836936
48	0xbe89b44a	-0.26895362
49	0xbf0fb8d1	-0.5614138
50	0x3d719c78	0.05898711
51	0xbe8bb9a4	-0.2729007
52	0xbe9f0840	-0.31060982
53	0x3e53b7e9	0.20675625
54	0x3d6f32b1	0.058397952
55	0xbffea620	-1.9894447
56	0xbc2d709e	-0.010585932
57	0xbd6a8658	-0.057257026
58	0xbc78daad	-0.015188855
59	0xbe927f93	-0.28612956
60	0xbe937ed1	-0.2880769
61	0xbe309614	-0.1724475
62	0xbe84dd7a	-0.25950223
63	0xbe3bca70	-0.18338943
64	0xbe0a8708	-0.13528073
65	0x3eb41d7a	0.3517874
66	0xbe8e77a7	-0.27825662
67	0xbe5a3377	-0.21308695
68	0x3d86137a	0.065466836
69	0x3ea4829b	0.32130894
70	0x3d40f44a	0.047107972
71	0xbe1f5c69	-0.15562595
72	0xbec7a79e	-0.3899507
73	0x3d8bde0f	0.06829464
74	0xbe0779e0	-0.13230085
75	0xbe6b1e3c	-0.22960752
76	0xbe22e7ed	-0.15908785
77	0xbe53fc6f	-0.20701765
78	0xbea29c39	-0.31759813
79	0xbfeaf651	-1.835642
80	0xbe914266	-0.2837097
81	0xbe826c12	-0.25473076
82	0xbeadd81d	-0.33953944
83	0x3e0f1d8b	0.13976113
84	0xbd9b4deb	-0.07583221
85	0x3c2b1497	0.010441921
86	0x3ded81fb	0.115970574
87	0xbe8319e0	-0.2560568
88	0x3e9f621b	0.31129536
89	0xbeb29c4e	-0.34884876
90	0x3ca8a6e8	0.0205874
91	0x3bf26155	0.007396857
92	0xbd214aa7	-0.039377835
93	0x3d9e2fe1	0.07723976
94	0xbe84c9b2	-0.2593513
95	0xbe3b56df	-0.18294857
96	0xbeafbac6	-0.34322184
97	0xbe70200d	-0.23449726
98	0xbf3b5a66	-0.7318481
99	0xbe6c5213	-0.23078184
100	0xbbb5a790	-0.0055436566
101	0xbe8e6548	-0.27811646
102	0xbe46fd91	-0.19432665
103	0xbd803822	-0.062607065
104	0xbf6266d9	-0.88438183
105	0xbe84b68b	-0.2592052
106	0xbbd3ff87	-0.00646967
107	0xbddefdd0	-0.10888255
108	0xbf71f18e	-0.9450921
109	0x3aed9f63	0.0018129166
110	0x3e0d66fb	0.13808815
111	0x3df6af04	0.120451
112	0xbe2e0815	-0.1699527
113	0xbc5829a0	-0.013193518
114	0x3d4f3923	0.0505916
115	0xbe7d816c	-0.24756402
116	0xbe9bc473	-0.30423316
117	0x3e9e41f6	0.309097
118	0x3dca415e	0.09875749
119	0xbf37be92	-0.7177516
120	0x3c110000	0.008850098
121	0xbde2afe3	-0.11068704
122	0x3cae6252	0.021287117
123	0xbeadba72	-0.3393131
124	0xbeb7a93b	-0.358713
125	0xbf239fec	-0.63915896
126	0xbe968a59	-0.29402426
127	0xbe63eef8	-0.22259128
128	0xbc1b1562	-0.009465547
129	0xbc213933	-0.0098402975
130	0x3b8132bb	0.003942815
131	0xbb855969	-0.0040694964
132	0xbbbe4b28	-0.005807299
133	0xbbb5b80e	-0.0055456227
134	0x39a16282	0.00030781707
135	0xbbcf850f	-0.0063330005
136	0xbbc95dd1	-0.006145217
137	0xbbd0d220	-0.006372705
138	0xbc0b5a24	-0.008505378
139	0xbbeb4fa6	-0.0071811257
140	0xbbab7ee1	-0.005233631
141	0x3b7e58fa	0.0038810358
142	0x3bfbaa65	0.0076802247
143	0x3acf82dc	0.0015831846
144	0xbbd598d7	-0.006518464
145	0x3bbb1201	0.0057089333
146	0xbbcdfaeb	-0.0062860153
147	0x3c1dc55b	0.009629573
148	0x3bdb88c0	0.0066996515
149	0xbc11212e	-0.008858008
150	0xbb9cd51b	-0.0047861463
151	0xbbd5a7b2	-0.006520235
152	0x3bd2e4be	0.0064359596
153	0xbade790c	-0.0016973331
154	0xbbc14e17	-0.0058992016
155	0x3b3fa6e7	0.0029243769
156	0xbc18f0bc	-0.009334739
157	0xbc0f6760	-0.008752674
158	0xbc135f6f	-0.008994921
159	0xbc0b3ab0	-0.008497879
160	0xbc130c65	-0.008975123
161	0xbc37d125	-0.011219298
162	0xbbe418b2	-0.0069609517
163	0x3a41d95b	0.0007394754
164	0x3ba79ffa	0.0051155062
165	0x3c23db61	0.0100010345
166	0xb964dbea	-0.00021825699
167	0x3b9f0354	0.0048526917
168	0x3c11b1ea	0.008892516
169	0xbc25b359	-0.010113561
170	0x3bf1a402	0.0073742876
171	0xbbf6b72e	-0.007529161
172	0xbc274fde	-0.010211913
173	0xbb20c6ca	-0.002453255
174	0xbb10c222	-0.0022088368
175	0x3ad43537	0.0016190176
176	0x3ba506cb	0.00503621
177	0x3bf2b237	0.007406499
178	0x3adef2b2	0.0017009585
179	0x3bfba25b	0.0076792664
180	0xbbbfc419	-0.005852234
181	0xbc260e1c	-0.0101352
182	0xbbdb1213	-0.006685504
183	0x3b2d3c86	0.002643378
184	0xbbea5c1d	-0.007152094
185	0xb9fb4a43	-0.0004792978
186	0xbb4cdf21	-0.0031260925
187	0xbb9f237c	-0.004856525
188	0xbc423801	-0.011854173
189	0x3ba0df21	0.0049094115
190	0xb8c2f325	-9.29593e-05
191	0x3b7ec4d6	0.0038874648
192	0x3f0b91c6	0.5451931
193	0xbe8c3801	-0.27386478
194	0x3f31f90f	0.6952066
195	0x3f1f771f	0.6229114
196	0x3e10bb18	0.1413387
197	0xbe7a42b5	-0.24439509
198	0x3e543eda	0.20727101
199	0x3ed19ab6	0.40938348
200	0xbc434225	-0.011917626
201	0x3e5efb48	0.21775544
202	0x3f128198	0.57228994
203	0x3f1cbd9a	0.6122681
204	0x3f040216	0.5156568
205	0x3f1bfa5e	0.60928905
206	0x3ece1d16	0.40256566
207	0x3ccbceda	0.024878908
208	0x3f253615	0.6453565
209	0x3f02ee4c	0.5114486
210	0x3f169e39	0.5883518
211	0x3e08fdca	0.13378063
212	0x3f082ced	0.5319355
213	0xbacb6cf5	-0.0015520143
214	0x3e493389	0.19648565
215	0x3f32d497	0.69855636
216	0x3d771e58	0.060331672
217	0x3f26053e	0.6485175
218	0x3ee8f6f3	0.45500907
219	0x3a8b3c63	0.0010622855
220	0x3f06c52e	0.5264462
221	0x3e8d8d7e	0.27647012
222	0x3f21563b	0.630222
223	0x3f154a50	0.58316517
224	0x3f03d850	0.5150194
225	0x3f1d17b6	0.61364305
226	0x3e7b8aa3	0.24564604
227	0x3f211e17	0.6293654
228	0xbb78e54f	-0.0037978475
229	0x3f233ef5	0.6376794
230	0x3f17d0a5	0.5930274
231	0x3ef7c6ee	0.4839396
232	0x3e22547b	0.15852539
233	0x3f26834e	0.65044105
234	0x3ba3bc61	0.0049968217
235	0x3f1d8609	0.61532646
236	0x3e46f9ef	0.1943128
237	0x3c1ef6a8	0.009702362
238	0x3e27b6e2	0.16378358
239	0x3e4fd76a	0.20297018
240	0x3f2ab09d	0.6667574
241	0x3c45053d	0.012025175
242	0x3e55239e	0.20814368
243	0x3f01ac03	0.50653094
244	0x3f2760f3	0.6538231
245	0xbe332b22	-0.17496923
246	0x3e80850c	0.25101507
247	0x3e6a9dde	0.22911784
248	0xbc0a6915	-0.008447905
249	0x3f14fb92	0.58196366
250	0x3ecbdf2e	0.3981871
251	0x3f3a068d	0.72666246
252	0x3f3a43f3	0.7275993
253	0xbd04a99e	-0.032388322
254	0x3f1bdba6	0.6088203
255	0x3f3e51a8	0.7434335

bias f4 [16]
0	0x3e56c95d	0.20975251
1	0x3e8ee850	0.27911615
2	0xbbe298fc	-0.00691521
3	0xbda372d3	-0.07980885
4	0x3b89a0d0	0.0042000785
5	0xbc8579f8	-0.01629351
6	0xbda9764e	-0.08274518
7	0x3c8485b9	0.016177045
8	0xbb295c96	-0.002584254
9	0xbd75d8b5	-0.06002112
10	0xbbe1bf39	-0.0068892506
11	0xbddaf0d7	-0.10690468
12	0xbd8ac78d	-0.067763425
13	0x3e8e90bf	0.27844808
14	0xbdbac21c	-0.09119055
15	0xbdc83d87	-0.097773604

weight f4 [4, 16]
0	0x3ebc95ad	0.36832944
1	0x3ebe3609	0.371506
2	0xbc7ef1a8	-0.015560545
3	0xbdbb8ecd	-0.091580965
4	0x3b3d4a28	0.0028883312
5	0xbb25bbe1	-0.0025288987
6	0xbdd4b946	-0.103869006
7	0xbd43f913	-0.047844958
8	0x3bf28a82	0.0074017653
9	0xbdbcbba2	-0.092154756
10	0x3a89bc98	0.0010508476
11	0xbda7687c	-0.08174226
12	0xbd8309ff	-0.06398391
13	0x3f2a5d3b	0.6654851
14	0xbdb53f8b	-0.088500105
15	0xbdba95e8	-0.091106236
16	0x3eb60942	0.35553938
17	0x3f39a4ac	0.72516894
18	0xba41bf81	-0.0007390902
19	0xbdbd4150	-0.09240973
20	0xbc399d18	-0.011328958
21	0xbb96c982	-0.0046016583
22	0xbda1798d	-0.07884512
23	0xbe182acc	-0.14860076
24	0x3c9f946f	0.019479958
25	0xbda87f23	-0.082273744
26	0x3b751e1c	0.003740198
27	0xbdae7f33	-0.08520355
28	0xbdbd35ef	-0.09238803
29	0x3eabd8d2	0.33563858
30	0xbd9e7f3c	-0.07739112
31	0xbd535658	-0.051596016
32	0x3f03cc54	0.51483655
33	0x3f0097cb	0.5023162
34	0xbbfaa8a9	-0.0076495004
35	0xbdd83552	-0.10557045
36	0x3c717e45	0.014739578
37	0x3c1bc1f3	0.00950669
38	0xbdc1c9c0	-0.09462309
39	0x3d08268b	0.033239882
40	0x3c9c5194	0.019081868
41	0xbdb73d44	-0.08947232
42	0x38928c52	6.987959e-05
43	0xbda3d8a0	-0.08000302
44	0xbdbac15e	-0.09118913
45	0x3edfc077	0.43701527
46	0xbdaad0e6	-0.083406255
47	0xbdaf672e	-0.08564602
48	0x3e1845d6	0.1487039
49	0x3f1d691b	0.61488503
50	0x3bb710ff	0.005586743
51	0xbd88e945	-0.06685118
52	0xbb71194b	-0.0036788757
53	0xbc9bdeb6	-0.019027095
54	0xbd99401e	-0.074829325
55	0xbdbef95a	-0.09324904
56	0xbc22d887	-0.009939319
57	0xbde31c7b	-0.110894166
58	0x3c8a415c	0.016876869
59	0xbdbc3c09	-0.09191138
60	0xbd951954	-0.072802216
61	0x3f141deb	0.5785815
62	0xbdb7bf74	-0.08972064
63	0xbd72e357	-0.05929884

bias f4 [4]
0	0x3d47178f	0.04860645
1	0x3e1b0ded	0.15142031
2	0x3bfeed9b	0.0077797896
3	0x3e623f39	0.2209443
