data/177600.pth (torch, 40471 bytes, 6 tensors)

weight f4 [64, 33]
000000 9f cf f8 3c a4 7e d7 3c 7c 0f a2 3d 0b 24 95 3c
       0.030372439 0.026305504 0.0791311 0.018205663
000010 e1 ef 44 3d 59 95 f5 3c f5 2d 9d 3d 96 05 25 3c
       0.04808033 0.029978441 0.07674781 0.010072133
000020 bc 8c 21 bc a3 c7 d6 3d 1f be 19 3d 23 27 e8 3b
       -0.009860214 0.104872964 0.03753483 0.0070847436
000030 aa ee ca 3c 14 da 2a 3d ae 7a ae bc 8a 86 28 bd
       0.024772007 0.04171188 -0.021298733 -0.04114393
000040 68 bd 27 3d b6 97 48 3d 86 a7 be 3d 12 96 43 3c
       0.040952116 0.048972808 0.09309296 0.011937635
000050 21 e7 a6 bb ca fe cc ba 8b af 8f 3d c6 f4 6e 3c
       -0.0050934707 -0.0015639898 0.07015904 0.014584726
000060 9d 36 df 3c 61 97 c1 be e5 83 1f bf b5 fe b2 be
       0.027247721 -0.37810805 -0.6231063 -0.3495995
000070 5a c1 1f bd 91 d5 37 3c e8 8c 48 3d 6a 34 be 3d
       -0.039002754 0.011220352 0.048962504 0.09287341
000080 1b 02 0f 3d da 67 d7 36 de 25 cf 34 74 64 88 36
       0.034914117 6.419589e-06 3.8584307e-07 4.06481e-06
000090 e7 7d 7b 35 11 36 34 b6 f6 03 be 35 ad 1a bb 36
       9.3688e-07 -2.685356e-06 1.4157256e-06 5.5761398e-06
0000a0 61 b0 b7 36 b2 ec 97 36 5d 95 79 b6 36 36 ab b6
       5.474358e-06 4.5277056e-06 -3.7190832e-06 -5.102508e-06
0000b0 81 bd 44 36 bc 11 d9 b6 09 7a c6 36 b6 f0 c6 b5
       2.9316582e-06 -6.4691685e-06 5.9150666e-06 -1.4822206e-06
0000c0 c2 6d 8d 36 8a 0c 3f b5 27 07 4b b5 36 8f 0f 36
       4.214905e-06 -7.117129e-07 -7.56338e-07 2.139202e-06
0000d0 f5 75 3c 36 2d 5d 70 36 53 c9 87 35 f6 7a 01 b4
       2.8082843e-06 3.5817022e-06 1.0116877e-06 -1.2058794e-07
0000e0 b1 f9 ce 36 74 67 80 36 2c d5 e5 b7 e4 c3 6b b6
       6.1683463e-06 3.826741e-06 -2.7398193e-05 -3.5131752e-06
0000f0 60 ed 16 b8 b1 bf 5a b8 6e 8e 88 b6 dd e2 5e b7
       -3.598386e-05 -5.2153777e-05 -4.069697e-06 -1.3285052e-05
000100 91 80 e3 35 9e 5c cd b6 d6 a2 07 26 80 06 e0 a3
       1.6950236e-06 -6.120258e-06 4.705822e-16 -2.4288882e-17
000110 ae e0 0a 25 de db 8c a5 8e 69 31 25 ca 8e 9d a5
       1.2045716e-16 -2.4435116e-16 1.5388066e-16 -2.7331916e-16
000120 71 89 c0 25 9c 66 87 a5 26 4c 17 26 6c 32 2c ac
       3.3399825e-16 -2.3488298e-16 5.249185e-16 -2.447066e-12
000130 d8 3d 2c ac ed 24 e4 25 cd a4 2c ac e2 88 2c ac
       -2.4477e-12 3.9576717e-16 -2.4534153e-12 -2.4518655e-12
000140 97 8b 2c ac 96 7f 2c ac e8 43 2c ac 73 b1 b3 25
       -2.4520158e-12 -2.4513495e-12 -2.4480366e-12 3.1171794e-16
000150 ab 5d 3d 26 0c a5 32 24 d2 ce 09 25 d4 5d 2c ac
       6.569949e-16 3.8737397e-17 1.1952929e-16 -2.4494755e-12
000160 c1 61 2c ac 36 68 2c ac 4d 94 df 25 fa ab 2a ac
       -2.4496934e-12 -2.4500519e-12 3.8784826e-16 -2.425392e-12
000170 84 e7 2b ac 3b 8d 2b ac 8e d5 27 ac ac 33 2a 2c
       -2.4429079e-12 -2.437896e-12 -2.3850674e-12 2.4187137e-12
000180 d8 84 2b ac 93 00 2d ac c9 97 2c ac da f3 e8 a2
       -2.4374305e-12 -2.4585097e-12 -2.4526928e-12 -6.3141914e-18
000190 d9 73 e3 a2 6d aa a4 a2 04 ea 3c a2 e9 f3 e2 a2
       -6.165113e-18 -4.4632734e-18 -2.5602638e-18 -6.1515673e-18
0001a0 25 72 f9 a2 c5 db da a2 4d b4 3c a0 4c 7a 06 a2
       -6.761244e-18 -5.932171e-18 -1.5983876e-19 -1.822513e-18
0001b0 4d 4f fc a2 a2 79 b9 a2 db 85 ac 9f 66 51 b7 22
       -6.83887e-18 -5.0273134e-18 -7.306628e-20 4.9688433e-18
0001c0 97 67 07 20 64 83 45 a2 26 0c c4 a2 bb 4a 37 a2
       1.146922e-19 -2.6768036e-18 -5.313877e-18 -2.4840687e-18
0001d0 e6 0a cd a1 49 18 ca a1 4a 03 e5 a1 ab ec 3d a1
       -1.3894225e-18 -1.3694481e-18 -1.5518514e-18 -6.434892e-19
0001e0 14 3e 54 a2 bd c2 60 a0 6e 00 d9 a1 dc 77 84 a2
       -2.8764221e-18 -1.9037972e-19 -1.4704606e-18 -3.5905578e-18
0001f0 d0 f5 8b a3 42 27 28 a3 64 bc 3a a3 1d d2 64 a3
       -1.5174516e-17 -9.1156114e-18 -1.01229735e-17 -1.2404398e-17
000200 f5 16 37 21 f5 9c 1d a2 41 24 e7 a1 7c b6 69 23
       6.2033195e-19 -2.136056e-18 -1.5662765e-18 1.2669598e-17
000210 3d d1 9a bc 5b 53 a3 3b fe a6 82 3c 09 25 04 3c
       -0.0188986 0.004984302 0.015948769 0.0080654705
000220 b0 ae 03 3d 6d e1 9a 3c 2b 1e 50 3d fe ba 84 3c
       0.032149017 0.01890632 0.05081002 0.016202446
000230 b6 ad 09 3d 9b 9c 0f 3d e5 13 c7 3c cc b6 74 3d
       0.03361293 0.03506146 0.024301479 0.05974464
000240 14 bd b8 bd 99 71 3c 3d 9a bb 5f 3c 84 c3 e4 3c
       -0.09020439 0.046006773 0.013655568 0.02792526
000250 4b a7 d3 3c b2 d4 ef 3c 50 7c 6e 3d 6c 2d de 3c
       0.025836607 0.029276226 0.058224022 0.027121268
000260 0f 01 b9 3c b4 7c b5 3b f1 05 53 3d f1 98 f7 3c
       0.022583513 0.0055385474 0.051519338 0.030224295
000270 bc 55 07 3c f9 0f db be 56 68 c9 be 9e 8f d1 be
       0.008260187 -0.42785624 -0.39337415 -0.40929884
000280 e2 df c3 be 61 3b 98 3b 45 aa e0 bd e8 48 08 3e
       -0.38256747 0.0046457504 -0.10969976 0.13309062
000290 49 4d 8d bd 69 17 44 3c ed 3b 60 3c c3 e4 47 3d
       -0.068995066 0.011968472 0.013686162 0.04880215
0002a0 7a a7 fd 3c 9f 02 57 3d 2c b3 44 3d 95 6b 6d 3d
       0.030963648 0.052492734 0.048022434 0.057963926
0002b0 7b 00 98 3c 11 0e 68 3d 01 74 46 3c c4 25 b5 3c
       0.018554917 0.05665404 0.012112618 0.022112735
0002c0 e4 fb b9 3d f7 af 24 bd 34 40 69 3d 79 7d 9b 3c
       0.090812474 -0.040206876 0.056945994 0.018980728
0002d0 61 1a 58 3d 44 ae e0 3c cd eb 69 3d b8 b3 bb 3d
       0.052759532 0.027426846 0.057109643 0.09165138
0002e0 67 9d 96 3c 33 37 22 3d 4e bd f8 3c 5b b0 64 3d
       0.018385602 0.039603423 0.030363705 0.05583225
0002f0 5a a2 76 3c cb 0d 8a 3c 95 e5 d0 be 5e 55 6c be
       0.015053356 0.01685228 -0.40800157 -0.2307944
000300 5a fe cc be 68 c5 ef be 63 89 ae bc 9f df 97 3d
       -0.40037805 -0.46830297 -0.021305745 0.07415699
000310 7f 6a 02 3e 27 82 93 bc 47 50 fc 3d 52 72 46 3d
       0.12735938 -0.018006397 0.12319999 0.048448868
000320 c1 c8 ef 3d 63 18 ab 3b 4a 4d 94 3d d3 6f be 3b
       0.11708213 0.005221413 0.07241304 0.0058116703
000330 c0 3a 8f 3d 0f 3e c3 3c 3d a6 af 3d 06 37 9f 3d
       0.069936275 0.023833303 0.08576629 0.07774167
000340 8b d1 b9 3d d1 62 ad 3d 0d c3 1b 3e 51 49 88 3d
       0.0907317 0.08466113 0.15211125 0.06654609
000350 bd 83 95 3d 39 e0 c9 3c f7 08 db 3d 63 96 18 3d
       0.07300518 0.02464305 0.10695069 0.037252795
000360 64 89 44 3e 7b ba 28 3d d9 43 cb 3d ee c9 22 3d
       0.19193035 0.041193467 0.0992505 0.039743356
000370 8c ad 12 3e 2e 87 96 3d db 19 25 3e 80 8a b3 be
       0.14324015 0.07350002 0.16123144 -0.35066605
000380 d7 b9 81 be 43 57 82 be 52 31 7e be 92 03 65 bd
       -0.25337097 -0.254572 -0.24823502 -0.055911608
000390 7c 0d a8 bb 43 aa 93 3d 0a 5d 36 3e 5a 04 9c 21
       -0.0051285606 0.07210209 0.17808929 1.0572123e-18
0003a0 de fd 76 a2 af 07 40 a1 ff 79 5b 21 cf 2b fa a2
       -3.3473613e-18 -6.50623e-19 7.4361547e-19 -6.780902e-18
0003b0 9c a3 af a1 7c 60 c6 21 91 f2 48 a1 07 b9 6c 22
       -1.1901768e-18 1.3442541e-18 -6.808367e-19 3.2081917e-18
0003c0 88 e0 43 a3 8a 6d 8f a1 67 22 c0 20 c9 e8 60 20
       -1.06185175e-17 -9.719052e-19 3.254883e-19 1.905056e-19
0003d0 60 d5 fb a1 57 c1 c7 21 98 4e 5f a2 34 f8 ea a2
       -1.7064901e-18 1.3535941e-18 -3.0263743e-18 -6.3688622e-18
0003e0 31 1e 39 a2 c7 be a4 20 5d d4 b5 21 ff 29 7b 21
       -2.5088158e-18 2.7908927e-19 1.2321249e-18 8.509769e-19
0003f0 ce 7d 27 a2 b1 58 1b 21 2e e9 10 a1 96 01 8b a2
       -2.269932e-18 5.2633425e-19 -4.909771e-19 -3.7677705e-18

bias f4 [64]
000000 67 47 17 be f4 43 71 b7 f7 e1 1c ac ae 37 1d a3
       -0.14773332 -1.4380541e-05 -2.229437e-12 -8.522778e-18
000010 4d bc 8f be 18 45 66 be 5e 0a f0 bd 69 01 27 a3
       -0.2807335 -0.22487295 -0.117207274 -9.053387e-18
000020 56 72 db bd 17 76 7b 3e bd 01 e1 a2 ed 92 24 b9
       -0.10715167 0.24556766 -6.0988213e-18 -0.00015694993
000030 5e 5a 8b bc e5 22 fc a3 81 b6 b5 3e 66 25 d4 bd
       -0.017010864 -2.7336673e-17 0.35490802 -0.10358696
000040 02 2c d9 b2 93 ec f6 3d 64 a4 94 b3 af 37 62 3e
       -2.5282137e-08 0.12056842 -6.9216895e-08 0.22091554
000050 ee f8 90 a2 60 f0 05 a2 82 83 a6 3c e8 8f 28 bd
       -3.9294843e-18 -1.8152115e-18 0.02032638 -0.041152865
000060 84 18 40 3e 54 08 18 a9 a0 d0 a9 a3 a3 b4 8a a2
       0.18759352 -3.3758003e-14 -1.8411373e-17 -3.759623e-18
000070 23 2e fd a3 63 92 3e ac 19 48 be a5 a8 7e 92 ba
       -2.7449855e-17 -2.7081885e-12 -3.30086e-16 -0.0011176663
000080 e1 b1 83 ba 79 d0 4b a5 6d 24 a2 bd 9e c9 5d a3
       -0.0010047519 -1.7678077e-16 -0.07917104 -1.2023128e-17
000090 1a 6c 5c 3e e8 6e 03 a5 04 4a 01 a3 c9 a8 df a2
       0.21525612 -1.1400015e-16 -7.0087774e-18 -6.062298e-18
0000a0 5d 9b 05 bd 46 23 94 a5 a8 ff 37 9f e9 a1 b9 b5
       -0.03261887 -2.569781e-16 -3.896323e-20 -1.3830696e-06
0000b0 a4 7a c4 bc f5 58 31 9f 77 14 2e 3e 2b dc 11 3e
       -0.02398426 -3.755479e-20 0.16999994 0.14244144
0000c0 a5 ed 01 b3 20 40 14 3c 98 24 0c ad ab 3b 0f b9
       -3.025129e-08 0.009048492 -7.966204e-12 -0.00013659771
0000d0 bd 79 06 3e 31 e3 9d 3e 34 4a 00 3e b4 c0 87 bc
       0.13132377 0.30837396 0.12528306 -0.01657138
0000e0 be 78 8b 9f 96 c4 cc a5 e8 b3 ed a3 23 5c 83 af
       -5.906854e-20 -3.552157e-16 -2.5771785e-17 -2.3894228e-10
0000f0 e1 a3 78 a8 6f 92 f0 bd 48 9c 8c b6 5e b6 82 ac
       -1.3802301e-14 -0.1174668 -4.1905187e-06 -3.715069e-12

weight f4 [16, 64]
000000 69 da 48 be aa 49 77 b7 04 22 f7 a7 9a 5c ae a0
       -0.19614567 -1.47394985e-05 -6.859315e-15 -2.9538025e-19
000010 1b 9f 8e bf 99 fc ce be e4 c6 b4 3d 20 5c cd a2
       -1.1142305 -0.40427092 0.08826998 -5.5662902e-18
000020 d5 fc 08 bf 99 0f 49 3e 85 5d a7 22 27 d1 00 ba
       -0.5351079 0.19634856 4.536446e-18 -0.00049139786
000030 44 50 80 bd 87 3c 4c a3 16 0c 5b bf 78 f4 23 bf
       -0.062653095 -1.1071679e-17 -0.85565317 -0.64044905
000040 19 6f 53 b2 f4 bf 80 3e 82 c3 a4 b3 60 84 09 3e
       -1.2307077e-08 0.2514645 -7.672408e-08 0.13429403
000050 78 c3 10 a2 3f 6e 00 a2 09 24 83 be aa 5d ae bd
       -1.961912e-18 -1.7405599e-18 -0.2561343 -0.08513959
000060 cf 24 23 3e 07 2c 16 aa 7d 4d fd a2 b8 70 d0 a1
       0.1593201 -1.3337951e-13 -6.865783e-18 -1.4124465e-18
000070 eb 5c ee a3 ee 1b 59 ad 74 c1 3c a5 d7 f7 37 b4
       -2.5843364e-17 -1.23412235e-11 -1.6371945e-16 -1.7133367e-07
000080 da e0 b9 ba 70 47 90 a5 93 f4 30 bf 85 f3 e6 22
       -0.0014181391 -2.5028426e-16 -0.6912319 6.259946e-18
000090 03 7a 35 3e 19 b6 c5 a5 61 4b 05 a2 66 69 3e a2
       0.17722325 -3.4297447e-16 -1.8064766e-18 -2.58056e-18
0000a0 27 44 de be f9 c9 9e a5 a7 c3 24 1f 61 f9 b2 b6
       -0.4341137 -2.7545493e-16 3.489019e-20 -5.333845e-06
0000b0 4e 04 c9 be 1b b8 41 1e f6 88 99 3e e7 0f a4 bd
       -0.39261097 1.0255407e-20 0.29987305 -0.08010846
0000c0 43 f1 ea b3 53 3f ac be eb ff da a4 eb c3 f1 35
       -1.09403594e-07 -0.33642063 -9.497597e-17 1.8012919e-06
0000d0 af 96 e4 bc 5b 51 0f bf 90 66 73 3e 9c e9 c9 bf
       -0.027903883 -0.55983514 0.23769593 -1.5774417
0000e0 be 7e 50 9f 44 f3 b3 a6 32 38 6f a3 fe 46 12 af
       -4.4150552e-20 -1.2486557e-15 -1.2968116e-17 -1.3303844e-10
0000f0 72 d5 8f a8 8d fe f8 be 77 53 af b6 83 a4 0b 2c
       -1.5968756e-14 -0.48631707 -5.225123e-06 1.984441e-12
000100 5b 6e 8d be b7 72 2b b7 32 a9 ad a7 d1 a3 ba a2
       -0.27623257 -1.0219103e-05 -4.8200588e-15 -5.058885e-18
000110 3a e9 5f bf cb 2a 92 be 14 3d f6 3b ca 34 34 a3
       -0.8746525 -0.28548273 0.0075146053 -9.768998e-18
000120 83 27 0e bf f4 22 47 3e 6d 6d 23 a2 42 c5 d2 b9
       -0.5552904 0.19446927 -2.2148549e-18 -0.0004020129
000130 59 aa 39 bd cb 9c b1 a3 55 e7 65 bf f3 e0 96 bf
       -0.04532847 -1.9256783e-17 -0.8980611 -1.1787399
000140 80 26 91 b2 84 21 65 3e 8d 6e 7b b3 c5 2e 58 3e
       -1.689773e-08 0.22376066 -5.8541037e-08 0.21111591
000150 0d 92 db a1 35 f9 fb a1 4b 70 0a be 55 df 87 bd
       -1.4878677e-18 -1.7074386e-18 -0.13519399 -0.06634394
000160 17 5b 2a 3e 48 d3 e5 a9 d9 32 21 a3 bc 60 a6 a1
       0.1663631 -1.02062944e-13 -8.738595e-18 -1.1274203e-18
000170 97 8d 12 a4 8d 86 23 ad 37 b0 52 a5 e2 96 0e b4
       -3.1778635e-17 -9.2953535e-12 -1.82743e-16 -1.3279671e-07
000180 0e 79 b9 ba 70 fd ae a5 a5 35 8d bf 2e d3 18 21
       -0.0014150457 -3.0355924e-16 -1.1031996 5.1779097e-19
000190 21 a3 37 3e 45 64 c2 a5 97 be 04 a2 c3 ac 2e 21
       0.17933322 -3.372158e-16 -1.7990233e-18 5.918214e-19
0001a0 82 ee 89 bf 9d d5 b6 a5 bc dc fe 9e 13 9f 98 b6
       -1.0775912 -3.1716717e-16 -2.698459e-20 -4.5484717e-06
0001b0 ca 32 8b bf a2 d4 0e 1e 73 f7 d3 3c 9d fd 2e 3e
       -1.0874875 7.561389e-21 0.025874829 0.17088933
0001c0 47 99 cd b3 b3 01 83 be d9 68 fb a2 ae 82 fd 35
       -9.5739374e-08 -0.25587234 -6.81447e-18 1.8888002e-06
0001d0 25 1f b7 be 71 15 10 bf 78 1e 85 3e 73 da 0c bf
       -0.3576595 -0.56282717 0.25999808 -0.5502083
0001e0 a7 51 2e 1f ba d4 98 a6 94 67 67 a3 b9 2f 4a af
       3.6913474e-20 -1.0604778e-15 -1.2544469e-17 -1.8388747e-10
0001f0 34 67 78 a8 4a a7 00 bf e4 24 64 b6 f5 39 a9 ad
       -1.3789144e-14 -0.5025526 -3.399612e-06 -1.9238814e-11
000200 2b 85 9a a0 1a be 0d a1 f5 2f 5f a1 9a e9 a8 9f
       -2.6176738e-19 -4.8024256e-19 -7.561881e-19 -7.153723e-20
000210 5f 33 5c a1 78 c8 09 a1 2b a8 42 a1 cd 39 fb a0
       -7.460689e-19 -4.6682724e-19 -6.5952325e-19 -4.2559303e-19
000220 e7 92 b1 1f 04 ee d0 1d e1 dc d0 9f e1 22 8a a0
       7.5205445e-20 5.5303244e-21 -8.845684e-20 -2.340119e-19
000230 a6 21 cf a0 a3 63 70 9f c9 62 4b 9f 8d 9d a4 a0
       -3.508943e-19 -5.0904394e-20 -4.3068635e-20 -2.788694e-19
000240 5d 4f 31 a0 ce 6d 87 a0 7b 36 a1 a0 c2 60 fc a0
       -1.5018742e-19 -2.2942552e-19 -2.7310513e-19 -4.275449e-19
000250 ab 86 3f 20 f4 79 2e 9f 24 be 5f 20 e5 cd af a0
       1.6222887e-19 -3.694681e-20 1.8951747e-19 -2.9782403e-19
000260 76 8f 0b 9f ff 3b 54 20 b2 80 0d 9f 7a 68 66 1e
       -2.9553063e-20 1.797695e-19 -2.9964366e-20 1.2197704e-20
000270 91 5a 79 20 44 5a fe a0 9c bd 3c a0 c1 c4 c8 a0
       2.1121086e-19 -4.3089007e-19 -1.5986956e-19 -3.4011519e-19
000280 b6 57 c1 1f ac 59 0d a0 ed 30 87 a0 0f be 0b a0
       8.1883785e-20 -1.1972834e-19 -2.2902266e-19 -1.1836643e-19
000290 bb 2d e6 a0 22 55 95 9f dc 6b 81 9f 54 88 7e 1f
       -3.8993777e-19 -6.3244795e-20 -5.4812063e-20 5.389936e-20
0002a0 7c 6f 25 1d a4 c9 a6 9f f4 3a 11 1f a0 2e cb 1f
       2.1895204e-21 -7.063732e-20 3.075371e-20 8.605098e-20
0002b0 82 a6 52 20 39 49 41 9e a9 3b 16 a1 e0 44 19 a1
       1.7842785e-19 -1.0232477e-20 -5.0900936e-19 -5.192957e-19
0002c0 a6 4f 0c a0 c1 63 a0 20 ee 1a 1a 1f ce 56 6c a0
       -1.1884815e-19 2.7171066e-19 3.2633044e-20 -2.0018699e-19
0002d0 9e 0a 3a a0 5a ae 0d a1 b2 18 c0 a0 c1 bc b7 20
       -1.5758326e-19 -4.800341e-19 -3.2542407e-19 3.1126313e-19
0002e0 38 d8 0c 9f 16 c7 98 a0 5c dd 50 1f 64 eb bd 1f
       -2.9825005e-20 -2.5881546e-19 4.4228817e-20 8.0434035e-20
0002f0 2e 5c cb 9f ff 8d 9d 9f 6d 3a 3d 1f a9 de c3 a0
       -8.612634e-20 -6.6727e-20 4.0070635e-20 -3.318163e-19
000300 01 7a ee 3e d6 c0 8e 37 20 80 19 ac c8 d2 0f 23
       0.46577457 1.7017515e-05 -2.1813731e-12 7.79668e-18
000310 17 8b 7e 3f d5 a4 99 3e a2 e2 56 3e b5 4a 09 23
       0.99430984 0.3000857 0.20984891 7.442605e-18
000320 c4 4e a7 bc a7 4a 36 3d 9e 08 2a 21 5d 68 04 3a
       -0.0204233 0.044504788 5.7609645e-19 0.0005050952
000330 43 22 52 3d 12 69 81 23 b0 dd 3c 3f 2f 61 6b bd
       0.051302206 1.4030707e-17 0.7377577 -0.05746573
000340 08 31 06 33 1c 62 38 3c 5a ad 98 33 17 ec 94 bc
       3.12439e-08 0.01125386 7.109584e-08 -0.018178983
000350 c1 48 88 22 ba b1 00 22 33 12 67 3e 69 22 80 3d
       3.6939905e-18 1.7441322e-18 0.22565536 0.06256563
000360 15 21 8b 3d 7a 63 9f 29 bd bb 92 23 9f 5a 8b 22
       0.06793419 7.078275e-14 1.5908862e-17 3.7771974e-18
000370 1e 88 19 24 16 d1 08 2d d5 16 aa 23 a8 35 4b ba
       3.3291882e-17 7.777131e-12 1.8441107e-17 -0.0007751831
000380 ec c7 89 ba a9 f8 40 24 c9 e6 1b 3b cd d5 de 22
       -0.0010511852 4.1843987e-17 0.0023788682 6.039959e-18
000390 41 34 6d 3d f5 c2 a0 25 cd 53 e9 22 aa 31 04 23
       0.05791116 2.7887684e-16 6.3243504e-18 7.166251e-18
0003a0 bd 94 b1 3c e6 b2 ab a4 3f 0b a9 1f 09 5f 97 36
       0.02167737 -7.4462494e-17 7.159289e-20 4.5112142e-06
0003b0 40 09 a4 3c 7c 16 ac 1d 7b bd bb be f3 a9 1d 3e
       0.020023942 4.555127e-21 -0.36668 0.15396862
0003c0 aa da 65 33 38 8d 41 bd 84 20 0a ad 7c 0d 83 b5
       5.351709e-08 -0.047253817 -7.851612e-12 -9.764185e-07
0003d0 3f 56 cf 3d 0d 61 ef 3e 28 f6 47 bd 4b 27 c0 3f
       0.10123872 0.4675373 -0.048818737 1.5011991
0003e0 fc 5d 26 9f 53 16 67 26 81 91 c7 23 d9 db 0a 30
       -3.522961e-20 8.017448e-16 2.1637247e-17 5.051653e-10
0003f0 01 68 e4 27 08 72 59 bc c2 16 15 37 a4 18 fe 2d
       6.3395474e-15 -0.013271816 8.886391e-06 2.88874e-11

bias f4 [16]
000000 6a 89 b5 3e bb d0 af 3e b4 f5 1c a1 c7 d7 e1 3c
       0.354564 0.34338936 -5.318004e-19 0.027568711
000010 23 f6 be a2 f0 e2 63 a5 d8 91 4e 3d 76 53 05 bd
       -5.176021e-18 -1.9766001e-16 0.050432056 -0.032550298
000020 54 e2 15 3f 88 d7 3c 3d 76 7a a8 aa d3 fb bf ba
       0.58548474 0.046103984 -2.992777e-13 -0.0014647193
000030 a6 32 8f 3d d0 1f b2 3e 69 07 99 3d d7 27 86 bc
       0.06992082 0.34789896 0.074721165 -0.016376419

weight f4 [4, 16]
000000 30 3c 0e 3f 02 b8 15 3f 8f c8 47 9f c4 59 88 be
       0.5556059 0.584839 -4.2305787e-20 -0.26630986
000010 7a 55 f7 a3 2b 3f 47 9e 73 e4 ae be aa b5 c5 be
       -2.6815994e-17 -1.0548035e-20 -0.34158668 -0.3861516
000020 c9 24 87 3e 2e 20 90 3e 48 52 9c 2a ad e0 ec bd
       0.26395252 0.2814955 2.776826e-13 -0.11566291
000030 54 0e 37 3d 7c 66 04 3f 8b 05 9e 3e d3 64 b1 bf
       0.0446914 0.5171888 0.30863604 -1.3858894
000040 11 32 0f 3f 8f 59 13 3f 18 11 15 20 58 b9 ce be
       0.5593577 0.5755853 1.2626447e-19 -0.4037578
000050 e9 20 5f 9f 5d 46 b5 9e c2 57 81 3d 1f 2b c5 be
       -4.724931e-20 -1.9193222e-20 0.063155666 -0.3850946
000060 d7 d2 80 3e 5b 69 8f 3e c0 2c 98 2a 65 27 a6 bf
       0.25160858 0.28010067 2.7031676e-13 -1.2980772
000070 da 3b 88 be ae b2 0d 3f 14 dc 8f 3e e7 0e 9e bd
       -0.26608163 0.5535077 0.28097594 -0.07717686
000080 0f cc 10 3f d6 68 11 3f 13 08 f7 9f e9 1a 41 bf
       0.5656137 0.5680059 -1.04621927e-19 -0.75431687
000090 76 24 91 1f f4 3e 3b 1f 78 45 d4 be 48 f1 92 3a
       6.147021e-20 3.9650864e-20 -0.4145925 0.0011210823
0000a0 54 98 5c 3e e3 28 66 bf 00 d8 05 2a 1c 2b 14 bd
       0.21542484 -0.8990614 1.1887713e-13 -0.036173925
0000b0 d3 e0 dd be 94 1c 09 3f 30 6e 8d 3e cd 8f b1 bc
       -0.4333559 0.5355923 0.2762313 -0.021675015
0000c0 fd f9 04 3f f5 53 1c 3f 07 60 12 9d f5 ea bc 3a
       0.5194395 0.6106561 -1.9372584e-21 0.0014413284
0000d0 4e e8 90 9e ad 7d 21 26 b8 35 d1 be d3 a8 4c bf
       -1.5342672e-20 5.602842e-16 -0.40861297 -0.79945105
0000e0 b2 8b 69 3e 72 68 a6 3e 02 25 f2 25 0e 07 5d bd
       0.22807196 0.3250156 4.2005386e-16 -0.053961806
0000f0 3c 3e d4 be 50 66 0f 3f f1 6d 55 bf 66 4c e3 bc
       -0.4145373 0.5601549 -0.8337088 -0.02774639

bias f4 [4]
000000 49 6a 7c 3e a3 c7 62 3e e5 19 f3 3b 23 14 ce 3d
       0.2464992 0.22146468 0.0074188584 0.100624345
