data/184000.pth (torch, 41303 bytes, 6 tensors)

weight f4 [64, 33]
-0.027724411 0.0052249227 0.073688656 0.044733264 0.06123819 0.046492103 0.10098338 0.057057038
0.049311355 0.091589615 0.09468012 0.058399983 0.0028818739 0.044606782 0.0028382107 -0.0050800694
0.026988354 0.0046448894 0.08912782 0.046580475 0.046964996 0.042487647 0.07411631 0.018890454
0.013780912 -0.36955264 -0.50715965 -0.42944804 -0.10966635 -0.0132741695 -0.0010364889 0.11350996
0.018311027 1.1490838e-06 6.906961e-08 7.2764993e-07 1.676959e-07 -4.8067426e-07 2.5338224e-07 9.981891e-07
9.798443e-07 8.104498e-07 -6.657055e-07 -9.1342815e-07 5.247131e-07 -1.1579369e-06 1.0587685e-06 -2.6531205e-07
7.5448077e-07 -1.2739349e-07 -1.3537601e-07 3.8290995e-07 5.0264566e-07 6.4106746e-07 1.8111827e-07 -2.1585699e-08
1.1041813e-06 6.849692e-07 -4.9041564e-06 -6.2884516e-07 -6.441825e-06 -9.33473e-06 -7.2850963e-07 -2.3780885e-06
3.0341278e-07 -1.0954656e-06 8.4246976e-17 -4.347473e-18 2.15615e-17 -4.3742886e-17 2.7545419e-17 -4.89253e-17
5.978863e-17 -4.204893e-17 9.396801e-17 -4.3805058e-13 -4.3816247e-13 7.0844155e-17 -4.391711e-13 -4.3889756e-13
-4.3892415e-13 -4.388065e-13 -4.382218e-13 5.5797376e-17 1.17583e-16 6.934074e-18 2.1393966e-17 -4.3847575e-13
-4.3851432e-13 -4.385775e-13 6.9423284e-17 -4.3416125e-13 -4.373168e-13 -4.364324e-13 -4.2693757e-13 4.3294716e-13
-4.3635012e-13 -4.4007013e-13 -4.390436e-13 -1.1301891e-18 -1.1035644e-18 -7.989354e-19 -4.5823293e-19 -1.1011012e-18
-1.2102454e-18 -1.061772e-18 -2.8608342e-20 -3.2622168e-19 -1.2241074e-18 -8.999048e-19 -1.30792845e-20 8.893477e-19
2.0532292e-20 -4.7912855e-19 -9.510995e-19 -4.446101e-19 -2.4868797e-19 -2.4513668e-19 -2.7778136e-19 -1.1516864e-19
-5.148736e-19 -3.4074335e-20 -2.6320267e-19 -6.427038e-19 -2.7163786e-18 -1.6317177e-18 -1.81215e-18 -2.220399e-18
1.1102878e-19 -3.82362e-19 -2.8034575e-19 2.2677713e-18 -0.040827207 -0.0058525125 0.009551308 -0.012176068
-0.004017223 0.007848175 0.02793568 -0.0057455283 -0.012713776 -0.022996334 -0.0066836267 0.034686573
-0.058873154 0.024929162 0.0070621334 0.03525353 0.0022565392 0.0008383111 0.028163722 0.027310966
-0.00038061326 -0.019240618 0.009189729 -0.0074145943 -0.021110121 -0.37996906 -0.3874528 -0.42209178
-0.35236835 -0.005113307 -0.08908629 0.12605684 -0.03171665 0.010413059 0.022863815 0.049272154
0.0288738 0.022126196 0.063879795 0.07801652 0.020170555 0.041274786 0.025207276 0.018427001
0.061394226 -0.052896533 0.058099013 0.033295345 0.05988678 0.030197324 0.04698478 0.0678907
0.040590998 0.047845934 0.006590652 0.034524396 -0.0095671555 -0.0022049006 -0.388342 -0.26665676
-0.39055413 -0.40668684 -0.03128247 0.07179301 0.12181862 -0.033953663 0.06889061 -0.017650941
0.083030194 0.05127133 0.06760309 -0.007955376 0.10034671 0.0740883 0.09460136 0.065862946
0.10479653 -0.0031169464 0.08181702 0.12230288 0.095671855 0.05971179 0.053207736 0.008315952
0.20041461 0.06148773 0.08147611 0.042017736 0.1403446 0.053153552 0.08447119 -0.40897217
-0.26160187 -0.2778384 -0.3112028 0.008594988 -0.05305325 0.0937667 0.10462918 1.892563e-19
-5.9911637e-19 -1.1646959e-19 1.3309893e-19 -1.2137557e-18 -2.1305034e-19 2.406146e-19 -1.2187061e-19 5.742587e-19
-1.9005585e-18 -1.7396819e-19 5.82662e-20 3.4096517e-20 -3.0545053e-19 2.4229102e-19 -5.417193e-19 -1.1399946e-18
-4.4907837e-19 4.995766e-20 2.2054124e-19 1.523202e-19 -4.0633224e-19 9.4214243e-20 -8.7882854e-20 -6.7442594e-19
00000000: 4e1e e3bc d435 ab3b 14ea 963d 3a3a 373d
00000010: e5d4 7a3d 816e 3e3d 60d0 ce3d a4b4 693d
00000020: b4fa 493d 5693 bb3d a7e7 c13d d234 6f3d
00000030: d2dd 3c3b 9ab5 363d 4601 3a3b b676 a6bb
00000040: ae16 dd3c 2834 983b a688 b63d 2bcb 3e3d
00000050: 5e5e 403d 8707 2e3d 4bca 973d 27c0 9a3c
00000060: 56c9 613c 0136 bdbe 37d5 01bf 9de0 dbbe
00000070: c098 e0bd e77b 59bc ccda 87ba e977 e83d
00000080: 0201 963c 383a 9a35 6b53 9433 b953 4335
00000090: e60f 3434 af07 01b5 9708 8834 84f9 8535
000000a0: 3283 8335 b08d 5935 efb2 32b5 4e32 75b5
000000b0: 02da 0c35 696a 9bb5 021b 8e35 3670 8eb4
000000c0: 8687 4a35 a8c9 08b4 e05b 11b4 be92 cd34
000000d0: 8ced 0635 d215 2c35 6979 4234 746b b9b2
000000e0: 6133 9435 bade 3735 628e a4b6 e9cd 28b5
000000f0: db26 d8b6 5c9c 1cb7 cd8e 43b5 4097 1fb6
00000100: bce4 a234 e907 93b5 a342 c224 b964 a0a2
00000110: a7de c623 7cba 49a4 c80f fe23 cda0 61a4
00000120: fadc 8924 9dea 41a4 ecac d824 be99 f6aa
00000130: dea9 f6aa 025b a324 3a3b f7aa ce13 f7aa
00000140: a317 f7aa ae06 f7aa 6bb2 f6aa f5a8 8024
00000150: 6090 0725 7ad2 ff22 1353 c523 04d7 f6aa
00000160: 93dc f6aa aee5 f6aa 4614 a024 3b69 f4aa
00000170: fe2f f6aa 8ab0 f5aa 3058 f0aa 43ba f32a
00000180: aea4 f5aa cabc f7aa da28 f7aa 56c9 a6a1
00000190: 7cdb a2a1 dacd 6ba1 1a3f 07a1 6d7e a2a1
000001a0: c799 b2a1 9db0 9ca1 5d19 079f 3a91 c0a0
000001b0: 78a5 b4a1 71cd 84a1 8a0f 779e 9b3e 8321
000001c0: 09ec c11e ee69 0da1 865b 8ca1 ca39 03a1
000001d0: aacc 92a0 02b4 90a0 22f9 a3a0 96f7 07a0
000001e0: c0f6 17a1 58e9 209f 105e 9ba0 53b1 3da1
000001f0: f16e 48a2 8dcc f0a1 8cb6 05a2 27d6 23a2
00000200: 6414 0320 e9b4 e1a0 a77c a5a0 fd54 2722
00000210: 6e3a 27bd 6fc6 bfbb 177d 1c3c 217e 47bc
00000220: e9a2 83bb a295 003c 5ed9 e43c fc44 bcbb
00000230: 714d 50bc cf62 bcbc 5302 dbbb 8213 0e3d
00000240: fa24 71bd 3e38 cc3c 7869 e73b 0166 103d
00000250: 72e2 133b 1bc2 5b3a 9bb7 e63c 3fbb df3c
00000260: 0c8d c7b9 809e 9dbc 8490 163c 20f6 f2bb
00000270: 22ef acbc 4e8b c2be 3760 c6be 6a1c d8be
00000280: a069 b4be 878d a7bb df72 b6bd 0b15 013e
00000290: 51e9 01bd 899b 2a3c e54c bb3c 99d1 493d
000002a0: bf88 ec3c ff41 b53c 69d3 823d 20c7 9f3d
000002b0: b83c a53c c00f 293d 7d7f ce3c 39f4 963c
000002c0: 8378 7b3d 09aa 58bd 3bf9 6d3d b360 083d
000002d0: d74b 753d 6160 f73c 1d73 403d 480a 8b3d
000002e0: bf42 263d 19fa 433d 65f6 d73b 7469 0d3d
000002f0: 8fbf 1cbc 1880 10bb c3d4 c6be 3c87 88be
00000300: b6f6 c7be 4239 d0be 0c22 00bd 3708 933d
00000310: 0a7c f93d ff12 0bbd 8516 8d3d b598 90bc
00000320: bc0b aa3d e301 523d 7d73 8a3d 4457 02bc
00000330: 9382 cd3d 9bbb 973d 5cbe c13d 27e3 863d
00000340: 909f d63d af45 4cbb af8f a73d ef79 fa3d
00000350: 9bef c33d 5a94 743d 5bf0 593d a13f 083c
00000360: 7d39 4d3e 8fda 7b3d f2dc a63d ca1a 2c3d
00000370: 7fb6 0f3e 8ab7 593d 3bff ac3d cd64 d1be
00000380: aef0 85be d640 8ebe f955 9fbe fed1 0c3c
00000390: 5d4e 59bd c108 c03d d347 d63d 356f 5f20
000003a0: f4d3 30a1 c680 09a0 af22 1d20 651e b3a1
000003b0: 8486 7ba0 a608 8e20 22e1 0fa0 c37d 2921
000003c0: 893c 0ca2 a962 4da0 c293 891f 2904 211f
000003d0: 614e b4a0 fc05 8f20 27e3 1fa1 c73b a8a1
000003e0: 678b 04a1 1beb 6b1f 402f 8220 f5d3 3320
000003f0: 31db efa0 0475 de1f ed81 cf9f 2f0e 47a1

bias f4 [64]
-0.17583503 -2.5739873e-06 -3.9909395e-13 -1.5256425e-18 -0.25537586 -0.22120461 -0.14597645 -1.6206393e-18
-0.10414177 0.23124784 -1.0915539e-18 -2.809431e-05 -0.0030449885 -4.893071e-18 0.3750574 -0.079693764
-0.0035317265 0.10443819 -1.2389054e-08 0.2785927 -7.0336806e-19 -3.2489755e-19 -0.09922488 -0.0073663695
0.16209993 -6.042586e-15 -3.295507e-18 -6.7295486e-19 -4.9132816e-18 -4.8473053e-13 -5.907937e-17 -0.00020007869
-0.00017985543 -3.1639043e-17 -0.06720885 -2.1521624e-18 0.20300907 -2.0406832e-17 -1.2545875e-18 -1.0851209e-18
-0.032966353 -4.5996324e-17 -6.974055e-21 -2.4757554e-07 -0.018446987 -6.7225033e-21 0.16483334 0.17723206
-5.4152003e-09 0.03274914 -1.4260405e-12 -2.4450672e-05 0.08613706 0.39170736 0.097930156 -0.0040968973
-1.0573499e-20 -6.3577764e-17 -4.6131255e-18 -4.27725e-11 -2.470596e-15 -0.12135765 -7.5017175e-07 -6.650466e-13
00000000: 190e 34be c4bc 2cb6 80ab e0aa 2525 e1a1
00000010: a0c0 82be 7683 62be da7a 15be 062a efa1
00000020: 4848 d5bd 3ccc 6c3e be15 a1a1 12ac ebb7
00000030: 6e8e 47bb c085 b4a2 8607 c03e 7c36 a3bd
00000040: 8a74 67bb b1e3 d53d a3d7 54b2 b4a3 8e3e
00000050: fd98 4fa1 21c9 bfa0 6a36 cbbd 9661 f1bb
00000060: 86fd 253e 05b5 d9a7 5e2a 73a2 089f 46a1
00000070: a244 b5a2 8470 08ab 4e3a 88a4 37cc 51b9
00000080: 9397 3cb9 cae8 11a4 cba4 89bd 33cd 1ea2
00000090: 9ce1 4f3e 4538 bca3 fa24 b9a1 b522 a0a1
000000a0: ba07 07bd e01e 54a4 76bc 039e 86ea 84b4
000000b0: 231e 97bc 10f8 fd9d 12ca 283e 527c 353e
000000c0: 9b10 bab1 f623 063d 86b2 c8ab 6b1b cdb7
000000d0: a068 b03d de8d c83e 9b8f c83d 443f 86bb
000000e0: 4eba 479e b099 92a4 bd31 aaa2 8e1d 3cae
000000f0: 7406 32a7 5c8a f8bd 695f 49b5 a831 3bab

weight f4 [16, 64]
-0.22304305 -2.6381585e-06 -1.2277049e-15 -5.287275e-20 -1.1979591 -0.3601995 0.11199391 -9.963105e-19
-0.5291412 0.1888601 8.1205613e-19 -8.795958e-05 -0.011214576 -1.981583e-18 -0.7445485 -0.59138364
-2.202756e-09 0.2515711 -1.37338e-08 0.1902389 -3.5116878e-19 -3.115527e-19 -0.3313352 -0.015239898
0.14345875 -2.3876226e-14 -1.2289133e-18 -2.5282863e-19 -4.625846e-18 -2.2089943e-12 -2.930277e-17 -3.066708e-08
-0.0002538561 -4.479952e-17 -0.7064526 1.120466e-18 0.17144293 -6.1390116e-17 -3.2334374e-19 -4.618792e-19
-0.47908905 -4.9304226e-17 6.245432e-21 -9.547649e-07 -0.37113887 1.835722e-21 0.33561578 -0.0037260908
-1.9582698e-08 -0.3152951 -1.6999389e-17 3.2242195e-07 -0.0779622 -0.85284305 0.19986083 -1.5710492
-7.902947e-21 -2.235081e-16 -2.3210742e-18 -2.381629e-11 -2.8583417e-15 -0.5082647 -9.3532475e-07 3.5522645e-13
-0.23071662 -1.829418e-06 -8.6276314e-16 -9.05605e-19 -0.9373167 -0.2835056 -0.064742915 -1.7486342e-18
-0.52216786 0.1837042 -3.964522e-19 -7.195088e-05 -0.008114008 -3.4470523e-18 -0.82950306 -1.1200461
-3.0247351e-09 0.2271932 -1.0478502e-08 0.2247042 -2.663126e-19 -3.0561987e-19 -0.21011452 -0.011877148
0.13575226 -1.8268818e-14 -1.5643884e-18 -2.0182192e-19 -5.688814e-18 -1.6638435e-12 -3.2706864e-17 -2.377055e-08
-0.00025329765 -5.4338034e-17 -1.075547 9.268356e-20 0.16686516 -6.036016e-17 -3.220179e-19 1.0593665e-19
-1.105518 -5.6766805e-17 -4.829913e-21 -8.141665e-07 -1.1052307 1.35348e-21 0.006503498 0.24283445
-1.7136648e-08 -0.22478224 -1.2197502e-18 3.3807567e-07 -0.3102479 -0.838619 0.3090718 -0.5488596
6.6074642e-21 -1.8982342e-16 -2.2453005e-18 -3.2916628e-11 -2.4682466e-15 -0.49831852 -6.085463e-07 -3.443678e-12
-4.6856334e-20 -8.596442e-20 -1.3535844e-19 -1.28050305e-20 -1.3354108e-19 -8.3555e-20 -1.1805054e-19 -7.6178785e-20
1.3462124e-20 9.89903e-22 -1.5833434e-20 -4.1885525e-20 -6.281338e-20 -9.111083e-21 -7.708498e-21 -4.9918153e-20
-2.6884342e-20 -4.1072093e-20 -4.88915e-20 -7.652733e-20 2.9039646e-20 -6.6134677e-21 3.3922464e-20 -5.3313005e-20
-5.2901415e-21 3.217834e-20 -5.3637077e-21 2.1832984e-21 3.7806238e-20 -7.71232e-20 -2.8613754e-20 -6.088087e-20
1.4657447e-20 -2.1431771e-20 -4.0998496e-20 -2.1188406e-20 -6.979644e-20 -1.13207115e-20 -9.811544e-21 9.647256e-21
3.9193566e-22 -1.2644821e-20 5.505058e-21 1.5401896e-20 3.193462e-20 -1.8316489e-21 -9.111803e-20 -9.295315e-20
-2.1275381e-20 4.863847e-20 5.841296e-21 -3.5832892e-20 -2.820864e-20 -8.59272e-20 -5.825479e-20 5.571249e-20
-5.339181e-21 -4.632744e-20 7.916787e-21 1.4395697e-20 -1.5415089e-20 -1.1944418e-20 7.171576e-21 -5.939026e-20
0.5392897 3.04612e-06 -3.9046308e-13 1.3955735e-18 0.97474974 0.3316196 0.25341356 1.3321658e-18
-0.03685376 0.049193572 1.0311904e-19 9.041142e-05 0.009182223 2.5115424e-18 0.67513126 -0.0833325
0.008568529 -0.00601129 1.2726002e-08 0.009830241 6.6127796e-19 3.1219572e-19 0.31717286 0.011198832
0.06945319 1.2669611e-14 2.8478615e-18 6.7612797e-19 5.959207e-18 1.3921257e-12 3.300903e-18 -0.00013874628
-0.00018814621 7.49031e-18 -0.03103097 1.0811859e-18 0.058457196 4.992285e-17 1.1320118e-18 1.2827631e-18
0.011682797 -1.3330118e-17 1.281494e-20 8.0756405e-07 0.0009250453 8.154229e-22 -0.36966723 0.123527646
9.579316e-09 -0.07040816 -1.4053503e-12 -1.7478901e-07 0.14180028 0.66625834 -0.08097041 1.567698
-6.3065175e-21 1.435035e-16 3.87302e-18 9.042308e-11 1.1347995e-15 -0.021735713 1.5906198e-06 5.1704045e-12
00000000: 6665 64be 380b 31b6 51ee b0a6 3caf 799f
00000010: b956 99bf 126c b8be 105d e53d 8c07 93a1
00000020: cc75 07bf 8b64 413e 3aad 6f21 f176 b8b8
00000030: 57bd 37bc 0b37 12a2 bb9a 3ebf eb64 17bf
00000040: 4b5f 17b1 edcd 803e e4f1 6bb2 fccd 423e
00000050: 204b cfa0 83e8 b7a0 c4a4 a9be c4b0 79bc
00000060: dae6 123e d40e d7a8 085b b5a1 623e 95a0
00000070: e1a9 aaa2 b471 1bac 9b22 07a4 d0b6 03b3
00000080: fd17 85b9 f099 4ea4 14da 34bf 025a a521
00000090: bc8e 2f3e 548e 8da4 53de bea0 9b52 08a1
000000a0: 294b f5be 2860 63a4 1df2 eb1d 7925 80b5
000000b0: ea05 bebe 07b4 0a1d d5d5 ab3e 6e31 74bb
000000c0: cf36 a8b2 5c6e a1be acca 9ca3 5619 ad34
000000d0: a5aa 9fbd ec53 5abf 51a8 4c3e 2418 c9bf
000000e0: 4f48 159e f9d7 80a5 da43 2ba2 847d d1ad
000000f0: 19f7 4da7 a31d 02bf 0713 7bb5 87f9 c72a
00000100: fa40 6cbe 538a f5b5 afac 78a6 caa4 85a1
00000110: fdf3 6fbf a527 91be ef97 84bd c406 01a2
00000120: cbac 05bf f41c 3c3e 2a06 eaa0 56e4 96b8
00000130: 9ef0 04bc fa58 7ea2 505a 54bf ac5d 8fbf
00000140: b4db 4fb1 56a5 683e f004 34b2 dc18 663e
00000150: 0634 9da0 f867 b4a0 4328 57be 5f98 42bc
00000160: a402 0b3e 078d a4a8 ecdc e6a1 ef44 6ea0
00000170: 54e1 d1a2 482a eaab 73d5 16a4 fe2f ccb2
00000180: 09cd 84b9 0797 7aa4 86ab 89bf c6d7 da1f
00000190: b3de 2a3e 592e 8ba4 f815 bea0 c722 fa1f
000001a0: 9d81 8dbf 35e5 82a4 0d78 b69d 198d 5ab5
000001b0: 3378 8dbf 3988 cc1c 4c1b d53b 98a9 783e
000001c0: e333 93b2 512d 66be dc00 b4a1 c480 b534
000001d0: d0d8 9ebe bcaf 56bf a93e 9e3e 1082 0cbf
000001e0: 799f f91d fcd9 5aa5 87ac 25a2 d4c4 10ae
000001f0: 1ddb 31a7 9b23 ffbe fc5a 23b5 ca53 72ac
00000200: d545 5d9f 4efa ca9f 94cd 1fa0 54e1 719e
00000210: 51a8 1da0 e649 c59f 965e 0ba0 40df b39f
00000220: d64a 7e1e 0497 951c e58a 959e 7ecc 459f
00000230: 5c50 949f 7e1a 2c9e 029c 119e 58bb 6b9f
00000240: 5aea fd9e 1df5 419f 32e2 669f efb1 b49f
00000250: c722 091f 89d9 f99d be31 201f 78c3 7b9f
00000260: 1cdb c79d 3af5 171f 99a2 ca9d 22f7 241d
00000270: f088 321f 1d1a b69f e81f 079f 3ac0 8f9f
00000280: 886f 8a1e d86a ca9e 249c 419f 6c1e c89e
00000290: 5ccd a49f 9ad7 559e b755 399e 443b 361e
000002a0: 1be9 ec1b 9ada 6e9e a7f9 cf1d 8077 911e
000002b0: 96ce 161f 3e65 0a9d 7825 d79f bb7a db9f
000002c0: b7f0 c89e 4db0 651f 8cad dc1d 4f37 299f
000002d0: 2736 059f cee3 ca9f dc8c 899f 228c 831f
000002e0: 64b5 c99d 70c6 5a9f 3c8b 151e a9f6 871e
000002f0: 6697 919e a99f 619e 9d77 071e 363b 8c9f
00000300: e40e 0a3f f16b 4c36 a9cf dbaa 47f3 cd21
00000310: 3389 793f 0bca a93e 6cbf 813e cd97 c421
00000320: f8f3 16bd 337f 493d a37b f31f 439b bd38
00000330: 0971 163c b251 3922 67d5 2c3f 3baa aabd
00000340: 0463 0c3c 5bfa c4bb 8ca1 5a32 050f 213c
00000350: c02c 4321 af49 b820 7b64 a23e 4e7b 373c
00000360: 793d 8e3d 453c 6428 9522 5222 c98e 4721
00000370: 1edb db22 9dec c32b 4b90 7322 6c7c 11b9
00000380: 1d49 45b9 fd2b 0a23 a934 febc 0c8e 9f21
00000390: d070 6f3d 803a 6624 320e a721 6b4d bd21
000003a0: 3469 3f3c b4e5 75a3 3f11 721e 61c7 5835
000003b0: bd7e 723a 4b72 761c 0645 bdbe 10fc fc3d
000003c0: 4792 2432 2732 90bd 15c9 c5ab a3ad 3bb4
000003d0: 1834 113e e88f 2a3f d0d3 a5bd 54aa c83f
000003e0: e540 ee9d c272 2525 a4e3 8e22 abd7 c62e
000003f0: b68a a326 180f b2bc 487d d535 ddea b52c

bias f4 [16]
0.34380084 0.339172 -9.519776e-20 0.03447568 -9.264769e-19 -3.5382333e-17 0.05219795 -0.038141564
0.6018931 0.065875344 -5.3570894e-14 -0.002755169 0.060828116 0.34653148 0.06272751 -0.012196577
00000000: aa06 b03e f4a7 ad3e 84c7 e09f 5f36 0d3d
00000010: 4fb9 88a1 162c 23a4 85cd 553d 543a 1cbd
00000020: ab15 1a3f a7e9 863d 0943 71a9 1190 34bb
00000030: e726 793d 936c b13e 4877 803d 27d4 47bc

weight f4 [4, 16]
0.55884135 0.5850442 -7.572667e-21 -0.33655256 -4.7996944e-18 -1.8880676e-21 -0.32816732 -0.39357182
0.2677994 0.24371557 4.9709843e-14 -0.10858674 0.010591251 0.51159525 0.2912386 -1.3941498
0.56037885 0.56883067 2.2600675e-20 -0.3886028 -8.457708e-21 -3.435506e-21 0.05514719 -0.40311617
0.2518687 0.24275336 4.8385968e-14 -1.2979335 -0.23982055 0.54773676 0.2673469 -0.087205574
0.5560362 0.5793335 -1.8725463e-20 -0.76052177 1.10033076e-20 7.097832e-21 -0.40627405 -0.008365128
0.2088697 -0.8605418 2.1277442e-14 -0.029293776 -0.4339291 0.5372011 0.2741031 -0.016509809
0.5068371 0.5937641 -3.4680135e-22 0.011223395 -2.746273e-21 1.0030072e-16 -0.41892165 -0.79493135
0.22912394 0.229419 7.518867e-17 -0.04631236 -0.4253801 0.5433799 -0.98513037 -0.03528434
00000000: 3a10 0f3f 75c5 153f 2c0b 0f9e 9e50 acbe
00000010: d513 b1a2 8aa8 0e9d 8c05 a8be 3f82 c9be
00000020: 011d 893e 9390 793e 8cdf 5f29 ba62 debd
00000030: ed86 2d3c e8f7 023f 3a1d 953e 8073 b2bf
00000040: fd74 0f3f e39e 113f 1475 d51e f2f6 c6be
00000050: f7c2 1f9e 2dca 819d 05e2 613d 3e65 cebe
00000060: eff4 803e 5694 783e 39e9 5929 af22 a6bf
00000070: 8593 75be 7a38 0c3f b1e1 883e d698 b2bd
00000080: 6358 0e3f 334f 143f 64db b09e 8eb1 42bf
00000090: bbd8 4f1e 0213 061e 2703 d0be e40d 09bc
000000a0: f0e1 553e 784c 5cbf 71a6 bf28 80f9 efbc
000000b0: f42b debe 0386 093f 3e57 8c3e 943f 87bc
000000c0: 14c0 013f ed00 183f e9a0 d19b 55e2 373c
000000d0: a580 4f9d 1847 e724 e67c d6be 9f80 4bbf
000000e0: 779f 6a3e d0ec 6a3e 8f5f ad24 07b2 3dbd
000000f0: 6ccb d9be f21a 0b3f 8131 7cbf 5086 10bd

bias f4 [4]
0.23976026 0.21858346 0.007812543 0.097418405
00000000: b783 753e 58d4 5f3e 2e00 003c 4d83 c73d
