data/185600.pth (torch, 41559 bytes, 6 tensors)

weight f4 [64, 33]
0	0xbcd5ece7	-0.02611394
1	0xbbdf926f	-0.006822876
2	0x3d41a77f	0.047278877
3	0x3d0c6126	0.034272335
4	0x3d19313d	0.037400473
5	0x3c1bf8b6	0.0095197465
6	0x3db011cd	0.08597145
7	0x3d3d925d	0.04628216
8	0x3d220017	0.039550867
9	0x3d16e677	0.036840882
10	0x3d4b6f36	0.049666606
11	0x3d694891	0.05695397
12	0xbd042d4a	-0.032269754
13	0x3d066b6c	0.03281729
14	0xbb177c87	-0.0023114996
15	0x3b18ddc3	0.002332554
16	0x3cc91ec9	0.024550812
17	0x3d024898	0.031807512
18	0x3db9406a	0.09045489
19	0x3cce3b93	0.025174892
20	0x3c99bd41	0.018767001
21	0x3d1aaa9d	0.037760366
22	0x3d5db443	0.05412699
23	0x3ce43892	0.027859006
24	0x3cdfa1e9	0.027298884
25	0xbeded5e4	-0.4352256
26	0xbefc3c1d	-0.49264613
27	0xbed2d8f5	-0.4118115
28	0xbe49a654	-0.19692355
29	0x3d04efdf	0.03245532
30	0xbd89019f	-0.06689762
31	0x3dfb69be	0.12276028
32	0xbc7f966e	-0.01559983
33	0x35478011	7.431964e-07
34	0x333fd976	4.4668433e-08
35	0x34fca974	4.706195e-07
36	0x33e8e88a	1.08456405e-07
37	0xb4a6e504	-3.108654e-07
38	0x342ff9ce	1.6389023e-07
39	0x352d4cf1	6.4559487e-07
40	0x352a1f84	6.3375796e-07
41	0x350cb1e7	5.2412946e-07
42	0xb4e727de	-4.305611e-07
43	0xb51e9571	-5.907705e-07
44	0x34b63649	3.393964e-07
45	0xb5490b87	-7.489511e-07
46	0x3537d2ff	6.847985e-07
47	0xb438408b	-1.7159816e-07
48	0x3502fb54	4.8794504e-07
49	0xb3b0ef14	-8.239127e-08
50	0xb3bc09d9	-8.7562235e-08
51	0x3484f5d2	2.4765774e-07
52	0x34ae8c10	3.2511934e-07
53	0x34de9a18	4.146284e-07
54	0x33fb8fef	1.171428e-07
55	0xb26fda4f	-1.3961269e-08
56	0x353fb095	7.1410005e-07
57	0x34edd5b8	4.430019e-07
58	0xb654d9e0	-3.1717282e-06
59	0xb4da593b	-4.0670588e-07
60	0xb68bcb38	-4.1661806e-06
61	0xb6ca96a7	-6.0376074e-06
62	0xb4fcf5a2	-4.711738e-07
63	0xb5ce6f07	-1.5380509e-06
64	0x3452b63f	1.9624075e-07
65	0xb53e3280	-7.0854003e-07
66	0x247b494e	5.448904e-17
67	0xa24f78da	-2.811771e-18
68	0x23809fcd	1.3945466e-17
69	0xa40274eb	-2.828829e-17
70	0x23a45216	1.781568e-17
71	0xa411e818	-3.1638454e-17
72	0x243253f9	3.8668725e-17
73	0xa3fad7cd	-2.719645e-17
74	0x248c2169	6.077192e-17
75	0xaa9f7d94	-2.833121e-13
76	0xaa9f87fe	-2.8338437e-13
77	0x24534dc9	4.5819218e-17
78	0xaa9fe5df	-2.840358e-13
79	0xaa9fcc69	-2.8385912e-13
80	0xaa9fcee3	-2.838763e-13
81	0xaa9fc3ef	-2.838003e-13
82	0xaa9f8d85	-2.8342273e-13
83	0x242667fa	3.6083584e-17
84	0x24af60fd	7.6058457e-17
85	0x22a57287	4.48446e-18
86	0x237f4472	1.38380716e-17
87	0xaa9fa527	-2.835867e-13
88	0xaa9fa8be	-2.8361162e-13
89	0xaa9fae9f	-2.8365241e-13
90	0x244f1059	4.4899817e-17
91	0xaa9e1396	-2.8080029e-13
92	0xaa9f3948	-2.828382e-13
93	0xaa9ee6f8	-2.8226705e-13
94	0xaa9b6f62	-2.7610818e-13
95	0x2a9da295	2.8001616e-13
96	0xaa9edf4f	-2.822139e-13
97	0xaaa0398c	-2.846164e-13
98	0xaa9fda01	-2.8395344e-13
99	0xa157c34c	-7.3103307e-19
100	0xa152aa65	-7.1376283e-19
101	0xa1188162	-5.167084e-19
102	0xa0aef6b6	-2.9640006e-19
103	0xa152332b	-7.121849e-19
104	0xa1670786	-7.82758e-19
105	0xa14ab0c6	-6.867422e-19
106	0x9eaec55b	-1.8504591e-20
107	0xa0791a72	-2.109987e-19
108	0xa169acd3	-7.91722e-19
109	0xa12bc48a	-5.819717e-19
110	0x9e1fc9a8	-8.4590914e-21
111	0x2129c875	5.752473e-19
112	0x1e7ad9a3	1.3279896e-20
113	0xa0b6ef53	-3.099037e-19
114	0xa1358fb9	-6.15154e-19
115	0xa0a9c257	-2.8758317e-19
116	0xa03de6e9	-1.6085324e-19
117	0xa03b2c05	-1.5854081e-19
118	0xa0541862	-1.7965166e-19
119	0x9fafe466	-7.4493236e-20
120	0xa0c49275	-3.3300609e-19
121	0x9ed02842	-2.2039507e-20
122	0xa048fb79	-1.7023864e-19
123	0xa0f5609e	-4.156855e-19
124	0xa201a066	-1.7567674e-18
125	0xa19bb9a8	-1.0552351e-18
126	0xa1acf55e	-1.1720122e-18
127	0xa1d3eb90	-1.4360269e-18
128	0x1fa992e1	7.1817275e-20
129	0xa091f53a	-2.4726233e-19
130	0xa056129a	-1.813266e-19
131	0x21d8750e	1.4667713e-18
132	0xbcb7f2d9	-0.022454666
133	0xbc6d1f34	-0.014472771
134	0x3b1dfe2a	0.0024107792
135	0xbccbc7fa	-0.02487563
136	0xbb89c564	-0.004204439
137	0xb73174fc	-1.057726e-05
138	0x3c1c7611	0.009549634
139	0xbb51cf8f	-0.0032014584
140	0xbb8eb08f	-0.0043545435
141	0xbc1f512d	-0.009723944
142	0xbbd143ab	-0.0063862405
143	0x3cac9317	0.021066232
144	0xbd66e350	-0.056369126
145	0x3c4b00fd	0.012390372
146	0x3b2f3156	0.0026732287
147	0x3ca3ad9b	0.019980242
148	0x3c1ec638	0.009690814
149	0xba6b10e3	-0.0008967055
150	0x3c801b88	0.015638128
151	0x3c8797f6	0.016551953
152	0x3a2d3594	0.000660741
153	0xbca7c7ee	-0.020481076
154	0x3ba8b5b4	0.005148614
155	0x3b3432ca	0.0027496093
156	0xbc8b0526	-0.016970228
157	0xbe8e46c3	-0.27788362
158	0xbe8c007a	-0.27344114
159	0xbe983d74	-0.29734385
160	0xbe853ffc	-0.2602538
161	0x3b64f170	0.0034933947
162	0xbd68ab73	-0.05680413
163	0x3d94d4dc	0.07267162
164	0xbd19dd02	-0.037564285
165	0xbca93f29	-0.02066
166	0x3c8a3bf6	0.016874295
167	0x3c47e400	0.0122003555
168	0x3d0c4304	0.0342436
169	0x3c19d50c	0.009389173
170	0x3d32be13	0.0436383
171	0x3d801a46	0.06255011
172	0x3d43976d	0.047751833
173	0x3d3c717b	0.04600666
174	0x3bf431e0	0.0074522346
175	0x3bc3119e	0.005953028
176	0x3d95f960	0.07322955
177	0xbd8129f7	-0.06306832
178	0x3d7d4ea0	0.06184256
179	0x3c48c1b4	0.012253214
180	0x3d2b7220	0.041856885
181	0xb8d7a427	-0.00010282575
182	0x3d0bfb70	0.034175336
183	0x3d440f92	0.04786641
184	0x3d0dc251	0.034609143
185	0x3d27a130	0.040925205
186	0xbb3cf907	-0.0028834955
187	0x3cbe5d29	0.023237782
188	0x3ca0ab15	0.019612828
189	0xbb2bdf36	-0.0026225573
190	0xbec31491	-0.38101628
191	0xbea3aa0d	-0.31965676
192	0xbeeea322	-0.46608835
193	0xbecca7cf	-0.39971778
194	0xbd11b40d	-0.0355721
195	0x3d0e1875	0.034691293
196	0x3e013d58	0.12621057
197	0xbd2342ec	-0.039858744
198	0x3d7b80b2	0.06140203
199	0x3b14d48d	0.0022709698
200	0x3d902d83	0.07039931
201	0x3d12f287	0.035875823
202	0x3d11c9ee	0.035592966
203	0xbcbfa1e2	-0.023392621
204	0x3d854297	0.06506842
205	0x3d650c5b	0.055919986
206	0x3d65838b	0.056033652
207	0x3d277a69	0.040888224
208	0x3d94f9e0	0.072742224
209	0x3c85ec55	0.016348043
210	0x3d6a0e7c	0.05714272
211	0x3dfbfc44	0.12303975
212	0x3db9027d	0.09033678
213	0x3d82a806	0.06379704
214	0x3cf72748	0.030170098
215	0x3d2eac46	0.04264476
216	0x3e3757b8	0.17904556
217	0x3d50d6c6	0.050986074
218	0x3d82099d	0.0634949
219	0x3d523fd1	0.05133039
220	0x3dc7b370	0.09751022
221	0x3d92c152	0.07165779
222	0x3d887482	0.06662847
223	0xbed87996	-0.42280263
224	0xbe920c52	-0.28525025
225	0xbeb4ef4a	-0.35338813
226	0xbecff122	-0.40613657
227	0x3ccfc90c	0.025364421
228	0xbcd6a7ad	-0.026203
229	0x3dbcc447	0.092171244
230	0x3da8e201	0.08246232
231	0x201082b8	1.2240526e-19
232	0xa0e4c00b	-3.8751786e-19
233	0x9fb1dc75	-7.532713e-20
234	0x1fcb43f6	8.6086276e-20
235	0xa167b208	-7.8501467e-19
236	0xa022ac27	-1.3778894e-19
237	0x2037bb65	1.5562707e-19
238	0x9fba1adf	-7.881852e-20
239	0x20db3e5e	3.7141314e-19
240	0xa1b5678d	-1.2292447e-18
241	0xa004d68f	-1.1251826e-19
242	0x1f31f511	3.7683922e-20
243	0x1ed04bb9	2.2054175e-20
244	0xa0693a5d	-1.9755178e-19
245	0x2039011e	1.5670479e-19
246	0xa0ced0f6	-3.5036036e-19
247	0xa1599ad1	-7.372736e-19
248	0xa0ab6ed9	-2.904188e-19
249	0x1f189476	3.2310056e-20
250	0x20286b2b	1.4265612e-19
251	0x1fe89b78	9.8513023e-20
252	0xa09b1f9a	-2.6278934e-19
253	0x1f8fe282	6.093758e-20
254	0x9f863715	-5.684233e-20
255	0xa100be45	-4.3619907e-19

bias f4 [64]
0	0xbe5cadf4	-0.21550733
1	0xb5df7171	-1.664781e-06
2	0xaa914bfe	-2.5809904e-13
3	0xa1919968	-9.866188e-19
4	0xbe41aa27	-0.18912564
5	0xbe81f9a2	-0.25385767
6	0xbe47493f	-0.19461535
7	0xa19aae84	-1.048164e-18
8	0xbdf8f228	-0.12155563
9	0x3e80e22f	0.25172564
10	0xa15062fa	-7.0604136e-19
11	0xb7986b5a	-1.8169801e-05
12	0xbb011079	-0.0019693656
13	0xa2698323	-3.1646811e-18
14	0x3eb04342	0.34426314
15	0xbda7bf5f	-0.08190798
16	0xbb15b19c	-0.002284146
17	0x3dfc8f37	0.123320036
18	0xb209aa94	-8.0132345e-09
19	0x3e9bb797	0.30413505
20	0xa10645b5	-4.549322e-19
21	0xa07817ba	-2.1014268e-19
22	0xbe0190fe	-0.12652966
23	0xbb9c18c9	-0.004763697
24	0x3e34a863	0.1764236
25	0xa78ccac5	-3.907765e-15
26	0xa21d4587	-2.1314275e-18
27	0xa1007704	-4.3525603e-19
28	0xa26a7e04	-3.1779626e-18
29	0xaab07cad	-3.1350392e-13
30	0xa4303869	-3.8211698e-17
31	0xb907aae2	-0.00012938262
32	0xb8f3f31b	-0.00011632425
33	0xa3bcc40e	-2.0466033e-17
34	0xbd9bb815	-0.0760347
35	0xa1cd6a51	-1.3919482e-18
36	0x3e656311	0.22401072
37	0xa373777a	-1.31983565e-17
38	0xa16f7e4b	-8.1143497e-19
39	0xa14f22f8	-7.018061e-19
40	0xbd26e34d	-0.040744115
41	0xa409325e	-2.9749802e-17
42	0x9daa6832	-4.510636e-21
43	0xb42bea92	-1.6010952e-07
44	0xbd073f04	-0.03301908
45	0x9da442e7	-4.3479614e-21
46	0x3e3a3095	0.18182595
47	0x3e4fb4f2	0.20283869
48	0xb170b1ee	-3.5025738e-09
49	0x3c686ecc	0.014186572
50	0xab81cbb9	-9.222546e-13
51	0xb784a841	-1.5813976e-05
52	0x3d1b26c9	0.037878785
53	0x3eba5729	0.36394623
54	0x3ddc11c6	0.107455775
55	0xbcd0a4a6	-0.025469135
56	0x9e012c99	-6.838426e-21
57	0xa43da5df	-4.112334e-17
58	0xa25c28e3	-2.9837205e-18
59	0xadf354d3	-2.7663571e-11
60	0xa6e64a1c	-1.5979543e-15
61	0xbdf4ed61	-0.11959339
62	0xb5023a8b	-4.8513965e-07
63	0xaaf22876	-4.301591e-13

weight f4 [16, 64]
0	0xbea36d04	-0.3191911
1	0xb5e50716	-1.7063892e-06
2	0xa664e1ef	-7.940959e-16
3	0x9f217862	-3.4192654e-20
4	0xbf512c3d	-0.8170813
5	0xbf23f865	-0.64050895
6	0x3d04c175	0.032411058
7	0xa13e320b	-6.4440735e-19
8	0xbf0c3434	-0.54767156
9	0x3e475c28	0.19468749
10	0x211b0242	5.251903e-19
11	0xb86e9b14	-5.688805e-05
12	0xbbedab11	-0.0072530587
13	0xa1bd2805	-1.2817731e-18
14	0xbedf5650	-0.4362054
15	0xbf1577c2	-0.5838586
16	0xb0c3d29d	-1.4247977e-09
17	0x3e990f72	0.29894596
18	0xb21898e3	-8.882327e-09
19	0x3e4b0cf6	0.19829163
20	0xa0861411	-2.2713762e-19
21	0xa06de23b	-2.0149534e-19
22	0xbec14b21	-0.3775263
23	0xbc217962	-0.0098556
24	0x3e1e2933	0.15445404
25	0xa88b1735	-1.5442164e-14
26	0xa16a9b73	-7.948802e-19
27	0xa0410c4e	-1.6351807e-19
28	0xa25cc56f	-2.992008e-18
29	0xabc914ff	-1.4287737e-12
30	0xa3aed171	-1.895382e-17
31	0xb2aa6106	-1.9834726e-08
32	0xb92c2606	-0.00016417363
33	0xa405a0e5	-2.897606e-17
34	0xbf377a53	-0.71671027
35	0x2155e522	7.247046e-19
36	0x3e385a05	0.1800309
37	0xa4371e21	-3.970732e-17
38	0xa076e71b	-2.0913477e-19
39	0xa0b05704	-2.9873142e-19
40	0xbef00b33	-0.46883544
41	0xa4130ed2	-3.1888097e-17
42	0x1d989908	4.0392296e-21
43	0xb525bfa2	-6.174615e-07
44	0xbebdd88e	-0.3707928
45	0x1cb36abe	1.1872819e-21
46	0x3eb60fff	0.3555908
47	0xbc6fa5ee	-0.014626963
48	0xb2599475	-1.2664818e-08
49	0xbea01484	-0.31265652
50	0xa34ad269	-1.0994998e-17
51	0x345fe93d	2.0853345e-07
52	0xbd054684	-0.032537952
53	0xbf4e61de	-0.80618083
54	0x3e5018f1	0.20322014
55	0xbfd12139	-1.6338264
56	0x9dc11951	-5.111285e-21
57	0xa526a60a	-1.4454461e-16
58	0xa1dd8e0f	-1.5013145e-18
59	0xad8778fa	-1.5401447e-11
60	0xa705370b	-1.8487297e-15
61	0xbf01646c	-0.50543857
62	0xb52260bc	-6.049047e-07
63	0x2a815520	2.297407e-13
64	0xbe9263dc	-0.28591812
65	0xb59ece4a	-1.1831955e-06
66	0xa620d348	-5.579749e-16
67	0xa12cde26	-5.856988e-19
68	0xbf2486e8	-0.6426835
69	0xbf07ccc7	-0.5304684
70	0xbde0d3ac	-0.10977873
71	0xa1a6e3cf	-1.1308898e-18
72	0xbf102e31	-0.5632048
73	0x3e38cc2e	0.18046638
74	0xa0975832	-2.5638758e-19
75	0xb8433536	-4.654118e-05
76	0xbbabf28a	-0.005247419
77	0xa22480ed	-2.2294397e-18
78	0xbf0292ce	-0.51005256
79	0xbf8aa265	-1.0830809
80	0xb1067004	-1.956324e-09
81	0x3e6587e1	0.22415115
82	0xb1e8da6f	-6.7769217e-09
83	0x3e61e549	0.22060122
84	0xa04b5a59	-1.7224662e-19
85	0xa0695c00	-1.9766308e-19
86	0xbe882c14	-0.2659613
87	0xbbfbb7dc	-0.00768183
88	0x3e026451	0.1273358
89	0xa854d818	-1.1815222e-14
90	0xa1954fe6	-1.0117782e-18
91	0xa01a1c49	-1.3053666e-19
92	0xa287b8a9	-3.678734e-18
93	0xab976fc0	-1.0760212e-12
94	0xa3c321b3	-2.1156215e-17
95	0xb2840f3c	-1.537375e-08
96	0xb92bc402	-0.0001638085
97	0xa4220fc2	-3.5141498e-17
98	0xbf8df01e	-1.1088903
99	0x1f8d8806	5.9940855e-20
100	0x3e276c08	0.16349804
101	0xa4340950	-3.9039166e-17
102	0xa075e333	-2.0827481e-19
103	0x1fa1c3d6	6.8510136e-20
104	0xbf92e11f	-1.1474952
105	0xa42956fc	-3.6719712e-17
106	0x9d6c0b68	-3.1240237e-21
107	0xb50d5766	-5.2653775e-07
108	0xbf92b865	-1.1462523
109	0x1c844893	8.753787e-22
110	0x3c9c637e	0.01909041
111	0x3e7c9a64	0.2466827
112	0xb23e6a9d	-1.1083697e-08
113	0xbe8638d7	-0.2621524
114	0xa168d534	-7.888683e-19
115	0x346acd0b	2.1867542e-07
116	0xbe8be565	-0.27323452
117	0xbf45d888	-0.77283525
118	0x3ea2c640	0.31791878
119	0xbf202e76	-0.62570894
120	0x1da16e16	4.273017e-21
121	0xa50d8978	-1.2276377e-16
122	0xa1d65170	-1.452276e-18
123	0xadbb4240	-2.128886e-11
124	0xa6e61263	-1.596444e-15
125	0xbf0c8398	-0.54888296
126	0xb4d34dc1	-3.9358386e-07
127	0xac1cb800	-2.2271074e-12
128	0x9f0f1d16	-3.0305487e-20
129	0x9f8345f0	-5.559636e-20
130	0x9fceb520	-8.754404e-20
131	0x9e1c6c81	-8.281009e-21
132	0x9fcbf066	-8.637155e-20
133	0x9f7f38b2	-5.4045248e-20
134	0x9fb447d7	-7.6351814e-20
135	0x9f68a9ff	-4.926853e-20
136	0x1e2477e2	8.706879e-21
137	0x1c418071	6.402435e-22
138	0x9e41708f	-1.02406115e-20
139	0x9effe01c	-2.7091865e-20
140	0x9f3fd58f	-4.0622475e-20
141	0x9ddea004	-5.8928363e-21
142	0x9dbc5e98	-4.9860993e-21
143	0x9f187550	-3.228429e-20
144	0x9ea43a22	-1.7388219e-20
145	0x9efae55a	-2.6564637e-20
146	0x9f15534c	-3.162088e-20
147	0x9f69bd36	-4.949618e-20
148	0x1eb1629b	1.8781386e-20
149	0x9da19402	-4.276938e-21
150	0x1ecf365e	2.1939463e-20
151	0x9f22d3f6	-3.4480164e-20
152	0x9d8141a3	-3.4213882e-21
153	0x1ec49087	2.0812082e-20
154	0x9d830ceb	-3.468877e-21
155	0x1cd5635c	1.4120841e-21
156	0x1ee6f1de	2.4452231e-20
157	0x9f6b9360	-4.988509e-20
158	0x9eaecdea	-1.850813e-20
159	0x9f39f091	-3.9374266e-20
160	0x1e3311f4	9.479894e-21
161	0x9e82e8af	-1.3860521e-20
162	0x9efa72a1	-2.6517189e-20
163	0x9e816cc8	-1.3703397e-20
164	0x9f552c87	-4.5141337e-20
165	0x9e0a4f22	-7.3220235e-21
166	0x9defbdef	-6.345916e-21
167	0x1debbdbf	6.2400175e-21
168	0x1b993a1d	2.5349282e-22
169	0x9e1a7bd1	-8.178297e-21
170	0x1d868302	3.5604964e-21
171	0x1e3c2e5b	9.962223e-21
172	0x1ec318b6	2.0656648e-20
173	0x9cb3049d	-1.1846419e-21
174	0x9f8b25c3	-5.893126e-20
175	0x9f8df224	-6.011641e-20
176	0x9e81f395	-1.375915e-20
177	0x1f148e2a	3.1457814e-20
178	0x1d8eb9ee	3.7779334e-21
179	0x9edae28d	-2.3175347e-20
180	0x9eac4d78	-1.8243249e-20
181	0x9f833750	-5.5572165e-20
182	0x9f31ec1f	-3.7676523e-20
183	0x1f2a2adc	3.6034353e-20
184	0x9d8271a8	-3.452823e-21
185	0x9f0d7cbe	-2.9961096e-20
186	0x1dc17101	5.1203518e-21
187	0x1e2fe33a	9.311412e-21
188	0x9e3c5880	-9.9709385e-21
189	0x9e11e75e	-7.724082e-21
190	0x1daf409b	4.6388915e-21
191	0x9f3565d5	-3.8412474e-20
192	0x3f1b8499	0.607492
193	0x36043631	1.9701076e-06
194	0xaa8e2972	-2.5253026e-13
195	0x21853490	9.026344e-19
196	0x3f27ff8a	0.65624297
197	0x3ed7dd78	0.42161155
198	0x3e88d506	0.26725024
199	0x217e4fcc	8.616416e-19
200	0xbcf7e16a	-0.030258853
201	0x3d4276ea	0.047476687
202	0x1f9d7a23	6.6694145e-20
203	0x38754403	5.8475893e-05
204	0x3bc29e20	0.00593926
205	0x21efb8ad	1.6244153e-18
206	0x3f1b333c	0.6062505
207	0xbd925509	-0.071451254
208	0x3bb5996f	0.0055419724
209	0xbd224081	-0.039612297
210	0x320d64b8	8.230181e-09
211	0x3c5e7549	0.013577768
212	0x20fc7733	4.276934e-19
213	0x206e6001	2.0191149e-19
214	0x3e98906e	0.2979769
215	0x3bed56ae	0.007242999
216	0x3d85bb4f	0.06529867
217	0x28139e6a	8.19449e-15
218	0x2207e3a1	1.8416417e-18
219	0x210110b6	4.3729017e-19
220	0x228e30e6	3.854095e-18
221	0x2b7d6e9a	9.0037147e-13
222	0x221d877b	2.134919e-18
223	0xb8bc34dc	-8.9743844e-05
224	0xb8ff37ae	-0.00012169719
225	0x22b2ba66	4.8444354e-18
226	0xbc976444	-0.018480428
227	0x214e6327	6.992674e-19
228	0x3d6334b1	0.055470172
229	0x2414e73a	3.228824e-17
230	0x21581af3	7.3219314e-19
231	0x2174df04	8.2965574e-19
232	0x3bede761	0.0072602485
233	0xa31f094e	-8.621378e-18
234	0x1e1c8c1c	8.287545e-21
235	0x350c3269	5.222742e-07
236	0xbc54c9e0	-0.012987584
237	0x1c1f641b	5.273807e-22
238	0xbeb4cb8a	-0.35311538
239	0x3e0614d5	0.13093884
240	0x31d4defc	6.1953624e-09
241	0xbda853a5	-0.08219079
242	0xab7fdbbe	-9.089915e-13
243	0xb3f2c5f1	-1.13050085e-07
244	0x3e53629b	0.20643084
245	0x3f1b9394	0.6077206
246	0xbd85f20f	-0.0654031
247	0x3fc3dda2	1.5302012
248	0x9d9a19b5	-4.079004e-21
249	0x24d6059e	9.281722e-17
250	0x2238d4f6	2.504939e-18
251	0x2e809b54	5.848358e-11
252	0x26538ae4	7.339356e-16
253	0xbd101c77	-0.035183396
254	0x358a1510	1.0287931e-06
255	0x2c6b5700	3.3443803e-12

bias f4 [16]
0	0x3ebc9dfb	0.3683928
1	0x3eb4c349	0.3530524
2	0x9f915dd2	-6.15651e-20
3	0x3ca02a09	0.019551294
4	0xa130d9e3	-5.991949e-19
5	0xa3d311a7	-2.2884142e-17
6	0x3d06193f	0.03273892
7	0xbd42b760	-0.04753816
8	0x3f263186	0.64919317
9	0x3d9998e6	0.07499866
10	0xa91c054a	-3.4643546e-14
11	0xbc0ea31a	-0.008705879
12	0x3d2f1fd6	0.04275497
13	0x3ebb783d	0.36615172
14	0x3d7dcd2d	0.06196325
15	0xbc99f42c	-0.018793188

weight f4 [4, 16]
0	0x3f114f60	0.5676174
1	0x3f1b379d	0.60631734
2	0x9db907c9	-4.897714e-21
3	0xbe91aca8	-0.2845204
4	0xa2651229	-3.1044901e-18
5	0x9cb888f7	-1.2211503e-21
6	0xbeae5642	-0.34050184
7	0xbec89301	-0.39174655
8	0x3e8d92d7	0.27651092
9	0x3e888c9a	0.2666977
10	0x2910ca36	3.2149813e-14
11	0xbdb45fb4	-0.088073164
12	0x3cc37a31	0.023861976
13	0x3f0538d0	0.52039814
14	0x3e950e4d	0.29112473
15	0xbfb01dd4	-1.3759103
16	0x3f102dff	0.56320184
17	0x3f133e17	0.57516617
18	0x1e8a0fca	1.4617849e-20
19	0xbec4f8d7	-0.384711
20	0x9dcea76f	-5.470087e-21
21	0x9d27e5c0	-2.2221044e-21
22	0x3d9a3e28	0.075313866
23	0xbed53655	-0.41643015
24	0x3e83b2f7	0.25722477
25	0x3e89ec81	0.2693825
26	0x290cecb2	3.1291545e-14
27	0xbfac1b23	-1.3445781
28	0xbe747fc9	-0.23876871
29	0x3f12ed98	0.5739379
30	0x3e8d4588	0.2759211
31	0xbdc75052	-0.09732117
32	0x3f0f0fa2	0.5588323
33	0x3f11c2dd	0.5693796
34	0x9e64c999	-1.2111909e-20
35	0xbf43d180	-0.76491547
36	0x1e066e21	7.116675e-21
37	0x1dad6e47	4.5906743e-21
38	0xbed31c23	-0.41232404
39	0x3b06f614	0.0020593451
40	0x3e58bba2	0.21165326
41	0xbf5e919c	-0.8694093
42	0x2877eaba	1.37621526e-14
43	0xbcd665a6	-0.026171517
44	0xbedd0fe9	-0.431762
45	0x3f0b3e6e	0.54392135
46	0x3e9c0863	0.3047515
47	0xbcabc40c	-0.020967506
48	0x3f04dff9	0.51904255
49	0x3f1c3072	0.6101142
50	0x9b878f6c	-2.242656e-22
51	0x3cac659a	0.021044541
52	0x9d063645	-1.776281e-21
53	0x24959452	6.4869714e-17
54	0xbecdd431	-0.40200952
55	0xbf5793c5	-0.84209853
56	0x3e6c92f5	0.23102935
57	0x3e8a7e87	0.27049658
58	0x24604421	4.8629965e-17
59	0xbd10a184	-0.035310283
60	0xbeddf7f5	-0.4335324
61	0x3f0f8219	0.5605789
62	0xbf81dc16	-1.014529
63	0xbd22da67	-0.039759066

bias f4 [4]
0	0x3e8706e8	0.26372457
1	0x3e6a11fa	0.2285842
2	0x3c8a62fb	0.0168929
3	0x3ddf2749	0.10896165
