data/189200.pth (torch, 42007 bytes, 6 tensors)

weight f4 [64, 33]
0	0xbd02f32d	-0.03197019
1	0x3c308591	0.010774032
2	0x3d02b324	0.031909123
3	0x3d003fd4	0.03131087
4	0x3ce1efbc	0.027580135
5	0x3cdcd508	0.02695705
6	0x3d93a4c4	0.07209161
7	0x3d52e08a	0.05148367
8	0x3cf6c8d7	0.030125065
9	0x3d4f355a	0.05058799
10	0x3ce55a1a	0.027997065
11	0x3d88e98d	0.06685171
12	0xbd8b01ad	-0.06787429
13	0x3d2e3442	0.042530306
14	0x3ce76a17	0.02824883
15	0x3cdcbf46	0.026946675
16	0x3ceb6170	0.028732985
17	0x3d15022e	0.03637903
18	0x3d0d37aa	0.034476914
19	0x3cd7dee5	0.026351402
20	0x3cdbb12d	0.026817882
21	0x3d0944ad	0.03351276
22	0xbb4a2f4c	-0.0030850945
23	0x3cce7ef4	0.02520702
24	0xbc47d583	-0.012196901
25	0xbee04277	-0.4380071
26	0xbed512f1	-0.41616014
27	0xbed9bc34	-0.425264
28	0xbe956d73	-0.29185066
29	0xbb809ec4	-0.0039251763
30	0xbdba3fc2	-0.09094192
31	0x3e0502a5	0.1298929
32	0xbd4764a1	-0.04867995
33	0x349866b5	2.8386935e-07
34	0x32928f7e	1.706189e-08
35	0x3441038c	1.7975816e-07
36	0x3331ee78	4.142791e-08
37	0xb3ff0430	-1.18751245e-07
38	0x3386700f	6.2602446e-08
39	0x34846458	2.4659926e-07
40	0x3481f43b	2.4205823e-07
41	0x3456ff2e	2.0023137e-07
42	0xb4309208	-1.6444403e-07
43	0xb4724b3a	-2.2565374e-07
44	0x340b34c8	1.2964585e-07
45	0xb49996e8	-2.860827e-07
46	0x348c6a4f	2.6154382e-07
47	0xb38cbc78	-6.55354e-08
48	0x344825e9	1.8640243e-07
49	0xb30729fa	-3.1470314e-08
50	0xb30fa788	-3.344715e-08
51	0x33cb2366	9.459363e-08
52	0x34055861	1.2418742e-07
53	0x342a0f4c	1.5838049e-07
54	0x3340293b	4.4740982e-08
55	0xb1b73a71	-5.332645e-09
56	0x34926f75	2.7275715e-07
57	0x3435ae4b	1.6920346e-07
58	0xb5a29bb6	-1.2115258e-06
59	0xb426cba8	-1.5534044e-07
60	0xb5d5985a	-1.5914077e-06
61	0xb61ac522	-2.3062535e-06
62	0xb4413ea0	-1.7997309e-07
63	0xb51db42a	-5.874923e-07
64	0x33a0f4ba	7.495096e-08
65	0xb49149c2	-2.706202e-07
66	0x23bff2d0	2.0811097e-17
67	0xa19e81a3	-1.0740811e-18
68	0x22c482fb	5.3264587e-18
69	0xa3475ab8	-1.0807022e-17
70	0x22fb10fe	6.8051678e-18
71	0xa35ef31d	-1.2086125e-17
72	0x23883837	1.4768957e-17
73	0xa33f9d1b	-1.0387399e-17
74	0x23d61e6a	2.3214807e-17
75	0xa9f3adbb	-1.0821505e-13
76	0xa9f3bddb	-1.08243025e-13
77	0x23a16856	1.7499843e-17
78	0xa9f44f34	-1.0849516e-13
79	0xa9f427cb	-1.084268e-13
80	0xa9f42b9e	-1.0843343e-13
81	0xa9f41aab	-1.0840403e-13
82	0xa9f3c66a	-1.0825787e-13
83	0x237e46bc	1.3784346e-17
84	0x2405fb34	2.9052555e-17
85	0x21fccab0	1.7129835e-18
86	0x22c3018e	5.28565e-18
87	0xa9f3eb03	-1.0832136e-13
88	0xa9f3f08e	-1.08330974e-13
89	0xa9f3f9ab	-1.0834678e-13
90	0x239e312d	1.7151221e-17
91	0xa9f18659	-1.07258556e-13
92	0xa9f343fb	-1.08031605e-13
93	0xa9f2c6d2	-1.0781449e-13
94	0xa9ed7f00	-1.0546945e-13
95	0x29f0db03	1.06961335e-13
96	0xa9f2bb38	-1.0779436e-13
97	0xa9f4d0c4	-1.0871992e-13
98	0xa9f43cd4	-1.0846329e-13
99	0xa0a4d3a7	-2.792274e-19
100	0xa0a0ebc4	-2.726107e-19
101	0xa0690100	-1.9736199e-19
102	0xa005a9ef	-1.1321765e-19
103	0xa0a091a1	-2.7201423e-19
104	0xa0b07998	-2.9896024e-19
105	0xa09ad8b9	-2.623203e-19
106	0x9e058430	-7.068297e-21
107	0x9fbe4cce	-8.059519e-20
108	0xa0b2840a	-3.024175e-19
109	0xa0833844	-2.2229497e-19
110	0x9d742384	-3.2311492e-21
111	0x2081b245	2.197142e-19
112	0x1dbf9e7e	5.0721156e-21
113	0xa00bbf8e	-1.1837138e-19
114	0xa08ab6c5	-2.3499056e-19
115	0xa001ada5	-1.0984179e-19
116	0x9f91108e	-6.1437276e-20
117	0x9f8effaa	-6.05623e-20
118	0x9fa20676	-6.862036e-20
119	0x9f065fb0	-2.8454755e-20
120	0xa0162af0	-1.2719701e-19
121	0x9e1f0642	-8.418684e-21
122	0x9f998a8e	-6.502724e-20
123	0xa03b70bb	-1.5876815e-19
124	0xa1460f2f	-6.7105105e-19
125	0xa0edf0e3	-4.0308767e-19
126	0xa104215f	-4.4767506e-19
127	0xa121e37c	-5.4849995e-19
128	0x1f0189b0	2.7430705e-20
129	0x9fdf0739	-9.445612e-20
130	0x9fa389fc	-6.926146e-20
131	0x21255b16	5.6024726e-19
132	0xbc0c8234	-0.008575965
133	0xbbb5236b	-0.005527904
134	0xbba1d6d1	-0.004938938
135	0xbc1baa20	-0.00950101
136	0xbad27f35	-0.0016059639
137	0xb6878d73	-4.0397804e-06
138	0xbb10f1a9	-0.0022116697
139	0xbaa04650	-0.0012227986
140	0xbada0111	-0.0016632398
141	0xb97096e8	-0.000229444
142	0xba7af4cf	-0.00095732225
143	0x3c1e46d7	0.009660444
144	0xbcb12d9e	-0.021628197
145	0x3b9b14df	0.0047327126
146	0x3a85d6c2	0.0010211098
147	0x3bfa1522	0.0076319138
148	0x3a839d56	0.0010041397
149	0xbb225bc9	-0.0024773946
150	0x3b6b1781	0.0035872164
151	0x3b6f5505	0.0036519181
152	0xbb33ede9	-0.0027455038
153	0xbc002dfd	-0.007823464
154	0x3b00e222	0.0019666036
155	0x3a89a998	0.0010502813
156	0xbbd464c7	-0.00648174
157	0xbddefcd9	-0.108880706
158	0xbdb969f1	-0.0905341
159	0xbdf109ee	-0.11769472
160	0xbdd56a52	-0.104206696
161	0xbaf57188	-0.0018725852
162	0xbc8e2fd1	-0.017356785
163	0x3ccb489f	0.024814902
164	0xbc67706a	-0.014125923
165	0xbd0bfa48	-0.034174234
166	0xbcdaf385	-0.026727447
167	0xbc010771	-0.007875309
168	0x3cc9eb98	0.024648473
169	0xbb493405	-0.0030701172
170	0x3a8b1bdd	0.0010613162
171	0x3d0d24c2	0.034458883
172	0x3d0bf041	0.03416467
173	0x3c9d7fee	0.01922604
174	0x3c6762a1	0.014122636
175	0xb918a809	-0.00014558448
176	0x3cf5a676	0.029986601
177	0xbd8aa09e	-0.067689165
178	0x3d12e114	0.035859182
179	0x3cb1cd14	0.021704234
180	0x3cefbbaa	0.02926429
181	0x3bf3d854	0.00744156
182	0x3c8986ce	0.016787913
183	0x3d215c4d	0.039394666
184	0x3c0e324a	0.008678982
185	0x3cf20a76	0.029546004
186	0xbc12bf3e	-0.0089567285
187	0x3c55af0f	0.0130422255
188	0xba9088b8	-0.0011027073
189	0xbbe01140	-0.006837994
190	0xbecd0643	-0.4004384
191	0xbea890f3	-0.32923087
192	0xbeccaa77	-0.39973804
193	0xbec1a1f9	-0.37818888
194	0xbc287fbe	-0.010284362
195	0x3d8ea2e4	0.06964663
196	0x3e016ae5	0.12638433
197	0xbd2f14f4	-0.04274459
198	0x3d8ad6fa	0.06779285
199	0xbb9a373b	-0.004706291
200	0x3d97875a	0.07398863
201	0x3d7c41b7	0.061586108
202	0x3d86bd4a	0.06579073
203	0x3ce5cfc6	0.028053176
204	0x3ded8b94	0.11598888
205	0x3daffc56	0.08593051
206	0x3d93601b	0.07196065
207	0x3d4ee24f	0.050508793
208	0x3d534a68	0.05158463
209	0x3d22cf6e	0.0397486
210	0x3da60d90	0.081080556
211	0x3e14df5c	0.1453833
212	0x3e007f79	0.12548627
213	0x3dc2b8a6	0.09507875
214	0x3d5228d4	0.051308468
215	0x3d49ca5b	0.049265247
216	0x3e10c7b8	0.14138687
217	0x3d8644f5	0.06556121
218	0x3d9bc741	0.07606364
219	0x3d80f267	0.062962346
220	0x3dada72a	0.0847915
221	0x3d4ac958	0.049508423
222	0x3d6bb676	0.057547055
223	0xbebd561e	-0.36979765
224	0xbe9ff51e	-0.31241697
225	0xbedddb7d	-0.4333152
226	0xbeb8e809	-0.3611453
227	0x3cbbb775	0.022914628
228	0xbd0be441	-0.034153227
229	0x3deb384a	0.11485346
230	0x3ddce96d	0.1078671
231	0x1f5cccf5	4.675635e-20
232	0xa02ec0be	-1.4802146e-19
233	0x9f07dc04	-2.8769355e-20
234	0x1f1b471d	3.288135e-20
235	0xa0b0fcf8	-2.998296e-19
236	0x9f788aed	-5.263096e-20
237	0x1f8c589d	5.9438905e-20
238	0x9f0e2cca	-3.0106718e-20
239	0x20277b82	1.4186316e-19
240	0xa10a97c7	-4.6957094e-19
241	0x9f4af34f	-4.2976424e-20
242	0x1e87ef00	1.4392529e-20
243	0x1e1f2110	8.424227e-21
244	0x9fb22cf3	-7.5460295e-20
245	0x1f8d51a6	5.98509e-20
246	0xa01e0011	-1.3383143e-19
247	0xa0a63ae2	-2.816046e-19
248	0xa002f63a	-1.1092898e-19
249	0x1e691e41	1.2341174e-20
250	0x1f80a9aa	5.4490794e-20
251	0x1f31b288	3.7628886e-20
252	0x9fed04ad	-1.0038114e-19
253	0x1edbd6eb	2.3276415e-20
254	0x9ecd11a7	-2.171252e-20
255	0xa044b14b	-1.6660507e-19

bias f4 [64]
0	0xbe7f0a27	-0.24906217
1	0xb52ab155	-6.3587987e-07
2	0xa9de020e	-9.859137e-14
3	0xa0de78f1	-3.7688295e-19
4	0xbd99e6df	-0.07514738
5	0xbe83aac2	-0.25716215
6	0xbe40b935	-0.18820651
7	0xa0ec5747	-4.003771e-19
8	0xbdf67f4d	-0.120359994
9	0x3e65cefc	0.2244224
10	0xa09f32a7	-2.6969167e-19
11	0xb6e8dfb5	-6.9401817e-06
12	0xba452eaa	-0.0007521907
13	0xa1b26452	-1.2088304e-18
14	0x3ea0b778	0.31389976
15	0xbdb48700	-0.08814812
16	0xba64b746	-0.00087248196
17	0x3d8ffa91	0.070302136
18	0xb1525681	-3.0608194e-09
19	0x3e8c6e1d	0.2742776
20	0xa04d2827	-1.7377461e-19
21	0x9fbd8888	-8.0270486e-20
22	0xbdec8caf	-0.11550271
23	0xbaee8528	-0.0018197643
24	0x3dc9516d	0.09829984
25	0xa6d725e0	-1.4928888e-15
26	0xa1704df0	-8.141831e-19
27	0xa0444500	-1.6624676e-19
28	0xa1b32337	-1.2138833e-18
29	0xaa06d424	-1.1975192e-13
30	0xa3869ff0	-1.4596045e-17
31	0xb84f4da6	-4.942496e-05
32	0xb83a5ab7	-4.443034e-05
33	0xa3103474	-7.817363e-18
34	0xbda3d589	-0.07999713
35	0xa11cea1a	-5.3164687e-19
36	0x3e4d1801	0.20028688
37	0xa2b9fdfc	-5.0413267e-18
38	0xa0b6f3f7	-3.0993442e-19
39	0xa09e3f9e	-2.680834e-19
40	0xbd05fdd0	-0.032712758
41	0xa3519ff3	-1.1363783e-17
42	0x9d022b49	-1.7227735e-21
43	0xb383555b	-6.115689e-08
44	0xbcce0408	-0.025148407
45	0x9cfaf9c3	-1.6608174e-21
46	0x3e151b8d	0.14561291
47	0x3e3a0694	0.18166572
48	0xb0b7df98	-1.3378552e-09
49	0x3c7f7587	0.015591986
50	0xaac652c6	-3.52293e-13
51	0xb6caac0f	-6.0400994e-06
52	0xbd7390c1	-0.05946422
53	0x3ed83e09	0.4223483
54	0x3d96a7c4	0.073562175
55	0xbcbadd3f	-0.022810576
56	0x9d455a8a	-2.611954e-21
57	0xa390df56	-1.5707098e-17
58	0xa1a82f7c	-1.1396692e-18
59	0xad39e401	-1.05666595e-11
60	0xa62fea79	-6.103309e-16
61	0xbdf29d4e	-0.1184641
62	0xb446ffa4	-1.8533188e-07
63	0xaa38fe78	-1.643077e-13

weight f4 [16, 64]
0	0xbf0e761a	-0.5564896
1	0xb52ef66c	-6.517864e-07
2	0xa5aeda57	-3.033214e-16
3	0x9e76bc1a	-1.306203e-20
4	0xbe9fcad1	-0.31209424
5	0xbf73f9f7	-0.9530329
6	0x3cfec0e5	0.031097839
7	0xa091496a	-2.4612537e-19
8	0xbf005ec2	-0.5014459
9	0x3e4372f5	0.19086821
10	0x206cd7ad	2.0061339e-19
11	0xb7b645ee	-2.1728654e-05
12	0xbb358dd5	-0.0027702947
13	0xa1108018	-4.895863e-19
14	0xbebc2853	-0.36749515
15	0xbf17ba6a	-0.5926882
16	0xb0159889	-5.442265e-10
17	0x3e7aff35	0.24511416
18	0xb169250c	-3.3927021e-09
19	0x3e5164fe	0.20448682
20	0x9fccdbc6	-8.6760945e-20
21	0x9fb5b7ce	-7.696056e-20
22	0xbe8a87d3	-0.2705675
23	0xbb76bd9a	-0.0037649632
24	0x3dd72786	0.10505585
25	0xa7d48052	-5.8980945e-15
26	0xa0b3399a	-3.0361897e-19
27	0x9f937a76	-6.2459516e-20
28	0xa1a8a7a0	-1.1428493e-18
29	0xab199e31	-5.4576054e-13
30	0xa3058d6e	-7.239893e-18
31	0xb20225dc	-7.575604e-09
32	0xb88382d0	-6.2709325e-05
33	0xa34c2a96	-1.106788e-17
34	0xbf3f1a7e	-0.746498
35	0x20a36756	2.7681656e-19
36	0x3e33e85d	0.17569108
37	0xa38be2a8	-1.5166403e-17
38	0x9fbc9dbb	-7.988204e-20
39	0xa006b756	-1.1410902e-19
40	0xbefbd3a9	-0.4918492
41	0xa360b279	-1.2180857e-17
42	0x1ce92543	1.5428279e-21
43	0xb47d40c0	-2.3586017e-07
44	0xbec99a69	-0.39375618
45	0x1c090f44	4.534923e-22
46	0x3ea724bb	0.3264521
47	0xbb62946a	-0.0034573325
48	0xb1a6360d	-4.8373807e-09
49	0xbead0caa	-0.33798724
50	0xa29af1f1	-4.199795e-18
51	0x33ab0b2e	7.9648416e-08
52	0xbdc608a4	-0.09669617
53	0xbf8c5354	-1.096293
54	0x3e6537d5	0.2238458
55	0xbfd20837	-1.6408757
56	0x9d138462	-1.9523728e-21
57	0xa47ea4c2	-5.5217026e-17
58	0xa1294196	-5.734623e-19
59	0xaccf00e1	-5.8833914e-12
60	0xa64b87bf	-7.0613743e-16
61	0xbf00cf62	-0.5031644
62	0xb478189e	-2.3105756e-07
63	0x29c599c3	8.775231e-14
64	0xbeff86c4	-0.49907506
65	0xb4f2a168	-4.519345e-07
66	0xa575bed3	-2.1315016e-16
67	0xa0840f9f	-2.2372007e-19
68	0xbe7b61e5	-0.24549063
69	0xbf64e84f	-0.89416975
70	0xbdb010c4	-0.08596948
71	0xa0ff025c	-4.3200242e-19
72	0xbf0553b1	-0.5208083
73	0x3e3f13fa	0.18659964
74	0x9fe742f9	-9.79431e-20
75	0xb7952069	-1.7777276e-05
76	0xbb035b73	-0.0020043522
77	0xa17b58bb	-8.515954e-19
78	0xbea70156	-0.32618207
79	0xbf8e30e1	-1.1108667
80	0xb04d6940	-7.4728135e-10
81	0x3e59141d	0.21199079
82	0xb131e382	-2.5886213e-09
83	0x3e621300	0.2207756
84	0x9f9b57e5	-6.579046e-20
85	0x9fb2468d	-7.550265e-20
86	0xbe342d99	-0.17595519
87	0xbb404832	-0.0029339907
88	0x3d5aff82	0.053466327
89	0xa7a29a5c	-4.513139e-15
90	0xa0e41fa7	-3.8645648e-19
91	0x9f6b7710	-4.9861672e-20
92	0xa1cf6268	-1.4052914e-18
93	0xaae7664e	-4.110483e-13
94	0xa3151186	-8.081017e-18
95	0xb1c9c3c7	-5.8721272e-09
96	0xb88337dc	-6.2569714e-05
97	0xa3779f2a	-1.3423601e-17
98	0xbf8f23b2	-1.1182768
99	0x1ed841de	2.2897132e-20
100	0x3e2d0834	0.1689766
101	0xa3898997	-1.4911841e-17
102	0x9fbbd562	-7.955059e-20
103	0x1ef72d44	2.6170864e-20
104	0xbf898bb7	-1.0745763
105	0xa3815c50	-1.4025304e-17
106	0x9cb45194	-1.1932488e-21
107	0xb457f8eb	-2.0113991e-07
108	0xbf89b3c6	-1.0757987
109	0x1bca19c9	3.343476e-22
110	0xbc194a4a	-0.009356091
111	0x3e603187	0.21893893
112	0xb1917438	-4.233268e-09
113	0xbe806d3e	-0.25083345
114	0xa0b1df6e	-3.013282e-19
115	0x33b35f56	8.3526785e-08
116	0xbe8907a6	-0.26763648
117	0xbf89e6b6	-1.0773532
118	0x3ea48b33	0.3213745
119	0xbf10e27d	-0.56595594
120	0x1cf6aca4	1.6323541e-21
121	0xa4584406	-4.6895152e-17
122	0xa123b9dc	-5.547253e-19
123	0xad0f107c	-8.132269e-12
124	0xa62fc05f	-6.0976033e-16
125	0xbf0450ab	-0.5168559
126	0xb421684d	-1.5032238e-07
127	0xab6f775a	-8.507549e-13
128	0x9e5aa7bc	-1.15755106e-20
129	0x9ec895d5	-2.1237793e-20
130	0x9f1dea7d	-3.3440007e-20
131	0x9d6f04e8	-3.1633923e-21
132	0x9f1bc872	-3.298833e-20
133	0x9ec2f89f	-2.0643376e-20
134	0x9f09b9d5	-2.9164595e-20
135	0x9eb1bdd5	-1.8819117e-20
136	0x1d7b4ae2	3.3258287e-21
137	0x1b93d317	2.4455524e-22
138	0x9d93c6f8	-3.9116305e-21
139	0x9e4377dc	-1.0348e-20
140	0x9e928c6f	-1.5516433e-20
141	0x9d2a13d5	-2.2509566e-21
142	0x9d0fe7ac	-1.9045664e-21
143	0x9e68eea6	-1.2331329e-20
144	0x9dfaec54	-6.6418807e-21
145	0x9e3fa755	-1.0146059e-20
146	0x9e6424ed	-1.20778556e-20
147	0x9eb29084	-1.8906253e-20
148	0x1e077fcc	7.173268e-21
149	0x9cf6e58a	-1.6338249e-21
150	0x1e1e4ea8	8.380716e-21
151	0x9e78c7dd	-1.31703414e-20
152	0x9cc57b5c	-1.3068254e-21
153	0x1e162977	7.949509e-21
154	0x9cc8404d	-1.3251511e-21
155	0x1c230476	5.393794e-22
156	0x1e30693c	9.339124e-21
157	0x9eb3f640	-1.9054209e-20
158	0x9e058abb	-7.06965e-21
159	0x9e8e0be4	-1.5039753e-20
160	0x1d88cac6	3.6208563e-21
161	0x9dc809f0	-5.2949834e-21
162	0x9e3f50b5	-1.0128146e-20
163	0x9dc5bea7	-5.2342596e-21
164	0x9ea2daad	-1.724286e-20
165	0x9d53505f	-2.7967168e-21
166	0x9d3724b4	-2.4238823e-21
167	0x1d34167c	2.3834426e-21
168	0x1aea1c44	9.68258e-23
169	0x9d6c098a	-3.1239272e-21
170	0x1ccd8678	1.3600521e-21
171	0x1d8fc32a	3.805358e-21
172	0x1e150aa9	7.890199e-21
173	0x9c08c07b	-4.52474e-22
174	0x9ed496f6	-2.2508809e-20
175	0x9ed8e108	-2.296296e-20
176	0x9dc690f5	-5.2560046e-21
177	0x1e62f819	1.2015646e-20
178	0x1cda0f75	1.4430025e-21
179	0x9e27350b	-8.8518754e-21
180	0x9e03a0fa	-6.9683714e-21
181	0x9ec87fe5	-2.122872e-20
182	0x9e87e81b	-1.4389678e-20
183	0x1e81fcd3	1.3762972e-20
184	0x9cc755a2	-1.3190851e-21
185	0x9e5830ef	-1.1445064e-20
186	0x1d13c74f	1.9558328e-21
187	0x1d865ecb	3.556752e-21
188	0x9d8fe30e	-3.8086554e-21
189	0x9d5ef1fd	-2.950656e-21
190	0x1d05e270	1.7719469e-21
191	0x9e8a9673	-1.4673543e-20
192	0x3f3eec76	0.7457956
193	0x3549fe36	7.524826e-07
194	0xa9d933fd	-9.6457544e-14
195	0x20cb83f0	3.4476847e-19
196	0x3e865a41	0.26240733
197	0x3f06081e	0.52356136
198	0x3eb480c7	0.352545
199	0x20c2479f	3.2912273e-19
200	0xbd414bc4	-0.047191396
201	0x3d4704c4	0.04858853
202	0x1ef09db1	2.5476208e-20
203	0x37bb5aad	2.2334361e-05
204	0x3b14ad1d	0.0022686191
205	0x213720af	6.204607e-19
206	0x3f094681	0.53623205
207	0xbdbc7dd6	-0.09203689
208	0x3b0abe43	0.0021170534
209	0xbd20a6c4	-0.03922154
210	0x31580ce6	3.1439469e-09
211	0x3cb5279e	0.022113618
212	0x2040dc91	1.6336012e-19
213	0x1fb618ac	7.7120814e-20
214	0x3e770357	0.24122368
215	0x3b354da2	0.002766468
216	0x3db7d908	0.08976942
217	0x27618c59	3.1301105e-15
218	0x214fa3a6	7.0350915e-19
219	0x20452f09	1.6702112e-19
220	0x21d93f2e	1.4721215e-18
221	0x2ac19c70	3.4392237e-13
222	0x2170b1ee	8.155065e-19
223	0xb80fc816	-3.42802e-05
224	0xb842f7d7	-4.6484023e-05
225	0x2208873c	1.850303e-18
226	0xbd145eae	-0.036223106
227	0x209daaf6	2.6709967e-19
228	0x3d6bea75	0.057596643
229	0x23637f39	1.2332635e-17
230	0x20a5166d	2.7966927e-19
231	0x20bb0cd3	3.1687519e-19
232	0x3b9a9968	0.0047179945
233	0xa272fae5	-3.2929938e-18
234	0x1d6f34d3	3.1658696e-21
235	0x345638dd	1.995099e-07
236	0x3a818fba	0.0009884753
237	0x1b73864a	2.014388e-22
238	0xbec15969	-0.37763527
239	0x3e0083bb	0.12550251
240	0x31229f9c	2.366483e-09
241	0xbdb1ba54	-0.086781174
242	0xaac37487	-3.4719815e-13
243	0xb339771a	-4.318199e-08
244	0x3ea3d821	0.3200083
245	0x3f377ca6	0.71674573
246	0xbd77913b	-0.060441237
247	0x3fc4acde	1.5365255
248	0x9ceb731c	-1.5580751e-21
249	0x24238016	3.5453484e-17
250	0x218d2f4e	9.567053e-19
251	0x2dc47c31	2.2337772e-11
252	0x25a19807	2.8032066e-16
253	0xbd97e85a	-0.074173644
254	0x34d2f830	3.9296128e-07
255	0x2bb3c850	1.2774313e-12

bias f4 [16]
0	0x3eaaef32	0.33385617
1	0x3ea8c8ea	0.32965785
2	0x9ede1d6f	-2.3517338e-20
3	0x3d1e0c96	0.03858622
4	0xa0871a3c	-2.288725e-19
5	0xa32139d9	-8.740077e-18
6	0x3d032caa	0.032025017
7	0xbd2da8a4	-0.042397156
8	0x3f1f5bbe	0.6224936
9	0x3d8f00e3	0.06982591
10	0xa86e669d	-1.3233905e-14
11	0xb98d5721	-0.00026958532
12	0x3d1586ac	0.036505386
13	0x3eaecfc3	0.34142885
14	0x3d388c94	0.04505594
15	0x3bd2d85d	0.006434484

weight f4 [4, 16]
0	0x3f0f61b5	0.56008464
1	0x3f144db1	0.5793105
2	0x9d0d56d4	-1.8706084e-21
3	0xbea9568d	-0.33073846
4	0xa1aefeca	-1.1858141e-18
5	0x9c0cf432	-4.663773e-22
6	0xbe9ef8c1	-0.3104916
7	0xbed2ca1e	-0.41169828
8	0x3e8ae926	0.27131003
9	0x3e9b792b	0.3036588
10	0x285d3abf	1.2280703e-14
11	0xbdc784da	-0.09742136
12	0xbc18499b	-0.009294893
13	0x3f05f6ff	0.5233001
14	0x3eb67045	0.3563253
15	0xbfaf716e	-1.3706491
16	0x3f0c745e	0.5486506
17	0x3f103fdb	0.56347436
18	0x1dd2f02e	5.5834877e-21
19	0xbec2ff9d	-0.38085642
20	0x9d1ddfe1	-2.089452e-21
21	0x9c804497	-8.48806e-22
22	0x3d44044a	0.047855653
23	0xbed925e8	-0.42411733
24	0x3e873125	0.26404682
25	0x3ea2ebd0	0.31820536
26	0x285758dd	1.1954167e-14
27	0xbfa4a64b	-1.2863249
28	0xbe84ae61	-0.2591429
29	0x3f0ab80f	0.541871
30	0x3ea36afa	0.31917554
31	0xbdd62c2c	-0.10457644
32	0x3f0f62ec	0.5601032
33	0x3f1a8ed2	0.60374177
34	0x9daec7f6	-4.626417e-21
35	0xbf44d637	-0.76889366
36	0x1d4d6657	2.7184433e-21
37	0x1d047dd6	1.753511e-21
38	0xbec688c1	-0.3877621
39	0xbc10959f	-0.008824735
40	0x3e623d2d	0.22093649
41	0xbf62f471	-0.8865424
42	0x27bd65d8	5.2568457e-15
43	0xbc8c2a28	-0.017109945
44	0xbecfc612	-0.40580803
45	0x3f0a8154	0.5410359
46	0x3e9c25f0	0.30497694
47	0xbd00bf6a	-0.031432547
48	0x3f015853	0.505254
49	0x3f15b9ed	0.58486825
50	0x9acf2369	-8.56704e-23
51	0x3c208b9b	0.00979891
52	0x9c4d1067	-6.785001e-22
53	0x23e489d3	2.477818e-17
54	0xbed52170	-0.41627073
55	0xbf4d25c8	-0.80135775
56	0x3e72ec3c	0.23722929
57	0x3e8b7f6f	0.27245662
58	0x23ab4f59	1.8573462e-17
59	0xbd6a2f87	-0.05717423
60	0xbee150c2	-0.44006926
61	0x3f0c425a	0.54788744
62	0xbf808106	-1.0039375
63	0xbd464b04	-0.048411384

bias f4 [4]
0	0x3e71791b	0.23581354
1	0x3e5f5410	0.21809411
2	0x3ccb741e	0.024835642
3	0x3dff7845	0.124741115
