data/194400.pth (torch, 42711 bytes, 6 tensors)

weight f4 [64, 33]
000000 14 ef 2c bd 3d 77 23 bd 5a 66 82 3c 19 3b e9 3b
       -0.04222019 -0.039908636 0.015917946 0.0071176407
000010 2d 2c 11 bd a5 bf c7 38 f3 e6 58 3d 71 81 cc 3c
       -0.03544252 9.524756e-05 0.052954625 0.024964066
000020 2d 50 ae 3c 1a 65 92 3c 1d e1 ac 3b 30 54 2c 3d
       0.021278465 0.017870475 0.005275859 0.042072475
000030 4d a8 7c bd ff 9e 99 3c e1 f6 6e ba 4e 25 0f 3d
       -0.06168394 0.018752573 -0.00091157673 0.034947686
000040 61 d2 04 3d 9b 83 06 3d 36 ee 4a 3d b3 ba 56 ba
       0.032427195 0.032840353 0.049543582 -0.00081912725
000050 b9 ac f6 bb 04 7c 09 3c ad 28 d8 bb 5a 7f 82 bc
       -0.0075279144 0.008391384 -0.006596646 -0.015929867
000060 fe c3 78 bc 25 35 ca be 5e f6 c9 be 4e 5b db be
       -0.015183447 -0.3949367 -0.39445776 -0.42843097
000070 c4 6e a8 be 01 ce a5 bc 85 47 ba bd 4b a8 12 3e
       -0.32897007 -0.020239832 -0.090956725 0.14322011
000080 e6 35 25 bd b4 f2 98 33 d1 16 93 31 e1 b4 41 33
       -0.040334605 7.122199e-08 4.280857e-09 4.5100823e-08
000090 cb 91 32 32 84 ed ff b2 62 e9 86 32 ab dd 84 33
       1.0394113e-08 -2.9793917e-08 1.5705783e-08 6.18705e-08
0000a0 e3 68 82 33 2d c3 57 33 d7 34 31 b3 8e 26 73 b3
       6.0726755e-08 5.02361e-08 -4.125908e-08 -5.661291e-08
0000b0 c6 b2 0b 33 e6 22 9a b3 52 e9 8c 33 86 3e 8d b2
       3.2526053e-08 -7.177532e-08 6.561699e-08 -1.6442993e-08
0000c0 e9 db 48 33 4f a3 07 b2 32 2a 10 b2 11 de cb 32
       4.6766136e-08 -7.895166e-09 -8.391497e-09 2.3733294e-08
0000d0 b4 d1 05 33 4b a9 2a 33 8e da 40 32 71 e2 b7 b0
       3.11572e-08 3.973518e-08 1.12255645e-08 -1.3379361e-09
0000e0 c8 f6 92 33 b4 55 36 33 07 31 a3 b4 a4 65 27 b3
       6.843544e-08 4.2453124e-08 -3.0396788e-07 -3.897516e-08
0000f0 54 5c d6 b4 20 51 1b b5 f5 ef 41 b3 d3 44 1e b4
       -3.9927784e-07 -5.786005e-07 -4.5154554e-08 -1.4739935e-07
000100 62 87 a1 32 6c cc 91 b3 c8 a3 c0 22 4a 12 9f a0
       1.8804432e-08 -6.789273e-08 5.2215114e-18 -2.694775e-19
000110 e0 34 c5 21 b6 10 48 a2 a7 f5 fb 21 70 c0 5f a2
       1.3363235e-18 -2.71139e-18 1.7073445e-18 -3.0324011e-18
000120 35 b6 88 22 c2 4b 40 a2 69 e2 d6 22 ba 8d f4 a8
       3.7055793e-18 -2.6060958e-18 5.8244537e-18 -2.7150906e-14
000130 da 9d f4 a8 a7 fd a1 22 33 2f f5 a8 ca 07 f5 a8
       -2.7157899e-14 4.3907702e-18 -2.7220934e-14 -2.7203842e-14
000140 9b 0b f5 a8 aa fa f4 a8 64 a6 f4 a8 10 30 7f 22
       -2.7205497e-14 -2.719815e-14 -2.7161602e-14 3.4584388e-18
000150 87 74 06 23 9e b0 fd 20 df b2 c3 21 fe ca f4 a8
       7.28883e-18 4.2976743e-19 1.3261061e-18 -2.7177476e-14
000160 8b d0 f4 a8 aa d9 f4 a8 d7 c1 9e 22 a9 61 f2 a8
       -2.7179883e-14 -2.7183839e-14 4.303122e-18 -2.690975e-14
000170 fa 23 f4 a8 83 a4 f3 a8 13 57 ee a8 55 b6 f1 28
       -2.7105044e-14 -2.7049765e-14 -2.646107e-14 2.6835449e-14
000180 aa 98 f3 a8 c3 b0 f5 a8 d3 1c f5 a8 fc 68 a5 9f
       -2.7044627e-14 -2.7277122e-14 -2.7212965e-14 -7.00539e-20
000190 22 7e a1 9f a8 d7 69 9f 42 23 06 9f 4a 22 a1 9f
       -6.839482e-20 -4.9518056e-20 -2.8404768e-20 -6.824288e-20
0001a0 af 1b b1 9f b8 64 9b 9f 85 fd 05 9d 76 f9 be 9e
       -7.5008214e-20 -6.581168e-20 -1.773347e-21 -2.0220207e-20
0001b0 5d 27 b3 9f 98 b1 83 9f 83 03 75 9c ef 26 82 1f
       -7.587457e-20 -5.577446e-20 -8.106824e-22 5.512155e-20
0001c0 2d 4d c0 1c 8c 3d 0c 9f c2 34 8b 9f 4d 22 02 9f
       1.2725444e-21 -2.9697064e-20 -5.895607e-20 -2.7556944e-20
0001d0 38 93 91 9e 52 82 8f 9e c7 9b a2 9e 04 d9 06 9e
       -1.541336e-20 -1.5194613e-20 -1.7216845e-20 -7.138779e-21
0001e0 44 b2 16 9f eb 96 1f 9d 8b 16 9a 9e 63 1d 3c 9f
       -3.1911193e-20 -2.1121498e-21 -1.6314708e-20 -3.9834857e-20
0001f0 2f c5 46 a0 71 cb ee 9f b2 9a 04 a0 cd 78 22 a0
       -1.6836495e-19 -1.01133486e-19 -1.1232019e-19 -1.3761903e-19
000200 58 fe 01 1e 8c d4 df 9e 4d 1f a4 9e 67 f0 25 20
       6.8818e-21 -2.369895e-20 -1.7377121e-20 1.4055586e-19
000210 1c 02 0d bb e0 c6 b5 ba 23 6c a2 ba 90 36 1c bb
       -0.002151615 -0.0013868473 -0.0012391846 -0.0023836233
000220 8a 3e d3 b9 30 0a 88 b5 4f 74 11 ba fa d6 a0 b9
       -0.0004029165 -1.0135755e-06 -0.00055486424 -0.00030677748
000230 bc c9 da b9 38 72 71 b8 7b d9 7b b9 83 d7 1e 3b
       -0.00041730504 -5.7565252e-05 -0.00024018243 0.0024237342
000240 f0 d0 b1 bb dd a0 9b 3a 17 50 86 39 c9 f9 fa 3a
       -0.0054265186 0.0011873503 0.00025618143 0.0019147928
000250 a9 16 84 39 1f f1 22 ba 2b ee 6b 3a 59 30 70 3a
       0.00025193885 -0.00062157394 0.00090000284 0.0009162478
000260 3c 91 34 ba a7 a2 00 bb cb 56 01 3a 95 27 8a 39
       -0.00068880967 -0.0019628198 0.00049338926 0.00026350902
000270 38 28 d5 ba 2e ca df bc ee 11 ba bc 44 e5 f1 bc
       -0.0016262596 -0.027318086 -0.022713628 -0.029528268
000280 51 2e d6 bc 82 51 f6 b9 7d b2 8e bb 48 03 cc 3b
       -0.026145132 -0.00046981504 -0.0043547736 0.006225977
000290 67 42 68 bb fe 51 bb bc e4 63 ef ba 6a bc 86 ba
       -0.003543997 -0.022866245 -0.0018264023 -0.001027954
0002a0 ba c9 ba bb dd 5e 63 bb 20 0c ae 3b c2 2a a6 3c
       -0.005700317 -0.0034693994 0.005311504 0.02028406
0002b0 2b fa 1b 3c 16 43 11 3c fb 2b 12 bc 55 d2 a8 bc
       0.009520094 0.008866092 -0.008921619 -0.020608107
0002c0 dd 76 89 3c ff a2 72 bd e5 2b e5 39 ec 44 ef 3b
       0.016780311 -0.059237476 0.00043710988 0.0073019173
0002d0 03 af d7 3c 36 d6 0a bc c4 ed fa 3b 37 4a ae 3c
       0.02632857 -0.008473923 0.0076577384 0.021275623
0002e0 10 b7 60 3c 37 27 b5 3b 53 8e e4 bb d0 0c 99 3b
       0.0137155205 0.0055283564 -0.006974974 0.004670717
0002f0 6c ab bc 3a 6b 23 fd bb 03 1b a9 be cc 43 7d be
       0.001439435 -0.0077251694 -0.3302842 -0.24732894
000300 0c d3 97 be fd 7d 9c be cf d1 d5 3c c5 1a 37 3d
       -0.29653203 -0.3056487 0.026101021 0.044703264
000310 3a a6 9d 3d ed c5 1d bd 6a a1 4e 3d 40 51 02 bb
       0.07697721 -0.038518835 0.050446905 -0.0019884855
000320 a5 2f c2 3d f5 c1 b1 3d 4b c8 bc 3d 21 8f 49 3d
       0.09481744 0.086795725 0.0921789 0.049208764
000330 31 82 f2 3d f7 19 c5 3d 98 7b b9 3d 44 9d 12 3d
       0.11841238 0.09624093 0.09056777 0.03579451
000340 37 04 01 3d bc b8 82 3d 69 80 0e 3d 65 8b f0 3d
       0.03149816 0.063828915 0.03479043 0.117453374
000350 16 9a 99 3d 7b 97 8f 3d 3d 41 52 3d 09 ff 20 3d
       0.07500093 0.070113145 0.051331747 0.03930572
000360 90 4d 14 3e 9a 95 25 3d 76 96 7c 3d 5f c7 e6 3c
       0.14482713 0.040425874 0.06166693 0.02817124
000370 ff e3 ba 3d 9c b9 f5 3c 50 3c 83 3d 7d 38 b7 be
       0.09125518 0.029995732 0.06407988 -0.35785285
000380 06 18 b4 be 2d dc e3 be f5 9b b7 be 83 c4 e9 bb
       -0.35174578 -0.44503918 -0.35861173 -0.0071340217
000390 05 d1 be bc 80 2f 06 3e 24 fa 77 3d 9e 95 5d 1e
       -0.023293028 0.13104057 0.060541287 1.1730583e-20
0003a0 65 5f 2f 9f 03 5a 08 9e 1c d3 1b 1e 4d a0 b1 9f
       -3.71366e-20 -7.218394e-21 8.249288e-21 -7.522761e-20
0003b0 93 6f 79 9e f8 d6 8c 1e 72 af 0e 9e 7e 15 28 1f
       -1.3205023e-20 1.4911986e-20 -7.553699e-21 3.5593162e-20
0003c0 c6 15 0b a0 f8 ad 4b 9e ff 6c 88 1d ba b1 1f 1d
       -1.1780962e-19 -1.07827064e-20 3.61116e-21 2.1135357e-21
0003d0 46 d0 b2 9e 4e d4 8d 1e b8 90 1e 9f 85 d3 a6 9f
       -1.8932623e-20 1.5016763e-20 -3.357751e-20 -7.0653664e-20
0003e0 8f 6f 03 9f ea f4 69 1d 52 1e 81 1e dd 55 32 1e
       -2.7832608e-20 3.096391e-21 1.3670946e-20 9.440998e-21
0003f0 53 db ed 9e 94 9f dc 1d 50 cc cd 9d 68 64 45 9f
       -2.5184061e-20 5.8398515e-21 -5.4474302e-21 -4.1799427e-20

bias f4 [64]
000000 8c 44 7a be 54 4b 2b b4 25 cb de a8 cc 44 df 9f
       -0.24440211 -1.595302e-07 -2.4735051e-14 -9.455799e-20
000010 de 72 9a bc 4c 8f 51 be 7f 9d 49 be ed 2d ed 9f
       -0.018853601 -0.2046482 -0.19688986 -1.0044938e-19
000020 c5 da e0 bd bb 45 82 3e 4e c3 9f 9f e0 b5 e9 b5
       -0.10979227 0.25443825 -6.7662224e-20 -1.7412785e-06
000030 a8 e4 45 b9 a5 07 b3 a0 08 cd 46 3e d0 cc b8 bd
       -0.00018872565 -3.0328838e-19 0.1941415 -0.0902344
000040 47 89 65 b9 c6 23 e1 3d d1 15 53 b0 cd ab 94 3e
       -0.00021890282 0.10993151 -7.6792356e-10 0.29037324
000050 d0 e2 4d 9f 30 35 be 9e 14 49 32 be 7c 60 ef b9
       -4.3598053e-20 -2.013903e-20 -0.1741069 -0.0004565752
000060 c1 81 e4 3d da e9 d7 a5 44 29 71 a0 51 f6 44 9f
       0.11157561 -3.745502e-16 -2.0427148e-19 -4.1708363e-20
000070 89 c6 b3 a0 27 01 71 b2 43 19 87 a2 9f 0c 50 b7
       -3.045516e-19 -1.4028308e-08 -3.661857e-18 -1.2400705e-05
000080 a2 03 3b b7 1c b7 10 a2 cd 1b 86 bd c4 7a 1d a0
       -1.1146914e-05 -1.9612576e-18 -0.06548271 -1.3339037e-19
000090 23 80 73 3e f9 a5 ba a1 f4 9b b7 9f 45 d0 9e 9f
       0.23779349 -1.2647783e-18 -7.776152e-20 -6.7260156e-20
0000a0 79 46 00 bd 48 5f 52 a2 9c a0 02 9c ae ce 83 b2
       -0.031317208 -2.8510749e-18 -4.3220975e-22 -1.5344394e-08
0000b0 2b c0 e6 bc 69 de fb 9b fa 3b 18 3e c9 df 47 3e
       -0.028167805 -4.1668196e-22 0.14866629 0.19518961
0000c0 95 87 b8 af 64 90 10 3d c2 08 c7 a9 b8 66 cb b5
       -3.3565742e-10 0.03529395 -8.8388945e-14 -1.5154574e-06
0000d0 cb 74 c9 bd 40 50 b7 3e 81 25 ab 3d b0 a2 1e bd
       -0.098367296 0.35803413 0.08356763 -0.03872937
0000e0 88 10 46 9c 00 62 91 a2 7b c9 a8 a0 fe 8b 3a ac
       -6.553407e-22 -3.940609e-18 -2.8593636e-19 -2.65099e-12
0000f0 22 89 30 a5 c0 9f f1 bd a2 b5 47 b3 75 a6 39 a9
       -1.5312029e-16 -0.11798048 -4.6498492e-08 -4.122263e-14

weight f4 [16, 64]
000000 d8 08 5f bf 13 95 2f b4 00 79 af a4 14 9c 77 9d
       -0.8712287 -1.6352378e-07 -7.6099134e-17 -3.2770868e-21
000010 7b 5b a0 bd cf 30 4e bf 63 35 fc bd 12 cc 91 9f
       -0.078299485 -0.80543226 -0.1231487 -6.1747495e-20
000020 c7 b1 fe be 10 a2 3c 3e 56 ae 6d 1f eb ed b6 b6
       -0.49745008 0.18421197 5.033091e-20 -5.45172e-06
000030 51 34 36 ba c2 02 11 a0 10 52 7e be fa d1 13 bf
       -0.0006950545 -1.228289e-19 -0.24835992 -0.57742274
000040 dc 1f 16 af 02 3f a0 3e b5 fb 69 b0 09 e8 4a 3e
       -1.3653739e-10 0.3129807 -8.5122603e-10 0.19815077
000050 6e 96 cd 9e 7d 5f b6 9e be 48 b3 be 94 9d 77 ba
       -2.1767436e-20 -1.9309493e-20 -0.35016435 -0.0009445783
000060 c2 30 76 3e 51 44 d5 a6 ed dc b3 9f c9 01 94 9e
       0.24042037 -1.4798361e-15 -7.617494e-20 -1.5670848e-20
000070 9f 41 a9 a0 30 2a 1a aa c3 06 06 a2 f7 9a 02 b1
       -2.8673138e-19 -1.3692584e-13 -1.8163966e-18 -1.9005577e-09
000080 24 fc 83 b7 3e e5 4c a2 a3 c8 30 bf a7 fc a3 1f
       -1.5733829e-05 -2.7768515e-18 -0.6905615 6.9451163e-20
000090 c3 43 32 3e a7 60 8c a2 62 4a bd 9e aa 30 07 9f
       0.17408662 -3.804941e-18 -2.0041917e-20 -2.8627616e-20
0000a0 2e e0 00 bf cd 7f 61 a2 ec fb e9 1b 16 29 7e b3
       -0.5034207 -3.0560843e-18 3.8709417e-22 -5.917635e-08
0000b0 1c 59 bf be 42 8d 09 1b 3b 4f a1 3e 6e 81 12 3c
       -0.37372673 1.1378017e-22 0.3150576 0.008941991
0000c0 8a ce a6 b0 f2 a0 9e be f0 7d 9b a1 26 a6 ab 32
       -1.2136792e-09 -0.30982167 -1.0536544e-18 1.9982576e-08
0000d0 cd 23 35 be c5 46 82 bf 59 b0 80 3e 78 91 cd bf
       -0.17689438 -1.0177847 0.25134543 -1.6060019
0000e0 b6 0b 14 9c 14 8e 7f a3 95 db 29 a0 ea bd cf ab
       -4.898423e-22 -1.3853664e-17 -1.438751e-19 -1.4760946e-12
0000f0 68 42 4c a5 ae be 02 bf 14 fc 78 b3 c1 4f c6 28
       -1.7716679e-16 -0.51072204 -5.7971263e-08 2.2017004e-14
000100 c4 7d 2c bf 4b 7e f3 b3 ce 9e 76 a4 f2 88 84 9f
       -0.67379403 -1.1338542e-07 -5.347726e-17 -5.613073e-20
000110 8d 46 7c bd 47 30 36 bf eb ca 18 be ac eb ff 9f
       -0.06159072 -0.71167415 -0.14921157 -1.0838659e-19
000120 1a c7 17 bf 60 f1 3d 3e f6 14 e8 9e bc a7 95 b6
       -0.5928818 0.18549109 -2.4572625e-20 -4.460073e-06
000130 c6 d4 03 ba 65 3d 7c a0 9f c4 9f bd 24 e9 91 bf
       -0.0005028959 -2.1365544e-19 -0.07801174 -1.1399274
000140 e6 23 4e af b7 ac 8a 3e d5 86 32 b0 22 9b 56 3e
       -1.8748345e-10 0.27084896 -6.494763e-10 0.20957616
000150 e4 e3 9b 9e df e9 b2 9e f0 62 4f be 83 f9 40 ba
       -1.6505517e-20 -1.894321e-20 -0.20252585 -0.0007361399
000160 c8 6f 8a bc ad 2f a3 a6 a4 f1 e4 9f b6 4d 6c 9e
       -0.016899005 -1.132332e-15 -9.696152e-20 -1.2509806e-20
000170 b8 21 d0 a0 4b 38 e8 a9 da 98 15 a2 4f 7b ca b0
       -3.5258884e-19 -1.0312635e-13 -2.0274184e-18 -1.4732481e-09
000180 30 b1 83 b7 16 80 78 a2 5c f1 87 bf d8 05 d9 1d
       -1.5698926e-05 -3.3678075e-18 -1.0620532 5.7445464e-21
000190 df a9 31 3e 96 07 8a a2 0a 82 bc 9e 43 0d f8 1d
       0.17349957 -3.7413007e-18 -1.9959057e-20 6.5658766e-21
0001a0 51 ce 8a bf fa d0 81 a2 e7 f4 b4 9b ea bc 58 b3
       -1.0844213 -3.5186783e-18 -2.9936766e-22 -5.0463235e-08
0001b0 d4 bb 8c bf 88 d3 ca 1a d1 ec 2b bc df 1f 6f 3e
       -1.099482 8.388699e-23 -0.010493473 0.23352002
0001c0 4a f7 91 b0 9e 65 8e be c1 82 b2 9f a9 02 b4 32
       -1.0620422e-09 -0.27811903 -7.5602246e-20 2.0955968e-08
0001d0 c0 d1 96 be 76 90 82 bf 8c 15 97 3e f7 55 09 bf
       -0.29456902 -1.0200336 0.29508626 -0.53646797
0001e0 a3 8c f7 1b 05 08 59 a3 2d 4f 24 a0 26 93 0f ac
       4.0953607e-22 -1.1765292e-17 -1.3917537e-19 -2.0403206e-12
0001f0 08 5f 30 a5 ad 3c 16 bf a2 fd 21 b3 ae 52 70 aa
       -1.5297764e-16 -0.58686334 -3.771641e-08 -2.1344967e-13
000200 65 70 5b 9d d1 4b c9 9d 24 7b 1e 9e 39 e0 6f 9c
       -2.9042515e-21 -5.328265e-21 -8.389915e-21 -7.936827e-22
000210 e2 55 1c 9e f1 a9 c3 9d d3 37 0a 9e 27 61 b2 9d
       -8.276331e-21 -5.1791786e-21 -7.317203e-21 -4.721666e-21
000220 87 2f 7c 1c 6b 5a 94 1a 4c 4e 94 9c 2d 29 44 9d
       8.3441233e-22 6.1357443e-23 -9.814058e-22 -2.5961671e-21
000230 c2 13 93 9d d4 ad 2a 9c 54 6a 10 9c 26 c5 69 9d
       -3.8931005e-21 -5.647295e-22 -4.778303e-22 -3.0939217e-21
000240 f9 d0 fb 9c 45 56 40 9d ea f6 64 9d d6 33 b3 9d
       -1.6663805e-21 -2.5455589e-21 -3.03032e-21 -4.7434503e-21
000250 04 fc 07 1d 84 c5 f7 9b 4f df 1e 1d 86 ac 79 9d
       1.799739e-21 -4.0990364e-22 2.1026574e-21 -3.3044068e-21
000260 58 31 c6 9b cb b0 16 1d 4b f6 c8 9b c7 99 23 1b
       -3.278824e-22 1.9943735e-21 -3.3246388e-22 1.3532732e-22
000270 d5 0a 31 1d 93 99 b4 9d 0e 04 06 9d 8c 8e 8e 9d
       2.3431355e-21 -4.7804395e-21 -1.7736849e-21 -3.7734477e-21
000280 c5 48 89 1c ee bf c8 9c 5d fd 3f 9d a5 74 c6 9c
       9.08471e-22 -1.3284502e-21 -2.5409625e-21 -1.3132693e-21
000290 02 70 a3 9d b4 0f 54 9c b1 cc 37 9c d1 b9 34 1c
       -4.3261554e-21 -7.016521e-22 -6.081418e-22 5.9797166e-22
0002a0 ea f2 ea 19 33 e0 6c 9c 1e 41 ce 1b d2 45 90 1c
       2.4293145e-23 -7.837562e-22 3.4121922e-22 9.547169e-22
0002b0 fc 91 15 1d 79 3e 09 9b f5 5a d5 9d 4d a5 d9 9d
       1.9795458e-21 -1.135256e-22 -5.6474678e-21 -5.761034e-21
0002c0 f0 46 c7 9c 6d c5 63 1d 1c d8 da 1b 0a cf 27 9d
       -1.3187052e-21 3.0145267e-21 3.6204732e-22 -2.2209303e-21
0002d0 4e 1a 04 9d e1 35 c9 9d 18 66 88 9d 7b 71 82 1d
       -1.7483654e-21 -5.3259966e-21 -3.6104463e-21 3.452805e-21
0002e0 9d 0b c8 9b eb f4 58 9d a3 4e 14 1c 1e d8 86 1c
       -3.309473e-22 -2.8713982e-21 4.907073e-22 8.923241e-22
0002f0 b6 65 90 9c 4d bf 5f 9c c5 5b 06 1c 71 14 8b 9d
       -9.555412e-22 -7.403176e-22 4.445549e-22 -3.681413e-21
000300 b0 96 68 3f 40 b7 4a 34 39 fa d9 a8 96 3e cc 1f
       0.9085493 1.8879382e-07 -2.4200356e-14 8.65009e-20
000310 93 d3 86 3d b5 5d cf 3e ac 99 f9 3e f2 f8 c2 1f
       0.06583323 0.4050118 0.48750055 8.257404e-20
000320 16 59 3d bc ab 83 51 3d 03 79 f1 1d 55 07 bc 36
       -0.011556884 0.05115096 6.3917292e-21 5.60369e-06
000330 70 34 15 3a ac c8 37 20 f3 34 93 3e 18 f6 a1 bd
       0.0005691713 1.55671e-19 0.28751335 -0.07908267
000340 41 3c 0b 3a c9 39 71 bc e5 d0 58 30 50 c5 15 3d
       0.0005311408 -0.01472325 7.88772e-10 0.036565125
000350 e4 8d 41 1f a9 c0 b6 1e af d4 8f 3e 48 f2 35 3a
       4.098671e-20 1.9349682e-20 0.28091952 0.0006940705
000360 aa 41 32 be a9 59 62 26 fa 62 50 20 05 e5 45 1f
       -0.17407861 7.8531013e-16 1.7651034e-19 4.1905813e-20
000370 ac 05 da 20 fe 4e 07 2a 3e 8d 71 20 be 4a 10 b7
       3.693439e-19 1.2017815e-13 2.0460227e-19 -8.600471e-06
000380 2a a9 43 b7 3a 05 09 21 a5 6b 45 3b 9f 3b 9e 1f
       -1.1662292e-05 4.6424323e-19 0.0030123976 6.701424e-20
000390 74 0d 6a 3d 38 4f 64 22 c2 ab a5 1f 7d b9 bb 1f
       0.057141736 3.09417e-18 7.016437e-20 7.9504445e-20
0003a0 2b 46 84 3c ae d9 73 a1 24 10 70 1c dc fc 56 33
       0.01614674 -8.26197e-19 7.94302e-22 5.0055732e-08
0003b0 a2 24 0d bc 44 66 74 1a be de 8c be 18 ac f3 3d
       -0.008614691 5.0540627e-23 -0.2751369 0.11898059
0003c0 ed 34 23 30 ed 4c e8 bc da 25 c4 a9 17 1f 3a b2
       5.9374267e-10 -0.028356994 -8.710715e-14 -1.0833694e-08
0003d0 46 c3 e0 3e ae 35 41 3f 87 1a b5 bd 23 1b bf 3f
       0.43898982 0.75472534 -0.0884295 1.4930156
0003e0 c2 49 ec 9b 67 15 24 23 f6 b1 8d 20 e7 2d c5 2c
       -3.909059e-22 8.89499e-18 2.4004094e-19 5.604173e-12
0003f0 5c 2d a2 24 7e 18 3d 3b 83 b7 d3 33 a3 6b b4 2a
       7.033314e-17 0.002885371 9.858834e-08 3.204911e-13

bias f4 [16]
000000 2c df b4 3e cc 6f b5 3e 29 e7 de 9d ba f1 04 3d
       0.35326517 0.35436857 -5.9001925e-21 0.03245709
000010 91 93 87 9f bc ce 21 a2 5c 9e d4 3c 35 48 3e bd
       -5.741885e-20 -2.1929013e-18 0.025954418 -0.04645558
000020 8b 0f 23 3f 4e b1 cf 3d ed 41 6f a7 45 c7 1a bb
       0.6369559 0.1014124 -3.3203651e-15 -0.002361731
000030 6d 69 4a 3d 2b 28 bb 3e 87 72 30 3d 87 a4 8d bb
       0.049416948 0.36554083 0.04307797 -0.0043225917

weight f4 [4, 16]
000000 e1 6f 0d 3f c6 0d 16 3f 7e d9 0d 9c cd ea a4 be
       0.5524884 0.58614767 -4.693409e-22 -0.3221039
000010 71 9d af a0 da 76 0d 9b fc 09 90 be 71 94 cd be
       -2.975034e-19 -1.170165e-22 -0.28132617 -0.40152314
000020 c0 08 8b 3e 6e 54 9f 3e 66 03 5e 27 fa 72 a0 bd
       0.27155113 0.31119102 3.0810531e-15 -0.0783443
000030 29 3c 28 3c 84 0f 06 3f 12 25 aa 3e ec 84 ae bf
       0.01026825 0.52367425 0.33231407 -1.3634315
000040 f7 a7 0f 3f c8 e8 16 3f 81 af d3 1c 18 55 c0 be
       0.5611567 0.58948946 1.4008175e-21 -0.3756492
000050 8a 70 1e 9c 3f b9 80 9b da 06 ed 3c 49 a6 d7 be
       -5.242327e-22 -2.1295536e-22 0.028933931 -0.42119053
000060 af 2a 91 3e f3 e0 87 3e d9 1c 58 27 17 f2 aa bf
       0.28352877 0.2653881 2.999166e-15 -1.335513
000070 47 8a 7e be e4 f8 0c 3f 14 36 80 3e 88 5c c4 bd
       -0.24857436 0.55067277 0.25041258 -0.095879614
000080 bb 02 13 3f d1 2b 1e 3f a0 66 af 9c 15 72 36 bf
       0.5742604 0.6178561 -1.1607057e-21 -0.71267825
000090 00 21 4e 1c 29 f7 04 1c ba 7c cb be 9e ff 07 bc
       6.8202334e-22 4.3994583e-22 -0.39743596 -0.00830069
0000a0 e5 ad 59 3e 71 f8 4c bf 80 12 be 26 7b 56 e8 bc
       0.21257742 -0.8006659 1.3188913e-15 -0.02836155
0000b0 5d 3a e1 be d2 54 08 3f 9b 94 77 3e 52 11 a7 bc
       -0.4398984 0.53254426 0.24177782 -0.020394001
0000c0 40 a3 02 3f 8a b3 24 3f 4f e1 cf 99 c3 f4 12 bb
       0.5103035 0.64336455 -2.14943e-23 -0.0022423721
0000d0 10 cb 4d 9b d0 5b e5 22 58 00 de be 70 bd 55 bf
       -1.7022816e-22 6.2167785e-18 -0.43359637 -0.83492184
0000e0 31 2f 77 3e d1 76 90 3e 62 ec ab 22 6b a8 61 bd
       0.24139096 0.2821565 4.6599923e-18 -0.055092257
0000f0 e3 b9 d8 be f5 02 0e 3f e5 25 82 bf 63 66 1d bd
       -0.4232932 0.5547326 -1.0167814 -0.03842772

bias f4 [4]
000000 fe 76 77 3e 16 7b 72 3e e3 6d 64 3c bc 89 f9 3d
       0.24166486 0.23679766 0.013942215 0.12184474
