data/203200.pth (torch, 43863 bytes, 6 tensors)

weight f4 [64, 33]
00000000: c461 a9bb 5cfc b0b9 1a52 64bc 27e9 31bc
00000010: 3fa9 4d3c 6d43 843b 9b78 f73b 3a5c 40ba
00000020: 1427 d83b b10a d13b 982d 473b 0daf 23ba
00000030: 13a9 3ebd 9f81 3c3d 32cf 4e3c 413a f13b
00000040: c9a6 a73c 3f2a 8a3c a9f9 043d c8dc 343c
00000050: c5a7 3f3b 0a88 dabb 9d88 adbb 1a79 213c
00000060: 21f8 0dbd b19a e2be 47d6 d3be 43e2 bbbe
00000070: 6550 a8be 1fd0 b03c 45e7 e3bd 833d ff3d
00000080: 6ddd a9bc d450 dc31 c6df d32f 1d82 8b31
00000090: 709c 8030 4952 38b1 dd58 c230 c45f bf31
000000a0: c7de bb31 fc62 9b31 5e46 7fb1 4820 afb1
000000b0: 203b 4931 d904 deb1 0eff ca31 c678 cbb0
000000c0: f6a8 9031 9868 43b0 b1a6 4fb0 60d2 1231
000000d0: 1bc0 4031 cbd7 7531 fce6 8a30 0670 04af
000000e0: 7eb2 d331 7f51 8331 5c12 ebb2 8823 71b1
000000f0: ac62 1ab3 f1bb 5fb3 17ac 8bb1 7af7 63b2
00000100: 09b0 e830 180b d2b1 11c0 0a21 be21 e59e
00000110: a809 0e20 1217 90a0 8f73 3520 9f22 a1a0
00000120: 13ec c420 8681 8aa0 70c2 1a21 e21e 30a7
00000130: 4e2a 30a7 8258 e920 4391 30a7 5875 30a7
00000140: 0d78 30a7 0c6c 30a7 5e30 30a7 e1c9 b720
00000150: 14ae 4121 cfb5 361f a8ed 0c20 4a4a 30a7
00000160: 374e 30a7 ac54 30a7 f2ac e420 dc91 2ea7
00000170: fad3 2fa7 b179 2fa7 6da5 2ba7 e915 2e27
00000180: 4c71 2fa7 31ef 30a7 3f84 30a7 cc43 ee9d
00000190: 07a3 e89d 796b a89d 4d37 419d 2f20 e89d
000001a0: 6e22 ff9d acd8 df9d 2200 419b 1f8c 099d
000001b0: 4607 019e bcb4 bd9d 5172 b09a 297d bb1d
000001c0: 8a82 0a1b 9103 4a9d 1a85 c89d 4f76 3b9d
000001d0: 55b7 d19c 0eb5 ce9c d03b ea9c f140 429c
000001e0: 6715 599d 42e2 659b 22f3 dd9c fa77 879d
000001f0: 0e29 8f9e 9bf9 2b9e 7500 3f9e 8b09 6a9e
00000200: 1841 3b1c ca30 219d e368 ec9c b40a 6f1e
00000210: 7622 4bb9 55ea 02b9 51f7 e9b8 ca0b 61b9
00000220: 4e23 18b8 f9f9 c3b3 168a 51b8 d9b2 e7b7
00000230: dd92 1db8 a3e4 adb6 6e5f b5b7 69cc 6439
00000240: b012 00ba e130 e038 d078 c137 a9bf 3439
00000250: 9144 be37 79b6 6ab8 ecea a938 cbfb ac38
00000260: c009 82b8 d249 39b9 374d 3a38 4b00 c737
00000270: 9886 19b9 7b29 21bb 1904 06bb dc37 2ebb
00000280: ca41 1abb 6b64 31b8 278c cdb9 5bed 123a
00000290: e345 a7b9 07c1 89bb b244 c2ba 5694 b9ba
000002a0: d788 06ba 4dbb d6ba dd2e e3ba 4300 9c3a
000002b0: 1062 91b9 e88b 0cba 0e5c 0bbb 6750 50bb
000002c0: 65a4 c7ba 3871 d5bb b220 9dba b10b 593a
000002d0: 7d06 273b fa8a 08bb d0ef a63a 51a1 863a
000002e0: 4db0 a439 9897 603a 2dcf 23ba 004e 6cba
000002f0: 8edd 0739 034f 36ba 7673 febc 2802 c0bc
00000300: ee40 e3bc 31ba e9bc f712 8b3a 6604 883b
00000310: 135e bc3b 3d42 98bb 699d de3c ad06 0a3c
00000320: 72c4 613d a8c1 3f3d 2ae0 453d ab02 ef3c
00000330: e2f0 ae3d 5ed3 453d c523 363d ba66 613d
00000340: 8c39 563d a4fe 3e3d 688d 2cbd 3830 e93d
00000350: 3729 3f3d 1b17 f73c f985 863d c47b 683d
00000360: a91b 413d 78e8 233d 8166 293d 47a8 953c
00000370: b7fa 0d3d bdbf b73c 16f5 043d b580 5ebe
00000380: c22f b2be 2969 00bf d00e 91be 222b 6fbd
00000390: c525 0fbd 889c e83d cb3a e8bc f796 9f1c
000003a0: 649e 7c9d 516a 449c 947a 601c e2df ff9d
000003b0: 14a6 b39c d9e4 ca1c ce87 4d9c ff1d 721d
000003c0: 5658 489e 81af 929c 0985 c41b 2b09 661b
000003d0: 11c9 009d c04e cc1c a865 649d 6a53 f09d
000003e0: c156 3d9d 7680 a81b e9fb b91c a171 801c
000003f0: b94c 2b9d 95e5 1e1c b438 149c c82b 8e9d
-0.0051691253 -0.00033757358 -0.01393559 -0.0108588105 0.012552558 0.004036358 0.007552219 -0.00073379616
0.0065964554 0.0063794483 0.0030392166 -0.0006244041 -0.04654796 0.046022054 0.012622641 0.0073616807
0.020465272 0.016865848 0.032464657 0.0110389665 0.0029244286 -0.006669049 -0.0052958266 0.009855533
-0.034660462 -0.44258645 -0.41374418 -0.36696061 -0.32873836 0.021583615 -0.111280955 0.12462904
-0.020735467 6.412032e-09 3.8539677e-10 4.0602246e-09 9.357688e-10 -2.6822298e-09 1.4140614e-09 5.569719e-09
5.467743e-09 4.522347e-09 -3.7147383e-09 -5.0968403e-09 2.9282958e-09 -6.4616015e-09 5.90797e-09 -1.480452e-09
4.21016e-09 -7.1089223e-10 -7.5543044e-10 2.136538e-09 2.8048877e-09 3.5774856e-09 1.0106471e-09 -1.2045129e-10
6.1612004e-09 3.821867e-09 -2.736595e-08 -3.5090313e-09 -3.594566e-08 -5.2092165e-08 -4.064997e-09 -1.3269409e-08
1.6930254e-09 -6.1130656e-09 4.7010416e-19 -2.4260274e-20 1.2031063e-19 -2.4409816e-19 1.5369531e-19 -2.729737e-19
3.3359912e-19 -2.346382e-19 5.2434565e-19 -2.4441648e-15 -2.444784e-15 3.9530305e-19 -2.4503653e-15 -2.4488519e-15
-2.4489986e-15 -2.4483479e-15 -2.4451126e-15 3.1134998e-19 6.5621334e-19 3.8690388e-20 1.1937095e-19 -2.4465179e-15
-2.4467307e-15 -2.4470807e-15 3.8739148e-19 -2.4226421e-15 -2.4401041e-15 -2.4352098e-15 -2.3820695e-15 2.4159228e-15
-2.4347547e-15 -2.4554572e-15 -2.4496597e-15 -6.3068176e-21 -6.1578455e-21 -4.4580354e-21 -2.5571927e-21 -6.1443166e-21
-6.7533537e-21 -5.925164e-21 -1.5964629e-22 -1.820424e-21 -6.830707e-21 -5.021476e-21 -7.297658e-23 4.96279e-21
1.1457272e-22 -2.6736321e-21 -5.3077183e-21 -2.4810408e-21 -1.387785e-21 -1.3678738e-21 -1.5500282e-21 -6.427315e-22
-2.8730776e-21 -1.9015544e-22 -1.4687402e-21 -3.5858255e-21 -1.5157694e-20 -9.104282e-21 -1.011155e-20 -1.238983e-20
6.195724e-22 -2.1333396e-21 -1.5644283e-21 1.2654768e-20 -0.00019372426 -0.00012485062 -0.00011156372 -0.00021462064
-3.6272504e-05 -9.125865e-08 -4.9958086e-05 -2.7620628e-05 -3.7568494e-05 -5.1824186e-06 -2.162132e-05 0.00021819923
-0.0004885597 0.00010690257 2.306365e-05 0.00017237537 2.2681694e-05 -5.595989e-05 8.1023056e-05 8.248499e-05
-6.200699e-05 -0.00017670475 4.4417768e-05 2.3722785e-05 -0.00014641357 -0.0024591375 -0.002044922 -0.0026583588
-0.0023537748 -4.229361e-05 -0.0003920507 0.0005604827 -0.00031904792 -0.004203919 -0.0014821498 -0.0014158587
-0.0005132085 -0.0016382724 -0.0017332692 0.0011901933 -0.00027729617 -0.0005361424 -0.0021264586 -0.0031786205
-0.0015231489 -0.006513741 -0.0011987893 0.0008279635 0.0025486045 -0.002083479 0.0012736265 0.0010271465
0.00031411872 0.0008567511 -0.0006248828 -0.00090143085 0.00012957139 -0.00069545227 -0.031060915 -0.023438528
-0.027740922 -0.028531166 0.001061051 0.004150915 0.005748519 -0.004646568 0.027174668 0.008424443
0.055118985 0.046815544 0.048309483 0.029176077 0.085420385 0.04829728 0.044467706 0.05502961
0.052300975 0.046629563 -0.042127043 0.1138615 0.046670165 0.030162385 0.06568522 0.056758657
0.04714552 0.04001662 0.04135752 0.018268717 0.03466293 0.022430295 0.032460295 -0.21728785
-0.3480206 -0.5016046 -0.28331614 -0.058390744 -0.03494813 0.11357981 -0.028348347 1.0560761e-21
-3.3433808e-21 -6.498837e-22 7.427381e-22 -6.7729427e-21 -1.1888157e-21 1.3426394e-21 -6.8004334e-22 3.204394e-21
-1.0606179e-20 -9.706836e-22 3.2511452e-22 1.9028116e-22 -1.7044608e-21 1.3519944e-21 -3.0228104e-21 -6.361372e-21
-2.5058792e-21 2.7876285e-22 1.230739e-21 8.499702e-22 -2.2671326e-21 5.2574543e-22 -4.904238e-22 -3.7632356e-21

bias f4 [64]
00000000: dd9e 85be 7bc3 76b2 cc75 20a7 83cb 209e
00000010: 7777 deba ba9e a0bc 2a76 48be 54d0 2a9e
00000020: 3667 eabd fbf9 473e b122 e69d 3d53 28b4
00000030: da87 8eb7 9ef0 009f f75b c63d f320 eabd
00000040: 624f a5b7 644f 903d 8405 98ae cba5 5f3e
00000050: 0449 949d e5fc 089d 4b3e 58be 6c65 2cb8
00000060: e9b0 e13d 9e7e 1ba4 dcaf ad9e fcdb 8d9d
00000070: f778 019f dc92 adb0 d89e c2a0 68d7 95b5
00000080: ffb1 86b5 0b75 50a0 260c 8ebd f5d7 629e
00000090: 3ccc 3b3e 066f 06a0 1f3d 049e e6c1 e49d
000000a0: df58 fabc f27f 97a0 4230 3c9a 21de bdb0
000000b0: d2ad d4bc f662 359a 7de9 263e 4946 373e
000000c0: 4ce7 04ae bc74 2d3d 9259 0fa8 d97b 12b4
000000d0: 30af 39be f601 f53e 9317 3a3d e391 eebc
000000e0: 5aa7 8e9a 436f d1a0 541e f39e 415c 86aa
000000f0: f44f 7ea3 403a e4bd b0d5 8fb1 7cb6 85a7
-0.26097766 -1.4363532e-08 -2.2268318e-15 -8.512415e-21 -0.0016972859 -0.019606937 -0.19576326 -9.042806e-21
-0.11445467 0.19528954 -6.0916363e-21 -1.5676501e-07 -1.699098e-05 -2.7304088e-20 0.0968551 -0.11432066
-1.9706498e-05 0.070463926 -6.9131395e-11 0.21840589 -3.925077e-21 -1.8130194e-21 -0.21117513 -4.1102452e-05
0.11020071 -3.3717516e-17 -1.8389821e-20 -3.7549848e-21 -2.7416872e-20 -1.2629147e-09 -3.2969992e-19 -1.1164057e-06
-1.0035582e-06 -1.7657012e-19 -0.06935911 -1.2008999e-20 0.18339628 -1.1386976e-19 -7.000661e-21 -6.0551584e-21
-0.030559955 -2.5665062e-19 -3.891647e-23 -1.3814693e-09 -0.02596179 -3.7509863e-23 0.16300006 0.17897905
-3.0218758e-11 0.042347655 -7.957517e-15 -1.3642365e-07 -0.18133235 0.4785306 0.04543264 -0.029122299
-5.9000195e-23 -3.5479604e-19 -2.5741169e-20 -2.3867196e-13 -1.3786298e-17 -0.11143923 -4.186141e-09 -3.7112766e-15

weight f4 [16, 64]
00000000: 5a99 79bf c4eb 7cb2 4bc3 fca2 7455 b29b
00000010: 94ff e6bb 9281 94bd 4049 c2be 970a d29d
00000020: 8100 e7be e256 293e 702c ab1d 6cbf 03b5
00000030: 6239 83b8 cde3 509e c64d 61be fd2d 18bf
00000040: 6041 58ad 91c5 6b3e 5685 a8ae 9606 353e
00000050: a511 149d 9058 039d 4148 b4be 8c56 b2b8
00000060: 3c88 9c3e a89a 19a5 f688 019e 4d30 d59c
00000070: a3cc f39e 4a0f 5ea8 a40d 41a0 3a28 3caf
00000080: d21e beb5 2f91 93a0 224d 28bf 1237 ec1d
00000090: f119 203e 4636 caa0 8d51 089d 0bc1 429d
000000a0: 5b27 fabe c766 a2a0 7d85 281a 8d0c b7b1
000000b0: 54f8 dabe 5f21 4619 e378 743e fa91 61bd
000000c0: 524c f0ae 4254 9bbe a9fd df9f 2b46 f730
000000d0: c5ad 4dbe ddd5 57bf d037 0d3e 0833 d3bf
000000e0: ab3e 559a 940d b8a1 94ac 749e bd9f 15aa
000000f0: 1f1b 93a3 56d8 f1be 9453 b3b1 bed4 0e27
00000100: 64ef 4fbf 9f5e 2fb2 c59c b1a2 33e7 be9d
00000110: 56ad b5bb 7736 83bd 29ad a4be f950 389e
00000120: b967 0ebf b2f9 3e3e 9124 279d 6493 d7b4
00000130: cde6 3db8 cca6 b59e 6f54 33be 5a3d 9dbf
00000140: 3678 94ad 88ac 4b3e 9b94 80ae 6724 4f3e
00000150: 3193 e09c 59db 009d 52d9 9bbe fdfc 8ab8
00000160: 5ed5 303c 6d10 eba4 8de3 249e 7a2f aa9c
00000170: 56e6 159f 7a3e 27a8 d67d 57a0 16d2 11af
00000180: 28b4 bdb5 05fb b2a0 15ee 7cbf 8e4a 1c1c
00000190: df17 353e 11d2 c6a0 59bf 079d f9a7 321c
000001a0: c68c 8fbf f0fd baa0 f150 029a 5d15 9cb1
000001b0: c7a3 8dbf 2311 1219 4662 fb3d efdf 5d3e
000001c0: 4549 d2ae 8e7f 8cbe b291 009e eaa3 0131
000001d0: 30c1 8bbe 49c5 6fbf d3dd 7c3e 4fe0 fcbe
000001e0: 2f4a 321a 274c 9ca1 b5ad 6c9e 17cd 4eaa
000001f0: 0a12 7ea3 388d 0cbf 7958 69b1 a114 ada8
00000200: 020b 9e9b 4ef9 109c 5346 649c d6c1 ac9a
00000210: 4438 619c 12e7 0c9c c117 479c b179 009c
00000220: e89c b51a a8b0 d518 1a9f d59a d444 8d9b
00000230: 73db d39b 64de 759a 9d04 509a 325e a89b
00000240: 5e59 359b ff88 8a9b 4de7 a49b 2e10 019c
00000250: 06e6 431b ab73 329a bdd7 641b 9cd1 b39b
00000260: eabe 0e9a 4513 591b e6bb 109a f0a8 6b19
00000270: 5e0a 7f1b b50f 029c b109 419b d158 cd9b
00000280: 71be c51a e094 109b c649 8a9b 3cef 0e9b
00000290: e36c eb9b 5abc 989a 5260 849a bd26 821a
000002a0: b036 2918 8f98 aa9a 658d 141a 27cf cf1a
000002b0: e473 571b 92af 4599 d4aa 199c 0ac0 1c9c
000002c0: 3886 0f9b c70d a41b 3b9d 1d1a a3b9 719b
000002d0: bf49 3e9b 8ee9 109c 547b c49b 7feb bb1b
000002e0: 6c13 109a 0f3e 9c9b 989f 551a a13f c21a
000002f0: d8fd cf9a d421 a19a e289 411a 6a56 c89b
00000300: 29aa 633f a2fc 9132 44fd 1ca7 5c18 131e
00000310: ff38 c23b 7de0 0c3d c513 ea3e 5e68 0c1e
00000320: c916 16bd 469f 943d 8de9 2d1c 7b68 0735
00000330: 6bec 5638 6b5d 841e dc83 483e 7b4b b1bd
00000340: eb8f 4838 682c 163b a423 9c2e 056f 843d
00000350: 6a66 8b1d be9e 031d e53b 7c3e b109 8338
00000360: bbf5 d1be 3c05 a324 7c14 961e 1e88 8e1d
00000370: 8605 1d1f 5eed 4228 32f8 ad1e 5cd6 4fb5
00000380: 80e6 8cb5 e45c 451f 14b6 a5bc 1eea e31d
00000390: 5dd5 9d3d 0d70 a420 dfa5 ee1d c831 071e
000003a0: 9abe 203d 5c9f af9f 80e4 ac1a 53d5 9a31
000003b0: 496b b93c f202 b018 f53f a3bd e8dd 1f3e
000003c0: f917 6b2e 59c7 4fbd 6042 0da8 9a0d 86b0
000003d0: 9c71 163f 23ff 4b3f ee83 afbc 7468 c03f
000003e0: a42c 2a9a a65a 6c21 b01d cc1e a604 0e2b
000003f0: 149d e922 d6ea 87b9 d37b 1832 e5ee 0129
-0.9749962 -1.47219374e-08 -6.851151e-18 -2.9502853e-22 -0.0070495103 -0.07251276 -0.3794651 -5.5597487e-21
-0.45117572 0.1653705 4.530927e-21 -4.907986e-07 -6.257255e-05 -1.10585364e-20 -0.22002324 -0.5944517
-1.2292695e-11 0.23024584 -7.663441e-11 0.17678294 -1.9596759e-21 -1.7383491e-21 -0.35211375 -8.503822e-05
0.3057269 -1.3323034e-16 -6.857526e-21 -1.4107643e-21 -2.5813262e-20 -1.2326791e-14 -1.6352249e-19 -1.7112792e-10
-1.4165073e-06 -2.4998843e-19 -0.65742695 6.252562e-21 0.15634896 -3.4256046e-19 -1.804161e-21 -2.5775487e-21
-0.4885815 -2.751188e-19 3.4849417e-23 -5.327428e-09 -0.42767584 1.0243099e-23 0.2387424 -0.055070855
-1.09274936e-10 -0.3033772 -9.486382e-20 1.7991558e-09 -0.20085819 -0.84310704 0.13790822 -1.6499949
-4.409799e-23 -1.2471919e-18 -1.2952941e-20 -1.3289279e-13 -1.5949258e-17 -0.47235364 -5.2190874e-09 1.9821786e-15
-0.81224656 -1.0207855e-08 -4.8141932e-18 -5.0531636e-21 -0.005544345 -0.06406873 -0.3216336 -9.757624e-21
-0.5562702 0.18649939 -2.212117e-21 -4.0154112e-07 -4.527606e-05 -1.9233106e-20 -0.17512678 -1.2284348
-1.6879036e-11 0.19890034 -5.847164e-11 0.2022873 -1.4861125e-21 -1.705406e-21 -0.3043924 -6.6274755e-05
0.010793058 -1.0194283e-16 -8.729144e-21 -1.1261929e-21 -3.1742507e-20 -9.28391e-15 -1.8252844e-19 -1.3262311e-10
-1.413403e-06 -3.0320484e-19 -0.98800784 5.171243e-22 0.17684887 -3.3681515e-19 -1.7966026e-21 5.911236e-22
-1.1214836 -3.1677667e-19 -2.6948754e-23 -4.5426263e-09 -1.1065606 7.551484e-24 0.122746035 0.21667455
-9.5627097e-11 -0.27441067 -6.806393e-21 1.8865145e-09 -0.27295828 -0.9366041 0.24693994 -0.49389884
3.6869462e-23 -1.0591129e-18 -1.2529658e-20 -1.836763e-13 -1.37731875e-17 -0.5490298 -3.3956253e-09 -1.9215805e-14
-2.614602e-22 -4.796782e-22 -7.5529764e-22 -7.145069e-23 -7.4518977e-22 -4.6620766e-22 -6.587428e-22 -4.250893e-22
7.511334e-23 5.5237587e-24 -8.835178e-23 -2.3370972e-22 -3.5048838e-22 -5.0844458e-23 -4.301712e-23 -2.785414e-22
-1.5000845e-22 -2.2918717e-22 -2.7280999e-22 -4.270343e-22 1.6204347e-22 -3.6902973e-23 1.8929427e-22 -2.9748523e-22
-2.951913e-23 1.7956046e-22 -2.9930285e-23 1.2183332e-23 2.1096455e-22 -4.3033693e-22 -1.5967717e-22 -3.3971801e-22
8.1784965e-23 -1.1959505e-22 -2.287786e-22 -1.1823265e-22 -3.8947855e-22 -6.3170025e-23 -5.4749534e-23 5.3829325e-23
2.1870348e-24 -7.0556824e-23 3.07199e-23 8.5947866e-23 1.782183e-22 -1.02201174e-23 -5.0844244e-22 -5.1864275e-22
-1.1872051e-22 2.7140427e-22 3.259385e-23 -1.9995035e-22 -1.574026e-22 -4.7947466e-22 -3.250518e-22 3.108874e-22
-2.979419e-23 -2.584814e-22 4.4176286e-23 8.033932e-23 -8.60233e-23 -6.664269e-23 4.0022845e-23 -3.3143068e-22
0.8893152 1.6995106e-08 -2.1786645e-15 7.787153e-21 0.0059272046 0.034393776 0.45718208 7.433121e-21
-0.036642823 0.072569415 5.7542756e-22 5.044346e-07 5.1241757e-05 1.401468e-20 0.1958155 -0.08656975
4.781775e-05 0.0022914652 7.10039e-11 0.06466488 3.6898887e-21 1.7419773e-21 0.24632223 6.248372e-05
-0.4100779 7.069885e-17 1.589034e-20 3.772783e-21 3.3250612e-20 1.0820634e-14 1.8419739e-20 -7.7425443e-07
-1.0497897e-06 4.179321e-20 -0.020228423 6.032847e-21 0.077067114 2.785683e-19 6.3169582e-21 7.157135e-21
0.03924427 -7.437902e-20 7.1506694e-23 4.506242e-09 0.022634165 4.5497908e-24 -0.07971183 0.15611994
5.3454106e-11 -0.050727222 -7.841465e-15 -9.753649e-10 0.58767104 0.7968618 -0.021425214 1.5031877
-3.5191236e-23 8.007988e-19 2.1611619e-20 5.0454985e-13 6.332109e-18 -0.00025924173 8.875719e-09 2.8850962e-14

bias f4 [16]
00000000: fa8d 9b3e f1c0 a83e 8989 209c 07c8 833d
00000010: 9651 c39d 0e15 69a0 ec48 0e3d 2dd1 33bd
00000020: 2f4c 0f3f 13d0 ba3d 544f aca5 b182 973c
00000030: d573 4b3d 9864 a33e 29db 093d 2af9 9c3c
0.30381757 0.32959703 -5.311732e-22 0.064346366 -5.170043e-21 -1.9742834e-19 0.034737512 -0.043900657
0.5597562 0.09121718 -2.9890999e-16 0.018494936 0.049671013 0.31912684 0.033656273 0.01916178

weight f4 [4, 16]
00000000: 6003 123f 50f2 1c3f 2756 4c9a 7cee a9be
00000010: d3f7 fc9e 3ec9 4b99 d19e 99be 107b dbbe
00000020: 2388 7d3e 76bd 6c3e 1de6 9f25 9aa4 80bd
00000030: 58b7 feb9 9f80 093f 5b23 3f3e d66e b1bf
00000040: 35a8 0b3f ace2 123f f775 181b 835b d1be
00000050: ef36 649a 5d6a b999 48ed 273d b777 ecbe
00000060: 4f6e 803e 2b8a 853e 0aa3 9b25 ce33 a5bf
00000070: a262 91be c2f5 0c3f efbc 833e 8620 9dbd
00000080: e28f 103f 0e4e 173f cfa8 fc9a 232d 41bf
00000090: 1a76 941a 0b84 3f1a be0a dbbe 0447 483c
000000a0: a826 493e 9ede 6abf 95e3 0825 9466 debc
000000b0: 17e4 dbbe 9828 093f 81b2 5b3e 053f 12bd
000000c0: 0366 ef3e 7811 193f c6b8 1598 08de e7b9
000000d0: cc37 9499 0d2f 2521 7e72 dabe 9550 66bf
000000e0: d8c1 643e cef2 9d3e 53a9 f720 876d f7bc
000000f0: 346c e1be ecfe 073f 891d 72bf 4a2b 6dbd
0.570364 0.6130724 -4.2255805e-23 -0.33189762 -2.6784036e-20 -1.05354946e-23 -0.3000398 -0.42867327
0.24758963 0.23119149 2.7738034e-16 -0.06281395 -0.00048583257 0.53711885 0.18665831 -1.386195
0.5455354 0.57377124 1.2611262e-22 -0.4089013 -4.719367e-23 -1.9171511e-23 0.040997773 -0.46185085
0.2508416 0.26081976 2.6998693e-16 -1.2906435 -0.28395563 0.55062497 0.25730082 -0.07672219
0.5646955 0.59103477 -1.0449748e-22 -0.754595 6.140217e-23 3.9604538e-23 -0.42781633 0.012223963
0.19643652 -0.91745937 1.1873227e-16 -0.027148522 -0.42947456 0.53577566 0.21454813 -0.03570463
0.46757516 0.5979228 -1.9351085e-24 -0.0004422518 -1.5325378e-23 5.5966446e-19 -0.42665476 -0.8996671
0.2233957 0.30849308 4.1955477e-19 -0.030203594 -0.44027865 0.53123355 -0.9457632 -0.05790261

bias f4 [4]
00000000: 454b 583e 97d3 483e ce40 ba3c 3b9a 013e
0.21122463 0.19611965 0.02273598 0.1265649
