data/217200.pth (torch, 45719 bytes, 6 tensors)

weight f4 [64, 33]
0	0xbb938e83	-0.0045030727
1	0xba0e5f7a	-0.0005431097
2	0x39ad2585	0.00033025086
3	0xbb2f53a5	-0.0026752737
4	0x3895c00c	7.140645e-05
5	0xb811f4e3	-3.4798762e-05
6	0x3a537aa8	0.00080672884
7	0xb9c46d3a	-0.00037465413
8	0x36d5ba3c	6.369575e-06
9	0x3aeda37a	0.0018130385
10	0x38a19a47	7.705815e-05
11	0x3a678a62	0.00088325713
12	0xbc0ba215	-0.00852253
13	0x3b07e653	0.002073665
14	0xba5c8cf7	-0.00084133394
15	0xba19c00f	-0.0005865106
16	0xb9bb56f2	-0.000357322
17	0x3a9260a4	0.0011167717
18	0x3a553bdf	0.00081342267
19	0x3aa098e5	0.0012252597
20	0x388eb2e8	6.8044115e-05
21	0x397296fc	0.00023135165
22	0xbb029a84	-0.0019928524
23	0x3a9f64f4	0.0012160824
24	0xba95b3cc	-0.0011421381
25	0xbd29bf17	-0.041442003
26	0xbd0f15ea	-0.03493301
27	0xbd0f5142	-0.034989603
28	0xbd06ebb4	-0.032939628
29	0x3b745d5a	0.0037287087
30	0xbc0bcabc	-0.008532222
31	0x3c04a463	0.0080958335
32	0xbbc9bd41	-0.006156594
33	0x2f169836	1.3696497e-10
34	0x2d10d680	8.233081e-12
35	0x2ebebd75	8.673854e-11
36	0x2dafd467	1.9989522e-11
37	0xae7c0249	-5.7300196e-11
38	0x2e04dbd2	3.0208565e-11
39	0x2f02d01b	1.1897365e-10
40	0x2f006f89	1.1681157e-10
41	0x2ed47264	9.660964e-11
42	0xaeae816a	-7.9355925e-11
43	0xaeef707e	-1.0888444e-10
44	0x2e8990fe	6.2557945e-11
45	0xaf17c47a	-1.3803172e-10
46	0x2f0ac686	1.2621557e-10
47	0xae0b18af	-3.1626864e-11
48	0x2ec5c78f	8.9939715e-11
49	0xad8595be	-1.5186848e-11
50	0xad8df432	-1.6138289e-11
51	0x2e48bf4c	4.564464e-11
52	0x2e83c423	5.992031e-11
53	0x2ea80e3a	7.6422826e-11
54	0x2dbde8e0	2.159023e-11
55	0xac350fd6	-2.5730438e-12
56	0x2f10b792	1.3161941e-10
57	0x2eb38e21	8.165225e-11
58	0xb020af19	-5.845649e-10
59	0xaea4d70d	-7.496057e-11
60	0xb0531419	-7.6789913e-10
61	0xb098f2b4	-1.1128436e-09
62	0xaebef6fb	-8.684072e-11
63	0xaf9bd4fc	-2.834567e-10
64	0x2e1f12c0	3.6169068e-11
65	0xaf0f966e	-1.3059218e-10
66	0x1e3db38b	1.0042705e-20
67	0x9c1c9fa9	-5.1822426e-22
68	0x1d42342d	2.570266e-21
69	0x9dc4fd3c	-5.2142606e-21
70	0x1d78185b	3.2835118e-21
71	0x9ddc553b	-5.832164e-21
72	0x1e069edc	7.126752e-21
73	0x9dbd5dd6	-5.0124908e-21
74	0x1e5396fa	1.1201468e-20
75	0xa470d071	-5.221826e-17
76	0xa470e03b	-5.2231635e-17
77	0x1e1f8554	8.4449615e-21
78	0xa4716e8c	-5.235218e-17
79	0xa47147f6	-5.2319498e-17
80	0xa4714bb3	-5.2322664e-17
81	0xa4713b1c	-5.2308612e-17
82	0xa470e899	-5.2238722e-17
83	0x1dfb489f	6.6514235e-21
84	0x1e8466f7	1.4018629e-20
85	0x1c79d0db	8.265713e-22
86	0x1d40b2bf	2.5503398e-21
87	0xa4710c71	-5.2269083e-17
88	0xa47111de	-5.227368e-17
89	0xa4711acc	-5.2281243e-17
90	0x1e1c4f33	8.274949e-21
91	0xa46eab9a	-5.1753376e-17
92	0xa47068e5	-5.2130553e-17
93	0xa46fec15	-5.2024833e-17
94	0xa46ab3cf	-5.0892965e-17
95	0x246e00b3	5.1608616e-17
96	0xa46fe07c	-5.201501e-17
97	0xa471ed69	-5.245964e-17
98	0xa4715c8e	-5.233694e-17
99	0x9b22e222	-1.3473393e-22
100	0x9b1f09ca	-1.3155335e-22
101	0x9ae6451c	-9.523742e-23
102	0x9a8415b1	-5.4628965e-23
103	0x9b1eafa7	-1.312621e-22
104	0x9b2e68fa	-1.4426862e-22
105	0x9b19064c	-1.2657898e-22
106	0x9883eff4	-3.4104997e-24
107	0x9a3c0d8c	-3.8888432e-23
108	0x9b3065b3	-1.459124e-22
109	0x9b01ad13	-1.0726553e-22
110	0x97f143c5	-1.5591367e-24
111	0x1b002d94	1.0602639e-22
112	0x183d5f3b	2.4475757e-24
113	0x9a8a1bc5	-5.7120326e-23
114	0x9b0912fb	-1.1338507e-22
115	0x9a8028f4	-5.300572e-23
116	0x9a0f5d3a	-2.9647015e-23
117	0x9a0d4c54	-2.9219774e-23
118	0x9a201e83	-3.3111872e-23
119	0x9984cb72	-1.3730651e-23
120	0x9a94680e	-6.1379475e-23
121	0x989d2448	-4.0620184e-24
122	0x9a17b81f	-3.13748e-23
123	0x9ab93d21	-7.6612966e-23
124	0x9bc3ba36	-3.238038e-22
125	0x9b6b25b2	-1.9450924e-22
126	0x9b828d37	-2.1597954e-22
127	0x9b9ffca3	-2.6467606e-22
128	0x198004fe	1.3236906e-23
129	0x9a5c68e2	-4.5579657e-23
130	0x9a219876	-3.3417177e-23
131	0x1ba3698d	2.7034299e-22
132	0xb68ade6d	-4.1386143e-06
133	0xb633033f	-2.6674968e-06
134	0xb61ff05a	-2.383275e-06
135	0xb699d7b0	-4.5848647e-06
136	0xb55001c3	-7.74886e-07
137	0xb105f936	-1.9495707e-09
138	0xb58f3e50	-1.0672466e-06
139	0xb51e6455	-5.900559e-07
140	0xb55771ac	-8.0259156e-07
141	0xb3edbe09	-1.107074e-07
142	0xb4f7fcc3	-4.6191244e-07
143	0x369c64e0	4.6609057e-06
144	0xb72f1910	-1.0436648e-05
145	0x3619426f	2.2837446e-06
146	0x35044286	4.9270636e-07
147	0x367721a4	3.682545e-06
148	0x35020e43	4.844953e-07
149	0xb5a0712d	-1.1953867e-06
150	0x35e84fff	1.7308629e-06
151	0x35ec8302	1.7621499e-06
152	0xb5b1cdbd	-1.3247405e-06
153	0xb67d5331	-3.7748362e-06
154	0x357ebae0	9.489431e-07
155	0x350805cd	5.067239e-07
156	0xb651e753	-3.1278075e-06
157	0xb85c5ebe	-5.2540323e-05
158	0xb8373a38	-4.368482e-05
159	0xb86e2f34	-5.6787583e-05
160	0xb852e726	-5.0283175e-05
161	0xb5728ad3	-9.035404e-07
162	0xb70c7f5c	-8.374303e-06
163	0x3748e394	1.1973916e-05
164	0xb6e4b4c2	-6.8159725e-06
165	0xb8bc560b	-8.980565e-05
166	0xb804ce02	-3.1663112e-05
167	0xb7fdba1c	-3.0246614e-05
168	0xb737f204	-1.0963999e-05
169	0xb812c850	-3.4995668e-05
170	0xb81b4cb2	-3.7026308e-05
171	0x37d54e62	2.5428079e-05
172	0xb6c6c962	-5.924304e-06
173	0xb7402ad4	-1.14540635e-05
174	0xb83e894e	-4.5427405e-05
175	0xb88e6818	-6.7904766e-05
176	0xb808776a	-3.253614e-05
177	0xb911e4a8	-0.00013913459
178	0xb7d6d6fc	-2.5610898e-05
179	0x3794615a	1.7688308e-05
180	0x38645e4f	5.4447268e-05
181	0xb83aae96	-4.450845e-05
182	0x37e43f66	2.720924e-05
183	0x37b813e8	2.1943779e-05
184	0x36e12b79	6.7105834e-06
185	0x37998878	1.830257e-05
186	0xb75ff5ed	-1.3349095e-05
187	0xb7a185c2	-1.9254981e-05
188	0x3639c757	2.768318e-06
189	0xb77944f0	-1.4857607e-05
190	0xba2df200	-0.0006635487
191	0xba03422e	-0.0005007115
192	0xba1b5906	-0.0005926046
193	0xba1fc729	-0.0006095046
194	0x37be2525	2.2667062e-05
195	0x38b9fb26	8.8682675e-05
196	0x3900c58d	0.00012280625
197	0xb8d02c0b	-9.9264165e-05
198	0xbd37d2e0	-0.04487884
199	0xbc9e83e4	-0.01935
200	0x3c191b1c	0.009344842
201	0x3d0e443a	0.034733035
202	0xbc356a8d	-0.011072767
203	0x3c86c09f	0.01644927
204	0x3d2a61eb	0.041597288
205	0x3d52cec4	0.05146672
206	0x3d1b2ec3	0.037886392
207	0x3b8c698d	0.0042850436
208	0xbc7d3dad	-0.015456599
209	0x3c249518	0.010045312
210	0xbd6af77b	-0.057364922
211	0x3d9885bf	0.07447385
212	0x3cf1ee02	0.029532436
213	0x3d4128b9	0.047157977
214	0x3c5d52d2	0.013508515
215	0x3c6bf805	0.014402394
216	0x3c12d835	0.008962681
217	0x3bc35062	0.00596051
218	0x3cfaa491	0.03059605
219	0xbc3e8f02	-0.011630775
220	0x3c276a56	0.010218224
221	0xbc126489	-0.008935102
222	0xbc7740bb	-0.015091117
223	0xbecda19f	-0.4016237
224	0xbecdc198	-0.40186763
225	0xbedbb10a	-0.42908508
226	0xbeb78735	-0.35845342
227	0x3abac47b	0.001424923
228	0xbde64e43	-0.11245396
229	0x3e09c871	0.13455369
230	0xbd04c05d	-0.032410014
231	0x19da306a	2.2560226e-23
232	0x9aacb01d	-7.142206e-23
233	0x99864612	-1.3883576e-23
234	0x199974b0	1.5866959e-23
235	0x9b2ee9ce	-1.4468489e-22
236	0x99f59f7a	-2.5396818e-23
237	0x1a0ab4d3	2.86838e-23
238	0x998c7c6e	-1.4525917e-23
239	0x1aa58196	6.845176e-23
240	0x9b88f3ff	-2.2656991e-22
241	0x99c89066	-2.0737837e-23
242	0x1906585a	6.94548e-24
243	0x189d3f16	4.064725e-24
244	0x9a301119	-3.6409758e-23
245	0x1a0ba91d	2.8881135e-23
246	0x9a9c1e70	-6.456926e-23
247	0x9b24495c	-1.3589466e-22
248	0x9a816d95	-5.353019e-23
249	0x18e661ba	5.9552285e-24
250	0x19fe49f0	2.6292848e-23
251	0x19af9a2e	1.8156849e-23
252	0x9a6a397a	-4.8436495e-23
253	0x19593c94	1.1230871e-23
254	0x994aa3be	-1.0476223e-23
255	0x9ac2627d	-8.0395636e-23

bias f4 [64]
0	0xbcd1eb5d	-0.025624925
1	0xafa8b043	-3.0684263e-10
2	0xa45b6581	-4.7574032e-17
3	0x9b5bdc66	-1.818647e-22
4	0xb8181471	-3.625866e-05
5	0xb9db9e47	-0.0004188886
6	0xbe851221	-0.25990394
7	0x9b698c14	-1.931857e-22
8	0xbe03c370	-0.12867522
9	0x3e204c88	0.15654194
10	0x9b1d50ab	-1.3012801e-22
11	0xb1662410	-3.3489904e-09
12	0xb4c2df70	-3.6297888e-07
13	0x9c3046e3	-5.8325134e-22
14	0xbe01e65b	-0.1268553
15	0xbe0c1508	-0.13679898
16	0xba8920c6	-0.0010462038
17	0x3d1c243a	0.038120486
18	0xabcfd90d	-1.4768478e-12
19	0x3e33df47	0.17565642
20	0x9acaba3e	-8.384613e-23
21	0x9a3b4946	-3.8729883e-23
22	0xbe73f316	-0.23823199
23	0xb56bb792	-8.781145e-07
24	0x3de3b992	0.11119379
25	0xa15498df	-7.2030717e-19
26	0x9bed76a2	-3.9285026e-22
27	0x9ac1f631	-8.022067e-23
28	0x9c31030a	-5.8568315e-22
29	0xaded4f62	-2.6979034e-11
30	0x9e050bb3	-7.043381e-21
31	0xb2ccdfc0	-2.3850475e-08
32	0xb2b82b01	-2.1439975e-08
33	0x9d8e811e	-3.772059e-21
34	0xbd3a0169	-0.0454115
35	0x9b9b1171	-2.565387e-22
36	0x3e128570	0.14308715
37	0x9d37ce46	-2.432649e-21
38	0x9b34cb51	-1.4954946e-22
39	0x9b1c5da2	-1.2934272e-22
40	0xbd04c795	-0.0324169
41	0x9dcf23e8	-5.482957e-21
42	0x9780a698	-8.31386e-25
43	0xae01c90b	-2.9509766e-11
44	0xbd1c0d44	-0.03809859
45	0x9778019a	-8.0135143e-25
46	0x3e5c350e	0.21504614
47	0x3e3560d4	0.17712718
48	0xab35b066	-6.454892e-13
49	0x3bd3f8ae	0.006468854
50	0xa543fc0d	-1.6998952e-16
51	0xb1484aee	-2.9146423e-09
52	0xbe612c2a	-0.21989504
53	0x3ed45392	0.4147001
54	0x3d3c751e	0.04601013
55	0xbd1d4d37	-0.038403716
56	0x97c30a30	-1.2604151e-24
57	0x9e0f2c02	-7.5794576e-21
58	0x9c26301c	-5.4986973e-22
59	0xa7b7b448	-5.0988165e-15
60	0xa0add9db	-2.9451505e-19
61	0xbdfd5669	-0.12369997
62	0xaec4a481	-8.94227e-11
63	0xa4b6cec2	-7.928018e-17

weight f4 [16, 64]
0	0xbdc9d052	-0.09854187
1	0xaface5ce	-3.1449904e-10
2	0xa02cc9b9	-1.4635711e-19
3	0x98f3d1ce	-6.3025876e-24
4	0xb91de8d7	-0.00015059426
5	0xbacb083f	-0.0015490128
6	0xbf6176e6	-0.8807205
7	0x9b0f9614	-1.1877176e-22
8	0xbf0463ba	-0.5171467
9	0x3e25c833	0.16189651
10	0x1aea0c7c	9.68003e-23
11	0xb234221b	-1.0485134e-08
12	0xb5b36dab	-1.3368457e-06
13	0x9b8eccc2	-2.362425e-22
14	0xbe84c0cf	-0.2592835
15	0xbf1e7bae	-0.6190747
16	0xba677bac	-0.0008830379
17	0x3e6113d5	0.21980222
18	0xabe66861	-1.6371454e-12
19	0x3e33422f	0.17505716
20	0x9a4a6ddf	-4.1861374e-23
21	0x9a3397a4	-3.7138827e-23
22	0xbf153c5b	-0.5829522
23	0xb5f3d34e	-1.8166409e-06
24	0x3eadf60d	0.33976784
25	0xa25202be	-2.8461759e-18
26	0x9b311970	-1.4649316e-22
27	0x9a11b95e	-3.0135036e-23
28	0x9c26a68e	-5.514006e-22
29	0xa597cbc4	-2.6332401e-16
30	0x9d83f932	-3.4933073e-21
31	0xac80a12b	-3.655872e-12
32	0xb301f4c1	-3.0257755e-08
33	0x9dc9bfe7	-5.340268e-21
34	0xbf25420e	-0.64553916
35	0x1b2175cd	1.3355671e-22
36	0x3e186c8d	0.14885159
37	0x9e0a3ede	-7.31866e-21
38	0x9a3a6201	-3.8543065e-23
39	0x9a852318	-5.506421e-23
40	0xbee51b7a	-0.44747525
41	0x9dde0a6b	-5.8773683e-21
42	0x17666895	7.444901e-25
43	0xaefa46e8	-1.1381279e-10
44	0xbeda84e2	-0.42679507
45	0x16876df2	2.1879812e-25
46	0x3e5a7d5c	0.21336883
47	0xbd82054f	-0.06348669
48	0xac244487	-2.3343842e-12
49	0xbec801a3	-0.3906375
50	0x9d191f83	-2.0265673e-21
51	0x2e290a1c	3.843513e-11
52	0xbead7e69	-0.33885506
53	0xbf312e8a	-0.6921164
54	0x3e675b42	0.22593406
55	0xbfdf24b8	-1.7433081
56	0x9791c2f2	-9.419616e-25
57	0x9efba4c2	-2.6643801e-20
58	0x9ba74084	-2.7669525e-22
59	0xa74c92f6	-2.8390355e-15
60	0xa0c92120	-3.4072645e-19
61	0xbf0723a3	-0.5278875
62	0xaef52e54	-1.11495396e-10
63	0x244347ca	4.2344692e-17
64	0xbd9f8b51	-0.07790244
65	0xaf6fc6aa	-2.1807503e-10
66	0x9ff2d682	-1.0284586e-19
67	0x9b027c25	-1.0793461e-22
68	0xb8f8680e	-0.00011844943
69	0xbab369ba	-0.0013688125
70	0xbf4bc125	-0.7959159
71	0x9b7c007b	-2.0845107e-22
72	0xbf11bf59	-0.569326
73	0x3e254b13	0.1614192
74	0x9a648754	-4.7258612e-23
75	0xb2135d87	-8.577792e-09
76	0xb581cee7	-9.671465e-07
77	0x9bf85ee7	-4.1089488e-22
78	0xbe418489	-0.18898214
79	0xbf9d576f	-1.2292308
80	0xba671a55	-0.00088158745
81	0x3e5d5ca9	0.21617378
82	0xabafc9c0	-1.2490495e-12
83	0x3e359dd9	0.17735995
84	0x9a198577	-3.174747e-23
85	0x9a3029f5	-3.642984e-23
86	0xbef892ba	-0.48549443
87	0xb5be0708	-1.415815e-06
88	0x3d5ee512	0.054417677
89	0xa220adcc	-2.177605e-18
90	0x9b6171f1	-1.864838e-22
91	0x99e8ad7a	-2.4058304e-23
92	0x9c4cf459	-6.781375e-22
93	0xa564aaa9	-1.983367e-16
94	0x9d934ea5	-3.8991893e-21
95	0xac476568	-2.8335893e-12
96	0xb301acaf	-3.0192208e-08
97	0x9df4b4de	-6.4773275e-21
98	0xbf7bc58f	-0.98348325
99	0x1955b4dd	1.1048367e-23
100	0x3e176780	0.14785576
101	0x9e07e5cd	-7.194362e-21
102	0x9a399f10	-3.8385593e-23
103	0x197442fb	1.2628031e-23
104	0xbf8eab3e	-1.1146009
105	0x9dffaf40	-6.7679142e-21
106	0x97323168	-5.757726e-25
107	0xaed56bea	-9.705288e-11
108	0xbf8f8738	-1.121314
109	0x1647bb6c	1.6134232e-25
110	0x3e4f2798	0.20229948
111	0x3e4189ea	0.18900266
112	0xac0fc0e2	-2.0428594e-12
113	0xbe994879	-0.29938105
114	0x9b2fc5cb	-1.4539571e-22
115	0x2e313f2c	4.030125e-11
116	0xbeab4234	-0.33448946
117	0xbf4cc805	-0.79992706
118	0x3e954c22	0.29159647
119	0xbf025889	-0.50916344
120	0x1773c25b	7.8762846e-25
121	0x9ed5b708	-2.2627952e-20
122	0x9ba1c856	-2.676468e-22
123	0xa78d5d26	-3.9236353e-15
124	0xa0adafc1	-2.9423644e-19
125	0xbf1070b2	-0.5642196
126	0xae9f854e	-7.2541625e-11
127	0xa5eca49c	-4.1051018e-16
128	0x98d81472	-5.5855336e-24
129	0x99463776	-1.024756e-23
130	0x999c098d	-1.613388e-23
131	0x97ec3499	-1.526442e-24
132	0x9999f604	-1.5919194e-23
133	0x9940a9cd	-9.960458e-24
134	0x9988160b	-1.4070973e-23
135	0x992fa525	-9.080639e-24
136	0x17f8510e	1.6047085e-24
137	0x16121036	1.1798901e-25
138	0x98120417	-1.8872123e-24
139	0x98c1290d	-4.993078e-24
140	0x9910d38c	-7.487347e-24
141	0x97a812c3	-1.0861482e-24
142	0x978e3456	-9.189746e-25
143	0x98e63301	-5.9505107e-24
144	0x9877f46e	-3.2047407e-24
145	0x98bd6813	-4.8960443e-24
146	0x98e17719	-5.8281395e-24
147	0x993071cf	-9.12197e-24
148	0x1885eb90	3.461755e-24
149	0x9773fb3e	-7.8834647e-25
150	0x189c6cae	4.0434793e-24
151	0x98f5db2b	-6.355232e-24
152	0x97432a29	-6.306111e-25
153	0x18946695	3.8360685e-24
154	0x9745e1f0	-6.3939306e-25
155	0x16a11493	2.6023937e-25
156	0x18ae589e	4.5067426e-24
157	0x9931d614	-9.193918e-24
158	0x9883f67e	-3.41116e-24
159	0x990c5cb4	-7.256552e-24
160	0x18072bfe	1.7470551e-24
161	0x9845ab96	-2.5548282e-24
162	0x98bd1170	-4.8872962e-24
163	0x98436bbf	-2.5257557e-24
164	0x9920ec1b	-8.319487e-24
165	0x97d0d2ed	-1.349493e-24
166	0x97b4fab3	-1.1695513e-24
167	0x17b1f652	1.1500537e-24
168	0x15675a38	4.672125e-26
169	0x97e93e5a	-1.5073012e-24
170	0x174b1891	6.5623845e-25
171	0x180e0fd4	1.8361061e-24
172	0x189347c7	3.8071086e-24
173	0x96872214	-2.1831933e-25
174	0x995218d8	-1.0861763e-23
175	0x9956540a	-1.1080512e-23
176	0x984438a7	-2.5361008e-24
177	0x18e04c00	5.7979383e-24
178	0x17577fb4	6.963143e-25
179	0x98a53d42	-4.2713355e-24
180	0x988211c2	-3.3622143e-24
181	0x99462186	-1.024313e-23
182	0x990651b7	-6.94414e-24
183	0x19007821	6.641705e-24
184	0x9744f849	-6.3644396e-25
185	0x98d5a3ec	-5.522473e-24
186	0x1792046e	9.436147e-25
187	0x1804ca8e	1.7162864e-24
188	0x980e2fb8	-1.8377162e-24
189	0x97dc5420	-1.4238403e-24
190	0x17844e34	8.550041e-25
191	0x9908f2aa	-7.080041e-24
192	0x3d97fb8e	0.07421027
193	0x2fc79fd9	3.6311468e-10
194	0xa456a6fa	-4.6545288e-17
195	0x1b491d6b	1.6635836e-22
196	0x3904c601	0.00012662263
197	0x3a40a0df	0.00073481904
198	0x3f58b0d5	0.84644824
199	0x1b3ff8fe	1.5879603e-22
200	0xbcfbcee6	-0.030738305
201	0x3d6f01e1	0.0583514
202	0x196dc4af	1.2292333e-23
203	0x323927ac	1.0777438e-08
204	0x3592ea3b	1.0946018e-06
205	0x1bb4f6cb	2.9937988e-22
206	0x3eb04dcc	0.34434354
207	0xbd2de228	-0.042452008
208	0x3a6af7d7	0.00089633226
209	0xbbbfa2d6	-0.005848269
210	0x2bd57fe8	1.5170061e-12
211	0x3d541a25	0.051782746
212	0x1abe9781	7.8826926e-23
213	0x1a33f61d	3.721514e-23
214	0x3ed514b3	0.41617355
215	0x35b32d78	1.3349772e-06
216	0xbec237cc	-0.37933195
217	0x21dee040	1.5102664e-18
218	0x1bcd33fe	3.3948004e-22
219	0x1ac2dfcb	8.0598076e-23
220	0x1c56b22d	7.1036947e-22
221	0x2585416d	2.3116156e-16
222	0x1bedd87c	3.934826e-22
223	0xb28e14c0	-1.6540412e-08
224	0xb2c0a909	-2.242861e-08
225	0x1c86eaf3	8.928109e-22
226	0xbc8d37d4	-0.017238535
227	0x1b1bcc14	1.2887241e-22
228	0x3d7c6f2b	0.061629456
229	0x1de0d321	5.951061e-21
230	0x1b2324e7	1.3494968e-22
231	0x1b38dbef	1.5291188e-22
232	0x3cbef5ea	0.02331062
233	0x9cf02028	-1.589018e-21
234	0x17ec637f	1.5276259e-24
235	0x2ed3b0c9	9.6265725e-11
236	0xbb351b9d	-0.0027634867
237	0x15f0a9cf	9.720314e-26
238	0x3c33882d	0.01095776
239	0x3e0a9a6b	0.13535468
240	0x2ba0b2e2	1.1418334e-12
241	0xbd5edeae	-0.054411583
242	0xa54125b9	-1.6752862e-16
243	0xadb74761	-2.083639e-11
244	0x3f3c08b0	0.73450756
245	0x3efd7335	0.49501958
246	0xbd91cd30	-0.071192145
247	0x3fb80dd3	1.4379219
248	0x9768a99c	-7.517732e-25
249	0x1ea18e8d	1.7105496e-20
250	0x1c0b87ff	4.6167013e-22
251	0x28422d5f	1.0779002e-14
252	0x201fb38b	1.352723e-19
253	0xbc28fb0d	-0.010313761
254	0x2f507abd	1.8961095e-10
255	0x2631a824	6.1637084e-16

bias f4 [16]
0	0x3e96b6ae	0.2943625
1	0x3e9ceb9c	0.30648506
2	0x995b80e2	-1.1348062e-23
3	0x3d354f70	0.04426521
4	0x9b058600	-1.10448e-22
5	0x9d9f57e0	-4.217781e-21
6	0x3d04e2d0	0.032442868
7	0xbce17ac5	-0.027524361
8	0x3f0b3a62	0.5438596
9	0x3d8b1aa3	0.0679219
10	0xa2eb99aa	-6.3859576e-18
11	0x3c35030c	0.01104809
12	0x3cebdb1d	0.028791005
13	0x3e97dcb1	0.29660562
14	0x3bcc5997	0.006236266
15	0x3d23258b	0.039830726

weight f4 [4, 16]
0	0x3f0fe8dd	0.56214696
1	0x3f14b669	0.58090836
2	0x978bae1c	-9.026616e-25
3	0xbe993107	-0.29920217
4	0x9c2cee2c	-5.7217856e-22
5	0x968b4f00	-2.2506517e-25
6	0xbea47729	-0.32122162
7	0xbed9eec4	-0.42564976
8	0x3e8192d9	0.25307348
9	0x3ea5c5c9	0.3237746
10	0x22da9e30	5.9256506e-18
11	0xbdb0b9ce	-0.086291894
12	0xbcdbb7d0	-0.026821047
13	0x3f08dcac	0.5346172
14	0x3e835827	0.25653192
15	0xbfa41730	-1.2819576
16	0x3f0e54cf	0.5559816
17	0x3f0f6acb	0.5602233
18	0x185072bb	2.6941294e-24
19	0xbed49a8d	-0.41524163
20	0x979bff4a	-1.0081084e-24
21	0x96fd7fca	-4.0955e-25
22	0x3922e26a	0.0001553387
23	0xbee67468	-0.45010686
24	0x3e804192	0.25050026
25	0x3eb357d8	0.35027957
26	0x22d4cbda	5.767855e-18
27	0xbfa759f2	-1.3074324
28	0xbe8abad8	-0.27095675
29	0x3f0f6695	0.560159
30	0x3e8fc324	0.28078568
31	0xbda0e1e3	-0.078555845
32	0x3f08633e	0.5327643
33	0x3f1b693a	0.6070744
34	0x982cb758	-2.2323044e-24
35	0xbf477133	-0.77907103
36	0x17caf86e	1.3116657e-24
37	0x1782e999	8.460021e-25
38	0xbeda5d9c	-0.42649543
39	0xbb9fed02	-0.0048805485
40	0x3e4ecfd9	0.20196475
41	0xbf641828	-0.8909936
42	0x223b2696	2.5363653e-18
43	0xbd113df0	-0.03545946
44	0xbee81fde	-0.45336813
45	0x3f0dea8b	0.5543601
46	0x3e77638c	0.24159068
47	0xbcc69257	-0.024239702
48	0x3ef3e46f	0.47635219
49	0x3f22588c	0.6341636
50	0x954cb57e	-4.1340644e-26
51	0x3c2cfc33	0.010558176
52	0x96caa27e	-3.2737407e-25
53	0x1e61d9c1	1.1956431e-20
54	0xbedd06aa	-0.43169147
55	0xbf55fd7c	-0.8358991
56	0x3e7165c0	0.23573971
57	0x3e90a425	0.28250232
58	0x1e294e47	8.962973e-21
59	0xbd516afc	-0.05112742
60	0xbedf2db0	-0.43589544
61	0x3f0dd039	0.5539585
62	0xbf6fcf5e	-0.9367579
63	0xbd314f43	-0.04328848

bias f4 [4]
0	0x3e3f581f	0.1868596
1	0x3e4abe76	0.19799218
2	0x3d267ba9	0.040645275
3	0x3e061c3c	0.13096708
