data/224400.pth (torch, 46615 bytes, 6 tensors)

weight f4 [64, 33]
00000000: 477d 23ba 61be 9db8 f8d3 3f38 8b42 c2b9
00000010: e7e8 2537 47b9 a1b6 ac50 ea38 08a1 59b8
00000020: e8cd 6c35 e6a4 8339 0811 3337 6845 0039
00000030: f8b5 9aba 1694 9639 025c f4b8 ee57 aab8
00000040: c090 4fb8 2d30 2239 8343 ec38 57f1 3139
00000050: c01a 1e37 6c63 0638 1ab9 90b9 1196 3039
00000060: 62db 25b9 c311 bcbb 5d88 9ebb 13ca 9ebb
00000070: dd7e 95bb 565b 073a 22e3 9aba 3ff4 923a
00000080: 6186 5fba f6da a62d 0679 a02b 5f55 532d
00000090: 79d2 422c 189a 0bad 1332 932c cef2 902d
000000a0: 024c 8e2d 9966 6b2d 9957 41ad 48a5 84ad
000000b0: 166a 182d 9429 a8ad 02c2 992d 4c1d 9aac
000000c0: 0824 5b2d 7201 14ac 9e47 1dac b169 de2c
000000d0: 1ffa 112d 5031 3a2d cf69 522c 4c9e c8aa
000000e0: c756 a02d 80f0 462d 6b0a b2ae b3a1 36ad
000000f0: 96dd e9ae 0776 29af 1d95 53ad c7aa 2cae
00000100: ec3b b02c a616 9fad b62e d21c 228c ad9a
00000110: e92b d71b fd43 5a9c 5a71 091c ca1d 749c
00000120: 2829 951c bdcf 519c 6d70 ea1c fa67 05a3
00000130: b670 05a3 3aba b01c 71bf 05a3 18aa 05a3
00000140: 2bac 05a3 fca2 05a3 5875 05a3 ca33 8b1c
00000150: bbaf 121d bb64 0a1b e681 d51b 2a89 05a3
00000160: 2d8c 05a3 1c91 05a3 e633 ad1c 5e38 04a3
00000170: b22e 05a3 a7e9 04a3 b501 02a3 97d9 0323
00000180: 3ce3 04a3 9f05 06a3 7db5 05a3 9c77 b499
00000190: 1832 b099 6a21 7f99 1655 1299 39cf af99
000001a0: 493c c199 948b a999 fd2a 1297 195b d098
000001b0: dd74 c399 a6af 8f99 c7a7 8596 2202 8e19
000001c0: 47d1 d116 4804 1999 11de 9799 f2fc 0d99
000001d0: 51d7 9e98 c38d 9c98 2d67 b198 d01f 1398
000001e0: 566d 2499 971d 2e97 ff1b a898 6e3d 4d99
000001f0: ffda 589a 993f 029a b0aa 109a eb40 319a
00000200: aed4 0d18 ba33 f498 070f b398 bc0b 351a
00000210: 8fdc 19b5 c155 c6b4 1033 b1b4 e971 2ab5
00000220: 7e79 e6b3 6570 94af 1ab5 1eb4 9d7c afb3
00000230: 8ab2 eeb3 e9b3 83b2 d461 89b3 ac4b 2d35
00000240: 1401 c2b5 becd a934 1687 9233 94e6 0835
00000250: 801c 9033 7fc4 31b4 31b3 8034 d901 8334
00000260: bdfd 44b4 bd53 0cb5 0219 0d34 e4b5 9633
00000270: 6d8e e8b4 6428 f4b6 5001 cbb6 8cf3 03b7
00000280: 2aab e9b6 b45c 06b4 d4ab 9bb5 b291 de35
00000290: cd64 7db5 6dab 50b7 ab22 93b6 a38b 8cb6
000002a0: 88cd cbb5 96a2 a2b6 5110 acb6 c657 6c36
000002b0: 4e40 5cb5 aeeb d4b5 951b d3b6 ecc7 1db7
000002c0: 3731 97b6 1ca7 a1b7 c405 6eb6 ed65 2436
000002d0: ab06 fd36 f1d7 ceb6 05e5 7c36 30f3 4b36
000002e0: 267a 7935 c51a 2a36 6a22 f8b5 93fa 32b6
000002f0: ffd6 cd34 a217 0ab6 4fb7 c0b8 a86d 91b8
00000300: 491e acb8 8b04 b1b8 98ac 5236 9110 4e37
00000310: 58ac 8e37 e6a7 66b7 f8b7 43bd ec75 d5bc
00000320: dee5 f53b d370 f4bb 4349 d83b 9884 063d
00000330: 1132 c63c d512 e83c 0a67 6c3c 2540 623c
00000340: 7ff8 943a e06b cc3c bde9 35bd f749 663d
00000350: 6359 c83c 732d 1e3d 51d3 bc3c 6784 093d
00000360: 6124 473d c308 603d 9572 c23c 3d1a 413c
00000370: 8451 723b 30c6 f33c cf69 5fbd ba62 ddbe
00000380: 92d0 d0be d1ed d0be 1753 c4be e4b4 dd3c
00000390: 918b d8bd 4a8e 093e 8234 72bc 04c1 7118
000003a0: 3454 3f99 20c6 1498 0205 2a18 45cc c199
000003b0: 5a0d 8898 58ae 9918 92a8 1b98 8961 3719
000003c0: a3bb 179a fc35 5e98 84da 9417 003b 2e17
000003d0: 4f16 c398 c5bd 9a18 06fe 2c99 4a02 b699
000003e0: 8868 0f99 3441 7f17 c6d9 8c18 6591 4218
000003f0: 39bf 0199 17b4 f017 8987 e097 195f 5799
-0.00062366243 -7.521804e-05 4.573536e-05 -0.00037052142 9.888993e-06 -4.819743e-06 0.00011173016 -5.1886804e-05
8.8216484e-07 0.00025109126 1.0673197e-05 0.00012232887 -0.0011803498 0.00028720562 -0.000116519645 -8.12261e-05
-4.9487455e-05 0.00015467471 0.00011265932 0.00016969941 9.423762e-06 3.2040683e-05 -0.00027603732 0.00016840572
-0.00015817353 -0.005739422 -0.004838033 -0.0048458665 -0.0045622424 0.00051634514 -0.0011816958 0.0011211707
-0.0008526799 1.8969253e-11 1.1402275e-12 1.2012918e-11 2.7685894e-12 -7.935451e-12 4.1835506e-12 1.6478732e-11
1.6177285e-11 1.3380985e-11 -1.099023e-11 -1.5080062e-11 8.6637555e-12 -1.9117853e-11 1.7480243e-11 -4.380196e-12
1.2456709e-11 -2.1032867e-12 -2.2350797e-12 6.3213536e-12 8.297834e-12 1.05838255e-11 2.990153e-12 -3.5636977e-13
1.8228431e-11 1.1308399e-11 -8.0963534e-11 -1.0381407e-11 -1.0634975e-10 -1.5412392e-10 -1.2027071e-11 -3.9259953e-11
5.0088735e-12 -1.8086265e-11 1.3908709e-21 -7.177752e-23 3.5597143e-22 -7.221802e-22 4.5476e-22 -8.077133e-22
9.870632e-22 -6.9420795e-22 1.5513882e-21 -7.231962e-18 -7.233812e-18 1.1694841e-21 -7.250484e-18 -7.245963e-18
-7.2464024e-18 -7.244458e-18 -7.234793e-18 9.211636e-22 1.941379e-21 1.144764e-22 3.532184e-22 -7.23899e-18
-7.239628e-18 -7.2406726e-18 1.1461595e-21 -7.1676706e-18 -7.2198326e-18 -7.205212e-18 -7.047676e-18 7.147601e-18
-7.203853e-18 -7.265345e-18 -7.248376e-18 -1.8659874e-23 -1.8218206e-23 -1.3189939e-23 -7.565206e-24 -1.8178272e-23
-1.9980081e-23 -1.7530566e-23 -4.7229403e-25 -5.3858725e-24 -2.0209728e-23 -1.4856797e-23 -2.1593191e-25 1.4683317e-23
3.3897844e-25 -7.910779e-24 -1.5702726e-23 -7.340611e-24 -4.1059457e-24 -4.0468198e-24 -4.585761e-24 -1.9015366e-24
-8.5006815e-24 -5.625978e-25 -4.345525e-24 -1.0610657e-23 -4.4844657e-23 -2.6934744e-23 -2.9916382e-23 -3.6655182e-23
1.8331199e-24 -6.3124752e-24 -4.628559e-24 3.7439402e-23 -5.7317897e-07 -3.6942768e-07 -3.3005972e-07 -6.3495696e-07
-1.0732309e-07 -2.7000904e-10 -1.4780781e-07 -8.1717396e-08 -1.1115215e-07 -1.533222e-08 -6.3973545e-08 6.455764e-07
-1.445444e-06 3.16284e-07 6.823227e-08 5.0999483e-07 6.710707e-08 -1.6555894e-07 2.3972237e-07 2.4401996e-07
-1.8346232e-07 -5.227592e-07 1.3140746e-07 7.018005e-08 -4.3316996e-07 -7.2764688e-06 -6.0500242e-06 -7.864914e-06
-6.9638672e-06 -1.2513448e-07 -1.1598408e-06 1.6582692e-06 -9.439653e-07 -1.2437679e-05 -4.3849773e-06 -4.188581e-06
-1.5184496e-06 -4.8469037e-06 -5.127899e-06 3.5217831e-06 -8.204996e-07 -1.5863823e-06 -6.291501e-06 -9.404477e-06
-4.50588e-06 -1.9270512e-05 -3.546812e-06 2.4497233e-06 7.540764e-06 -6.1644173e-06 3.7684233e-06 3.039091e-06
9.293748e-07 2.5347556e-06 -1.8487456e-06 -2.666992e-06 3.8340656e-07 -2.0577359e-06 -9.189417e-05 -6.934564e-05
-8.20724e-05 -8.440864e-05 3.1392901e-06 1.2282414e-05 1.7007973e-05 -1.374816e-05 -0.04778287 -0.026057206
0.007504209 -0.0074597388 0.0066005304 0.032841295 0.024193795 0.028329292 0.014428863 0.013809239
0.0011365562 0.024953783 -0.044412363 0.056222882 0.024456685 0.038617563 0.023049982 0.033573534
0.048618678 0.054695856 0.023736278 0.011786041 0.0036974857 0.02975759 -0.054544266 -0.43239385
-0.40784127 -0.4080644 -0.38344643 0.027063794 -0.10573495 0.13433185 -0.014783027 3.1245968e-24
-9.891473e-24 -1.922858e-24 2.1974513e-24 -2.0038236e-23 -3.5168658e-24 3.9725615e-24 -2.0118387e-24 9.480575e-24
-3.137764e-23 -2.8720083e-24 9.619437e-25 5.62969e-25 -5.0428845e-24 3.9999685e-24 -8.943491e-24 -1.8819283e-23
-7.414037e-24 8.247724e-25 3.6409047e-24 2.5147318e-24 -6.707761e-24 1.5555098e-24 -1.4509875e-24 -1.1134444e-23

bias f4 [64]
00000000: db92 68bb 1ae2 3aae de12 f3a2 e496 f399
00000010: 8d81 a8b6 8e51 73b8 1896 8dbe fc60 019a
00000020: 87b3 00be eb14 283e 484e ae99 b2fc feaf
00000030: 32e9 57b3 6d52 c39a 0f54 34be d549 0dbe
00000040: 66ed 17b9 e31b 7f3d e8d7 c4ba 6a2c 3f3e
00000050: 49a0 6099 9b81 cf98 dee6 18be e08e 02b4
00000060: 6b25 ef3d f890 eb9f 8c8b 839a 64e7 5699
00000070: ac21 c49a 5e75 83ac 7967 939c bdfc 62b1
00000080: d60c 4cb1 a2e3 1d9c f5a3 90bd 2ccd 2b9a
00000090: 8cc9 133e d1a5 cb9b f051 c899 ba43 ad99
000000a0: 335f 26bd 7484 659c ac89 0e96 face 8fac
000000b0: 8b9b 0cbd 8c64 0996 a02d 603e 4857 433e
000000c0: 3751 c9a9 f248 ca3b c823 d9a3 64e9 ddaf
000000d0: b8f9 57be 2e4b d13e 2546 983d 431d c4bc
000000e0: 7218 5896 d3a0 9e9c e225 b89a f088 4ba6
000000f0: 559c 409f 81ab 05be 96df 59ad e989 4aa3
-0.0035487923 -4.2492322e-11 -6.588526e-18 -2.5186555e-23 -5.021872e-06 -5.801167e-05 -0.27653575 -2.6754918e-23
-0.12568484 0.1641423 -1.8022796e-23 -4.6381882e-10 -5.027068e-08 -8.0783276e-23 -0.17610191 -0.13797696
-0.0001448892 0.062282454 -0.0015017958 0.18669286 -1.1612898e-23 -5.3639114e-24 -0.14931819 -1.2159171e-07
0.11677059 -9.97662e-20 -5.440578e-23 -1.111027e-23 -8.11181e-23 -3.7362743e-12 -9.754391e-22 -3.3030993e-09
-2.9693203e-09 -5.224115e-22 -0.07062522 -3.5527708e-23 0.14432353 -3.369069e-22 -2.071261e-23 -1.7915135e-23
-0.040618133 -7.5940936e-22 -1.151411e-25 -4.0872835e-12 -0.034328025 -1.1098499e-25 0.21892405 0.19076264
-8.9402816e-14 0.0061732465 -2.3542341e-17 -4.03655e-10 -0.21091354 0.4087767 0.07435254 -0.023939734
-1.7456055e-25 -1.0497135e-21 -7.616182e-23 -7.061536e-16 -4.0786896e-20 -0.13053705 -1.2384668e-11 -1.09796456e-17

weight f4 [16, 64]
00000000: e59b 5fbc 9e8e 3fae 1270 bf9e c20f 8797
00000010: 2bf5 aeb7 18f6 60b9 125c 85bf 4316 9f99
00000020: 4ffc 0fbf acfe 203e c4a6 8119 6595 c7b0
00000030: 58cc 46b4 6237 1e9a cb5f d5be 31bf 2bbf
00000040: 3e3d 00b9 864a 833e 9648 7faa 6bdf 303e
00000050: 484c e098 1dfb c698 268a b5be 9210 87b4
00000060: 1983 983e 85ac e8a0 fd39 c499 a275 a198
00000070: f2a8 b89a 9831 28a4 4c35 129c 9683 0eab
00000080: eeff 8fb1 6089 5f9c b53f 29bf 22e9 b219
00000090: 7f8c 0c3e 482b 999c d682 ce98 9381 1399
000000a0: 2c09 f7be ce05 769c d248 ff15 caa5 8aad
000000b0: 6dc3 cdbe 2310 1615 60db 4a3e 91e9 58bc
000000c0: ddfc b5aa 8f4c abbe 54a7 a99b d746 bb2c
000000d0: e016 97be ce6a d1be 8efa 3f3e ff50 cfbf
000000e0: 9680 2196 9066 8b9d e950 399a 49a8 e2a5
000000f0: 3dd6 5e9f 171f fbbe b7cd 87ad 885c d822
00000100: fbc0 30bc f5d4 04ae 9086 869e 9297 9099
00000110: ec9d 89b7 f4c7 46b9 fc42 62bf 1b99 0b9a
00000120: 8be8 17bf 2c8b 103e 5a33 fd98 3c47 a3b0
00000130: 8ad5 0fb4 e298 899a 441f 80be 2d72 96bf
00000140: 2a07 00b9 474a 2d3e e0ee b33b 2e72 243e
00000150: 7a17 aa98 1832 c398 3370 88be 388b 52b4
00000160: 81e0 b63b f008 b2a0 a0c8 f999 20e7 8098
00000170: 6413 e39a d359 fda3 cd36 239c 57ec dcaa
00000180: 36af 8fb1 c08a 879c 4477 81bf 02c8 ec17
00000190: a6bf ed3d 8593 969c 40aa cd98 0f4d 0718
000001a0: 84b4 8bbf dca1 8d9c ee6b c595 1e78 6cad
000001b0: ae2a 90bf 2a4b dd14 76c5 3c3e cdd0 4a3e
000001c0: aa45 9faa cde8 8fbe 25c2 c299 f562 c42c
000001d0: ccf5 a7be aab3 1ebf b3a8 753e 81d9 01bf
000001e0: 6307 0716 61ca 6c9d 6443 339a 63a0 1ca6
000001f0: 476d 409f b804 11bf 34ba 30ad d714 83a4
00000200: b468 6f97 6d9f db97 5ce6 2c98 86d5 8296
00000210: 4693 2a98 0878 d597 56c7 1698 a89d c297
00000220: 4091 8916 6dd7 a114 0dca a196 a804 5697
00000230: c175 a097 4536 3a96 a08e 1d96 4c0d 7f97
00000240: 265d 0997 15db 5197 5ece 7997 6682 c397
00000250: 2b61 1417 3426 0796 3854 2d17 ef2e 8897
00000260: cc3b d895 b66b 2417 1e41 db95 fd7c 3215
00000270: fe29 4117 cb06 c597 4932 1297 5285 9b97
00000280: 92c6 9516 3205 db96 177b 5197 4784 d896
00000290: 4d4f b297 105f 6796 c086 4896 182a 4516
000002a0: a62a 0014 bc36 8196 0808 e115 3366 9d16
000002b0: 3c2f 2317 84bb 1595 c7c4 e897 5776 ed97
000002c0: be66 d996 4681 7817 43c2 ee15 ac14 3797
000002d0: 6a20 1097 3d87 db97 1bd3 9497 a255 8e17
000002e0: 623e da95 78b5 6c97 6dca 2116 d11e 9316
000002f0: 8489 9d96 8b1c 7496 1d94 1216 2aba 9797
00000300: 2a66 283c c32c 5d2e 32d1 eda2 0cd2 de19
00000310: be19 9337 276e d538 316d 5c3f 64b4 d419
00000320: 2d8e bebb 0402 203d abb7 0318 9825 cd30
00000330: 02c8 2234 6282 481a 1c40 d03e 8ddd 42bd
00000340: ad26 0239 c36b 31bc a6fa b3bb b5fc fe3c
00000350: 522b 5319 6264 c718 d79e 413e cb84 4634
00000360: f02b bcbe 7bf3 7620 6959 631a 9ae9 5719
00000370: 72dd ed1a 66a3 1324 dcc2 831a a66b 1db1
00000380: 2d77 55b1 077e 151b b79a 8fbc afa0 ac19
00000390: faf7 303d c417 791c a7c0 b419 6fd1 cc19
000003a0: db1e 363d 7406 859b 08f0 8216 648d 6a2d
000003b0: 51cd e33c 9c52 8514 f1a3 203c 183b 003e
000003c0: ae0e 322a cfaf 93bd fd00 d6a3 ee0f 4bac
000003d0: a87f 163f e978 be3e f8b9 17bd 0e8b be3f
000003e0: fae4 0096 3404 331d f998 9a1a 6624 d726
000003f0: 65ee b01e 0b6f 84bd 49fe e62d ebd4 c424
-0.013648008 -4.355504e-11 -2.0269263e-20 -8.728148e-25 -2.0856582e-05 -0.00021453982 -1.0418723 -1.6449206e-23
-0.5624437 0.1572215 1.3405643e-23 -1.4521616e-09 -1.8514527e-07 -3.2718372e-23 -0.41674647 -0.6708861
-0.00012229846 0.25642794 -2.2673733e-13 0.17272727 -5.7979667e-24 -5.143536e-24 -0.3545696 -2.5157766e-07
0.2978752 -3.9416493e-19 -2.0289346e-23 -4.1736303e-24 -7.637356e-23 -3.64712e-17 -4.837623e-22 -5.0631146e-13
-4.1909436e-09 -7.3962064e-22 -0.66112834 1.849893e-23 0.1372547 -1.0135879e-21 -5.3381862e-24 -7.625889e-24
-0.48249185 -8.1402075e-22 1.0310857e-25 -1.5762409e-11 -0.4018816 3.0304988e-26 0.19810247 -0.01323928
-3.2327518e-13 -0.33456847 -2.8066838e-22 5.3227245e-12 -0.2950964 -0.40901798 0.18747923 -1.6196593
-1.3046051e-25 -3.689904e-21 -3.8322462e-23 -3.9318785e-16 -4.7187542e-20 -0.49047157 -1.5439079e-11 5.864489e-18
-0.010788198 -3.020247e-11 -1.4243456e-20 -1.495047e-23 -1.640521e-05 -0.0001895724 -0.8838346 -2.8868204e-23
-0.5933921 0.1411559 -6.545082e-24 -1.1880057e-09 -1.3395598e-07 -5.690887e-23 -0.25023854 -1.1753594
-0.000122097 0.16922866 0.0054911226 0.16059181 -4.3967675e-24 -5.04569e-24 -0.266481 -1.9608422e-07
0.005580962 -3.0160287e-19 -2.5827028e-23 -3.33206e-24 -9.3916327e-23 -2.7468357e-17 -5.4003004e-22 -3.9243844e-13
-4.181767e-09 -8.969417e-22 -1.0114522 1.5301632e-24 0.1160882 -9.9643e-22 -5.3163167e-24 1.7487246e-24
-1.0914464 -9.372437e-22 -7.973795e-26 -1.3441718e-11 -1.1263025 2.2344944e-26 0.184347 0.19806214
-2.8292413e-13 -0.281073 -2.0137544e-23 5.5816415e-12 -0.32804716 -0.61992896 0.23990135 -0.5072251
1.0907544e-25 -3.1338967e-21 -3.707077e-23 -5.4340737e-16 -4.0747974e-20 -0.56647825 -1.0045787e-11 -5.68475e-17
-7.735722e-25 -1.4192788e-24 -2.234678e-24 -2.1137385e-25 -2.204634e-24 -1.3795103e-24 -1.9487685e-24 -1.2576754e-24
2.222521e-25 1.6341816e-26 -2.6138465e-25 -6.9153006e-25 -1.0369483e-24 -1.5042085e-25 -1.2727364e-25 -8.2411727e-25
-4.4384657e-25 -6.7808063e-25 -8.071671e-25 -1.2634497e-24 4.794402e-25 -1.0917268e-25 5.6005614e-25 -8.800642e-25
-8.733605e-26 5.312721e-25 -8.855613e-26 3.6045412e-26 6.2414665e-25 -1.2732541e-24 -4.7238613e-25 -1.0050295e-24
2.4197564e-25 -3.5384637e-25 -6.7686903e-25 -3.498016e-25 -1.1522999e-24 -1.8690028e-25 -1.6198391e-25 1.5926816e-25
6.4707595e-27 -2.0875616e-25 9.088945e-26 2.5429215e-25 5.272776e-25 -3.0238234e-26 -1.5042322e-24 -1.5345639e-24
-3.512308e-25 8.029629e-25 9.6433925e-26 -5.915658e-25 -4.656982e-25 -1.4186682e-24 -9.617566e-25 9.198152e-25
-8.814792e-26 -7.648476e-25 1.3069351e-25 2.3768579e-25 -2.5451503e-25 -1.971917e-25 1.1840522e-25 -9.805141e-25
0.010278264 5.028934e-11 -6.4460473e-18 2.30391e-23 1.7535753e-05 0.00010177149 0.8610411 2.1993145e-23
-0.0058152885 0.039064422 1.7024082e-24 1.4926398e-09 1.5160188e-07 4.1464353e-23 0.40673912 -0.04757457
0.00012412174 -0.010828915 -0.005492526 0.03112636 1.0917193e-23 5.1541655e-24 0.18908249 1.8488497e-07
-0.36752272 2.0917571e-19 4.7014725e-23 1.1162415e-23 9.8378667e-23 3.2013948e-17 5.449514e-23 -2.2907698e-09
-3.1063323e-09 1.2365713e-22 -0.017529828 1.7849283e-23 0.04320524 8.2417905e-22 1.8689375e-23 2.1177695e-23
0.04446302 -2.2007175e-22 2.1154114e-25 1.3332755e-11 0.027807863 1.3462152e-26 0.009804712 0.12522542
1.5814669e-13 -0.07211267 -2.3202345e-17 -2.8856878e-12 0.5878854 0.37201622 -0.037042588 1.4886186
-1.041201e-25 2.3692626e-21 6.394005e-23 1.4928488e-15 1.8733323e-20 -0.06466492 2.6260898e-11 8.536215e-17

bias f4 [16]
00000000: e3f7 9e3e 6dee 983e cb30 f397 de4b b53c
00000010: e3ef 9399 b987 309c a0cb 223a 5829 3ebd
00000020: 899a 123f c04b 8b3d a17e 82a1 50c3 593b
00000030: 2fee 293c 4141 a73e 2ad1 19bb b167 403c
0.31048498 0.29869404 -1.5715824e-24 0.022130903 -1.5296333e-23 -5.8408933e-22 0.0006210152 -0.046426147
0.5726705 0.068015575 -8.842661e-19 0.0033227988 0.010371729 0.32666972 -0.0023470619 0.011743472

weight f4 [4, 16]
00000000: c864 153f 06cb 153f 54c3 1a96 a5e4 9fbe
00000010: b997 bf9a a659 1a95 6549 96be ffd3 dabe
00000020: f47b 833e 55c4 9f3e 0539 7221 5ded a4bd
00000030: f402 91bc 8902 093f 2817 a33e 3837 acbf
00000040: 7a04 103f e4c8 163f 7ff5 e616 a0ef b9be
00000050: b9da 2c96 266c 8c95 4749 883c 8826 e0be
00000060: a684 863e 759c a53e d2c8 6b21 ee97 a5bf
00000070: 3a56 91be 113f 0e3f eb62 8f3e eefe 8cbd
00000080: d00e 0c3f 0513 173f 115c bf96 55cd 47bf
00000090: b1e4 6016 420e 1116 2ef2 dbbe 81e4 71bc
000000a0: 322a 573e 6fcf 65bf 315b cf20 35df 0ebd
000000b0: 2e28 d4be 23ce 063f 29f2 a13e 55cf 13bd
000000c0: 0795 f23e 4902 243f 45ce e293 89fc 0e3c
000000d0: 2986 6095 3c3c fa1c 8167 dfbe 3cb3 5cbf
000000e0: f241 6f3e bb29 913e 4693 bb1c 318b 80bd
000000f0: a9e9 edbe 90a7 0c3f c1e9 64bf 061a 0bbd
0.58356905 0.58512914 -1.2501656e-25 -0.3122913 -7.924087e-23 -3.1170772e-26 -0.2935287 -0.42739865
0.25680506 0.31204477 8.2068254e-19 -0.08053086 -0.017701603 0.53519493 0.31853604 -1.3454351
0.5625683 0.58900285 3.7313434e-25 -0.36315632 -1.3963066e-25 -5.671618e-26 0.016636504 -0.43779397
0.26273078 0.3234593 7.988688e-19 -1.293699 -0.28386098 0.5556498 0.28005156 -0.068845615
0.547101 0.59013397 -3.0915816e-25 -0.78047687 1.8166738e-25 1.1717506e-25 -0.42958206 -0.014763952
0.2101219 -0.89769644 3.512751e-19 -0.034880836 -0.41436905 0.5265829 0.31630066 -0.0360864
0.47379324 0.64065987 -5.725382e-27 0.008727201 -4.5342273e-26 1.6559182e-21 -0.43633655 -0.8621099
0.23365 0.2835215 1.2412691e-21 -0.06276549 -0.4646733 0.5494318 -0.8941918 -0.033960365

bias f4 [4]
00000000: 3cc6 583e c32c 523e ce6b 5a3d 7c36 063e
0.2116937 0.20524888 0.053325467 0.13106722
