data/2400.pth (torch, 16663 bytes, 6 tensors)

weight f4 [64, 33]
000000 5e 28 de 3c 57 e2 7c bc f5 c4 d6 3d dd a2 e0 3b
       0.027118858 -0.015434823 0.10486785 0.0068553523
000010 79 0c 91 bc 2d cf cd bd ef 9f b5 bd 37 a4 81 3d
       -0.017706143 -0.10049281 -0.088683955 0.063301496
000020 57 11 ad bd 59 af d8 3d bf 45 5a bd 21 6a e2 3c
       -0.08450573 0.1058032 -0.05328917 0.027638497
000030 82 16 f3 3d 64 ea 71 3c 28 02 b8 bd 56 ed 1c bd
       0.118695274 0.014765356 -0.08984786 -0.03831228
000040 b7 a7 35 3d 0c 10 9f 3c c9 87 d7 3c 83 a9 b2 3c
       0.0443494 0.019416831 0.026309865 0.021809345
000050 4f 9e 7a 3c f9 b5 d8 3d db 73 12 3d ef fc 88 bd
       0.015296533 0.105815835 0.03575502 -0.06688868
000060 00 f5 96 bc 00 a0 b1 3d 7f 21 53 3e 70 0d 5b 3d
       -0.018427372 0.08673096 0.20618246 0.053479612
000070 6c 32 18 3e f9 20 58 3d 48 fd 11 3d df f2 d9 be
       0.14862984 0.05276582 0.03564194 -0.42568108
000080 7d b3 aa bd d6 f2 df 3d 49 bf ab 3d 1f e0 07 3e
       -0.08335016 0.10934989 0.08386094 0.13269089
000090 2b 6e 4d bd 91 97 c1 bd 86 48 3f bb 15 53 8a bd
       -0.050153892 -0.09452737 -0.0029187514 -0.06754128
0000a0 c6 ac a0 3d 87 58 9a 3d 4b 6b a1 3d 58 4d 17 3e
       0.07845454 0.075364165 0.07881793 0.14775598
0000b0 94 c9 53 3c 69 77 60 bf ab 09 f4 bd 5e ff ed 3c
       0.012926478 -0.87682205 -0.119159065 0.029052433
0000c0 3f 98 90 3d be 60 20 bc 1e e5 c6 3c 6e 81 04 be
       0.07060289 -0.00978869 0.024279173 -0.12939999
0000d0 ca 3c bb bd f7 64 89 bd 60 ec b6 bb e1 59 e8 3d
       -0.09142454 -0.06708711 -0.0055823773 0.11345268
0000e0 d3 90 a3 bd 3a 02 ef 3c ac 86 ce 3e 7e e7 82 3e
       -0.079866074 0.029175866 0.4033712 0.2556724
0000f0 b5 be c0 3e a3 81 ae 3e 0a 40 50 bc 1a 4c 09 be
       0.37645498 0.3408328 -0.012710581 -0.13407937
000100 a9 ac ec bb 68 b6 b0 bf 5e dc 9b 3d a9 2d 85 bc
       -0.007222731 -1.3805666 0.07610391 -0.016257124
000110 5b 88 dd bb e1 14 58 3d a3 0b a9 3d 29 27 ce bd
       -0.0067606396 0.052754287 0.08254173 -0.10066063
000120 cb 0a ee 3d ed a1 b4 3d ea 6e 3c bd 98 1f 02 bd
       0.11623152 0.088199474 -0.046004213 -0.03176841
000130 3c 34 c8 3c 86 c7 4b 3d f9 f3 f8 3d 88 b7 cd 3d
       0.02443897 0.049750827 0.12155909 0.100447714
000140 fb 07 c4 bd b3 cc 2a 3c 33 b3 c2 3d 83 57 33 3d
       -0.09571835 0.010424781 0.09506836 0.04378463
000150 c0 cc 2f bc 3b 7a e4 3b a0 22 9d 3d b7 7f 99 3b
       -0.010729969 0.006972579 0.0767262 0.0046844142
000160 b7 15 12 3d 60 8d ce 3d 98 69 d4 3d 90 a1 b6 3d
       0.03566524 0.10085559 0.10371703 0.08917534
000170 be a4 0e 3d f4 09 fc bb c6 b5 3d 3e 94 b6 80 3c
       0.03482508 -0.007691616 0.18526372 0.01571206
000180 2f 9c 67 be db aa a2 bd 2e 51 d0 3d e9 e3 ee 3c
       -0.22618173 -0.07942744 0.10171734 0.02916141
000190 29 58 cb bd 54 26 c0 3c 75 84 2c 3b 40 5d 6c bd
       -0.099289246 0.023455776 0.0026324068 -0.057706118
0001a0 45 71 1c bd 98 d3 94 3c 04 9f 9d 3d d4 e4 a0 bd
       -0.03819396 0.018167302 0.076963454 -0.078561455
0001b0 5b b7 44 3d 06 01 94 bd 38 ab 1c bd 01 0d 80 3f
       0.048026424 -0.07226758 -0.038249224 1.0003968
0001c0 0f 7e 8a 3d 3a b5 0a bd dc ac d0 3d 4f 48 dc bd
       0.06762325 -0.033864237 0.1018922 -0.10755979
0001d0 ba 84 9f 3d 0d 95 12 3e f2 62 a0 bd 91 6a ac 3d
       0.077889875 0.14314671 -0.07831372 0.084187634
0001e0 8d b5 86 3d ea 84 ab bd 76 22 d3 3d c2 a3 82 3d
       0.06577597 -0.08374961 0.10309307 0.063788906
0001f0 ea e4 59 be 50 cf 03 be 3a 75 8c be a4 f6 ae be
       -0.2127873 -0.12872052 -0.27433187 -0.34172547
000200 23 1b 24 3d db b5 ca 3c b3 49 a4 3d 9e dc ba 3f
       0.040064942 0.024744919 0.080218695 1.4598577
000210 77 2c 98 3d 0e 7d d1 bd e8 ec 5e bc 1b 15 9f 3d
       0.07430356 -0.102289304 -0.013606288 0.077676974
000220 f5 25 cf bd e2 58 0f bd 55 a4 b5 3d 39 09 d9 bd
       -0.101146616 -0.034996875 0.088692345 -0.10597462
000230 2c e4 56 3d dd f0 99 3c c5 0f 65 bd 63 c9 d2 3d
       0.052463695 0.01879161 -0.055923242 0.10292318
000240 d2 ef a4 3d f2 63 91 bd 1d 00 55 3d 29 bf a5 bd
       0.080535546 -0.07099141 0.05200206 -0.080931015
000250 73 01 fa 3c 6e cc b7 3d 89 dc 6f bc 6b 08 d8 3d
       0.03051827 0.08974539 -0.014639982 0.105484806
000260 3a 24 90 bd 29 ec 4f bc 73 72 b0 3d 7f 2e 4b bc
       -0.0703816 -0.012690582 0.086155795 -0.012401222
000270 d4 d9 91 3b 66 0f 9e 3e 51 da 10 3e c5 3b fc 3d
       0.004451016 0.30871123 0.14145781 0.12316088
000280 a8 f4 2d 3e be c3 a2 3c c9 fc 43 3e 64 02 34 be
       0.1698786 0.019868728 0.19139399 -0.17579037
000290 68 b2 98 bd 62 e5 30 3d 34 97 ab bd 67 b4 00 3e
       -0.07455903 0.043187506 -0.08378449 0.12568818
0002a0 2c 3b 6a bd 78 0d 98 3d 15 c4 3c bd b2 7f 69 3c
       -0.057185337 0.07424444 -0.046085436 0.014251636
0002b0 69 00 c9 3d 37 f1 ad bd bb 1f 49 bd e3 72 b2 3d
       0.09814531 -0.08493274 -0.049102526 0.08713319
0002c0 17 3d 9c 3c 2c d5 2d bf e1 c3 1f bd 4a 3c 2f bd
       0.019072099 -0.679034 -0.039005164 -0.042782106
0002d0 20 ad 0c bd df db 81 3d a8 2f be bd 76 fa 45 3c
       -0.034344792 0.06340765 -0.092864335 0.01208364
0002e0 d6 5f a0 3d b5 ec 1a bc 1e ae 4a bd 14 22 12 3e
       0.07830779 -0.009455849 -0.049482457 0.14270812
0002f0 d4 c6 b8 3d 79 12 1c bd bd 97 16 3e ea 67 ea 3e
       0.090222985 -0.038103554 0.14706321 0.45782405
000300 a2 6f a1 3e 81 de 86 3e cd 15 03 bd e1 b0 15 3d
       0.31530482 0.26341632 -0.032003213 0.036545638
000310 40 71 a1 3c 88 2e 8e bf 85 7e 4b 3d 73 14 2b 3d
       0.019707322 -1.110795 0.049681205 0.04176755
000320 50 11 ab 3b 47 ad a8 3d 9e 16 a1 bd 59 0a 06 3d
       0.0052205697 0.08236175 -0.07865642 0.032724712
000330 fd 41 f1 bc fc be b8 bc 5c 07 71 3d d4 5f a1 3d
       -0.029450411 -0.022552006 0.05884491 0.07879606
000340 ab 66 5b 3d 00 5f b8 bd 60 c0 af 3e d0 7e 86 bd
       0.05356471 -0.09002495 0.34326458 -0.06567156
000350 5b f5 2e 3c 2c a8 6a 38 1f 33 81 3d 53 61 70 bd
       0.0106786145 5.594657e-05 0.06308579 -0.058686566
000360 f4 17 7e 3c 43 2a 01 3a a3 fc 88 bc 91 d5 c3 bd
       0.015508641 0.0004927257 -0.01672203 -0.09562219
000370 59 b1 8a 3d b0 9c 0f bd 2f 31 87 3d 20 43 74 3e
       0.06772108 -0.03506154 0.06601178 0.23853731
000380 ef 3a b7 3c 24 28 39 3d b9 31 84 bc 5a 08 68 3e
       0.022366969 0.045204297 -0.01613699 0.22659436
000390 4b 81 36 3e db 36 1c 3b 59 b2 f7 3e 8a 90 52 3d
       0.17822759 0.0023836407 0.48378256 0.051407374
0003a0 06 34 13 3d db 4c 3b 3d 4d 6c c3 bb fd f9 7b bd
       0.035938285 0.045727592 -0.005963838 -0.061517704
0003b0 30 fc bb 3d 01 6c e0 3d ac 86 bf bd 8a 18 8f 3d
       0.0917896 0.109581 -0.093518585 0.06987102
0003c0 97 7c 97 bd c5 32 c9 3c dc 89 32 3d 69 29 4d 3e
       -0.073968105 0.024560342 0.043588504 0.20035328
0003d0 9b c7 c1 3c 26 9f 22 3d 6d 84 90 bd b3 f1 8b 3d
       0.02365475 0.039702557 -0.07056508 0.0683321
0003e0 cc c0 f3 b9 dd 6c 47 bc f8 93 c8 bd 8d 34 00 3d
       -0.00046492217 -0.012171951 -0.09793848 0.031300116
0003f0 e8 2b a7 3d b9 60 cd bd 5f b8 8c bd 6a 20 25 bd
       0.08162671 -0.10028214 -0.068711035 -0.040314116

bias f4 [64]
000000 2f 68 bc 3d 5e 3e bd 3e 1d fd 22 bd 95 6b 28 be
       0.09199559 0.36961645 -0.03979217 -0.1644729
000010 03 82 87 3d 40 24 20 3e e3 ba 3e 3d 27 1a 15 3e
       0.06616595 0.15638828 0.046564948 0.14560758
000020 7c 53 88 3d a7 b2 ca bd ad f9 02 be 0e 61 0a 3e
       0.066565484 -0.098973565 -0.12790556 0.13513586
000030 d9 05 2d 3d 71 ba 93 be c1 38 65 bb d0 47 c3 3d
       0.042241905 -0.2885318 -0.0034976455 0.095351815
000040 11 53 f6 3d 90 d7 21 3c 5a 79 b0 3d 8e fc 19 3e
       0.120275624 0.009878054 0.08616896 0.15037748
000050 83 f0 1d be 48 81 bd bd bc ef bb 3d 5b 00 0c 3d
       -0.15423779 -0.09253174 0.09176585 0.034180027
000060 58 b0 7a 3e 5a b2 05 3c cc fa 6a be ee 8a 36 3d
       0.24481332 0.008160198 -0.22947234 0.044566087
000070 58 75 5c be d2 f1 0c be fb 9e e8 bd e1 16 58 3c
       -0.21529138 -0.13764122 -0.11358448 0.0131890485
000080 8f dd 06 3c ca ff 22 be 62 b5 8b 3d 7b 86 05 be
       0.008231535 -0.15917888 0.068217054 -0.13039581
000090 87 bf aa bd 84 4f 9b bd aa 1f a6 3c ae b0 8b bd
       -0.08337312 -0.07583526 0.02027877 -0.06820808
0000a0 99 b6 85 3d fa b6 5a be b8 36 fc 3c e4 88 40 3e
       0.06528968 -0.21358863 0.03078781 0.1880222
0000b0 f0 ad a1 3c 90 9f 1b 3c cd 42 fe 3d f6 94 38 3c
       0.01973626 0.009498492 0.12415085 0.011265984
0000c0 0c 67 c6 3d 0c f5 d2 3d 00 0f 73 3c 50 22 f1 3d
       0.096876234 0.10300645 0.014835119 0.11774123
0000d0 2e 2a 64 3d c8 e5 20 3e b8 4c de bd ac df 56 3d
       0.05570429 0.15712655 -0.10854477 0.052459404
0000e0 f3 33 d0 bd ec 4c 47 be 9c 77 8d 3d 1c 83 06 3d
       -0.101661585 -0.19462937 0.06907579 0.03283988
0000f0 ae 66 0e 3e 1f fc 26 3d 56 f6 69 3e b1 b0 27 3e
       0.13906357 0.040767785 0.22847876 0.16375996

weight f4 [16, 64]
000000 b3 7f 9e bd 2a 9b 31 bd b7 89 9e bc f4 44 99 bd
       -0.077392004 -0.043360867 -0.019352777 -0.07483855
000010 4e f5 2f 3c 1d fc b2 bd fb 80 32 bd 75 32 00 3d
       0.010739638 -0.08739493 -0.043580037 0.03129812
000020 24 fd b6 bd 0e a2 0c bc c4 1b 75 3d 79 13 2e 3d
       -0.089350015 -0.008583559 0.059840932 0.04249904
000030 30 1c 13 3d b9 66 9c bc 8f 46 9d bc 4d 79 9e bc
       0.035915554 -0.01909195 -0.019198684 -0.01934495
000040 dd d8 e3 3b 63 c1 1c bd e1 fa 87 bd 50 99 4e 3d
       0.0069533424 -0.038270365 -0.06639648 0.05043918
000050 da 7b 01 bd 5b 7d 93 3c 29 e3 27 bd 5c 0b 94 bc
       -0.031612255 0.01800411 -0.04098812 -0.018071823
000060 80 67 74 bd 5b cf 84 bd e0 5f 83 bd 0d 54 91 bc
       -0.059669018 -0.064848624 -0.06414771 -0.017740274
000070 36 ee 19 bd e9 e8 dc 3c 5a 34 6d bd a6 25 7e 3c
       -0.03758069 0.026966529 -0.057911254 0.015511906
000080 81 b5 9d 3d ef 56 a5 bd 54 b8 ab bd 5a 7c 2f bc
       0.07700635 -0.08073222 -0.08384767 -0.0107108
000090 e7 5d ed ba 3f 29 2c 3c 7b 0d 08 3d 2f 2e 6e bd
       -0.001810965 0.010507881 0.03321598 -0.058149513
0000a0 c1 ef 50 3b 48 25 72 3d 84 f7 75 3d 51 e7 bf 3a
       0.0031881186 0.059117585 0.060050502 0.0014641081
0000b0 3d 0a a8 3c 11 bf 69 ba 79 0e 4b 3d ed 92 5b 3d
       0.020512694 -0.0008916716 0.04957435 0.053606916
0000c0 b4 36 8c 3c b5 19 1c 3d 52 b1 b2 bd f9 b9 bf ba
       0.017115928 0.038110454 -0.087252274 -0.0014627568
0000d0 b0 4a ac 3c a7 86 fb bc ad 6e 09 39 10 af 70 3d
       0.021031708 -0.030703856 0.00013106568 0.058760703
0000e0 71 9c 9b bd 3b 01 9c bd 3b 7f f6 3b 6b 26 cb bc
       -0.07598198 -0.07617422 0.0075224913 -0.024798593
0000f0 3e d7 70 bb 7b 81 54 3d 37 32 bb bd 44 4e f7 3c
       -0.0036749388 0.051881295 -0.09140437 0.030188687
000100 2e 6a db bd f2 65 98 3e 09 e3 d2 bd f6 77 53 be
       -0.107136115 0.29765278 -0.1029721 -0.2065123
000110 e5 fc 4b bd d7 1b 55 3e 5d 2d 2c 3d 81 32 98 3c
       -0.049801726 0.20811401 0.04203545 0.01857877
000120 5a 95 85 bd 0c 55 f1 3d f7 c3 fc bd d4 96 ef bd
       -0.06522627 0.117837995 -0.12342065 -0.1169869
000130 a6 21 06 be df b1 c0 bd f3 b2 34 3d 78 87 ee bd
       -0.13098773 -0.09408926 0.04411597 -0.11646932
000140 9e 32 f4 bd 85 c7 cf bd 52 22 2b be ee 85 e0 3c
       -0.11923717 -0.10145477 -0.16712311 0.027407613
000150 3c 8e b2 bd 7e 84 99 3d 70 4a b0 bd 84 8a 38 3c
       -0.08718535 0.07495974 -0.08607948 0.011263493
000160 4c 3d 09 bd c7 b5 36 bc 91 86 56 bc 9f 78 59 3d
       -0.033505723 -0.0111517375 -0.013093607 0.05309355
000170 23 2c 64 3d 4e 3c 61 3c a0 46 33 be 8a 73 72 be
       0.055706155 0.013747288 -0.1750741 -0.23676887
000180 27 f1 f0 3b 01 22 1d be 6d fa 0f be 1e 78 1c be
       0.0073529663 -0.15345003 -0.14060374 -0.15280196
000190 d5 73 05 bd 82 ab 8e be 49 8d d2 bd 29 51 de bd
       -0.03258117 -0.27865225 -0.10280854 -0.10855324
0001a0 48 b4 14 3d d6 89 0d be fe 39 3e bd d0 96 52 3d
       0.036304742 -0.13822111 -0.046442024 0.051413357
0001b0 90 09 d2 bd f5 35 55 3c d6 e1 6a bd 70 3b c0 bd
       -0.1025573 0.013013353 -0.05734428 -0.09386337
0001c0 15 d0 2d be f4 48 39 bd 78 ec fd 3d be f6 05 be
       -0.16973908 -0.04523559 0.123986185 -0.13082406
0001d0 6c 89 01 be 1a 76 67 3e 6b 79 92 3d 08 12 c9 bd
       -0.12650079 0.22603646 0.07152065 -0.09817892
0001e0 cf 18 82 3d 64 53 22 bd 43 cf 2a bd 8b 01 78 bd
       0.06352388 -0.03963031 -0.041701566 -0.060548346
0001f0 96 b1 95 bd 7b 70 82 bd 08 0d 10 be 65 4f 6b bd
       -0.073092625 -0.0636911 -0.14067471 -0.057448763
000200 a3 12 56 bd 1c 7d 8b bd 8c c9 fb 3c 0c 4c ef bc
       -0.052263867 -0.06810972 0.030735753 -0.029211067
000210 50 46 2e bd 42 be 18 bd bc b6 9f 3a c3 e0 2f bd
       -0.042547524 -0.03729082 0.0012185196 -0.04293896
000220 9d ac 28 bd 64 93 f5 bc c6 14 7a bd 17 22 53 bd
       -0.04118024 -0.029977508 -0.061054967 -0.051546182
000230 a5 d8 58 bd 13 36 e4 3c 5d cc 69 3d 79 8e 1d 3c
       -0.052940983 0.027857816 0.05707966 0.009616488
000240 2a b2 33 bd f2 ec 30 3d db 70 92 bd 6a cc 92 3d
       -0.043871082 0.04319472 -0.07150432 0.07167895
000250 83 f7 44 3d 72 36 82 bd 26 92 98 bc 50 b2 3f bd
       0.048087608 -0.06358041 -0.018624377 -0.04680091
000260 4c ba 7d 3d 99 bc 6a 3b 01 73 2d bd 39 f6 ab 3c
       0.061945245 0.003581798 -0.042346004 0.020991432
000270 32 3a 89 bd 2e 30 a0 bd 37 3c 84 bd ae db 79 bd
       -0.06700553 -0.078216895 -0.064567976 -0.06100052
000280 c4 f1 83 bd 46 ee a4 bd 72 94 49 bd 9b ef ad 3b
       -0.064425975 -0.080532596 -0.049213834 0.005308104
000290 f1 65 16 3d 65 04 93 3d f5 59 cd ba ac 71 ee 3c
       0.036718313 0.071785726 -0.0015667068 0.029106937
0002a0 03 cc 85 3d 1c b0 94 bd 74 cf 58 3d 47 16 1d bd
       0.06533053 -0.07260153 0.052932218 -0.038351323
0002b0 6b ac 6b bd 0e 45 90 bc 85 13 ce b8 de de de 3c
       -0.057537477 -0.017611053 -9.826481e-05 0.02720588
0002c0 70 7d d9 3c 98 27 8d 3d 09 77 75 3c f8 94 4b 3d
       0.026549071 0.068923175 0.0149819935 0.049702615
0002d0 0d 11 2c bd e0 c0 8f bd 58 0f 3f bd dd 4e 0e 3d
       -0.04200845 -0.0701921 -0.046645492 0.03474318
0002e0 0b 49 52 bd 4a 79 61 bb fc 9c da bb 7c ae 9c bc
       -0.05133919 -0.003440457 -0.006671546 -0.01912617
0002f0 d4 0d 8e bd 5d e6 50 3d 4e 1a 3b 3b 22 97 e4 3c
       -0.06936231 0.05100094 0.0028549614 0.027904097
000300 d4 d3 80 3e 6c 61 86 be 7f 30 8d 3e c5 58 b6 3e
       0.25161612 -0.26246202 0.27576062 0.356146
000310 17 b1 25 3e a8 84 88 be 1a 52 98 3d cf 2e 25 3e
       0.16180836 -0.2666371 0.07437535 0.16131137
000320 c5 b6 76 3d ae 97 ea bc 95 04 d0 3e 9b 18 51 3e
       0.060232896 -0.02863678 0.40628496 0.20419542
000330 c8 36 41 3e a8 76 60 3e e2 39 fe 3d 86 e7 6c 3d
       0.18868554 0.21920264 0.12413384 0.057837985
000340 20 8d 37 3e fe 70 d8 3d a4 85 7e 3d a2 cf 15 3d
       0.17924929 0.105684265 0.06213917 0.036574967
000350 06 25 07 3e 64 94 f4 bc 61 28 3d 3e 25 b2 37 3e
       0.13197717 -0.029855914 0.18472435 0.1793905
000360 ee a9 4f 3e cb aa e7 3d 21 50 8d 3e c2 de f9 3b
       0.20279667 0.11311873 0.27600196 0.0076254318
000370 3f 0d 63 3e 99 4a 15 3e d9 bd b3 3e 5d bb 26 3e
       0.22173022 0.14579238 0.3510578 0.16282411
000380 2d ef 56 be 24 f9 35 3e d7 88 67 3e 86 8d de 3e
       -0.20989676 0.17770821 0.22610794 0.4346735
000390 c0 b0 f8 bc 63 2b f7 3e 08 a8 87 3e 29 ec 5b 3e
       -0.030357718 0.4827529 0.26495385 0.21476807
0003a0 41 91 51 3e 7b 2d 76 3e 4c e8 12 3d cb 4e e3 3e
       0.20465566 0.24040787 0.035866067 0.44396052
0003b0 55 37 a5 39 d8 a1 8e 3d a0 64 4a 3e 28 bc 4a 3e
       0.00031512478 0.06964463 0.19764948 0.19798338
0003c0 9d 76 92 3e c1 8d 7f 3d 32 b2 07 bd 28 ca 26 3e
       0.2860612 0.062391046 -0.033128925 0.16288054
0003d0 8d cd f7 3d 53 72 10 be 10 df 40 3e 5b 1d a8 3e
       0.120997526 -0.14106111 0.18835092 0.32834896
0003e0 4d 5f 78 bd 7a ab 39 3e 02 cb 3f 3e 37 9c 1c 3e
       -0.06063776 0.1813182 0.18729785 0.15293966
0003f0 83 a2 b6 3e e1 20 eb 3b 55 76 ac 3e 55 50 fc 3e
       0.35670862 0.0071755503 0.3368403 0.49280038

bias f4 [16]
000000 1a f4 3e bd 44 a0 22 3e 5d 2d 41 bd e4 3b 31 be
       -0.046619512 0.15881449 -0.047162402 -0.17308003
000010 f9 fa f6 3c 3d d7 d8 bd c1 e7 47 be d1 08 cb 3d
       0.03014897 -0.105879284 -0.19522001 0.09913791
000020 77 f4 97 bc 3e 39 8b bd f8 8a 4a bd b6 67 ce bd
       -0.018549187 -0.067980275 -0.049448937 -0.10078375
000030 16 5f 2e ba b4 c5 13 3e cd 39 68 be 77 df 02 be
       -0.0006651742 0.14430887 -0.22678299 -0.12780558

weight f4 [4, 16]
000000 70 a9 b6 3c be 2b 84 3e cd 0a e8 bd 4f 96 5e be
       0.022297591 0.25814623 -0.11330185 -0.21737026
000010 7f d7 a9 3c d8 b7 94 bc a3 56 7e be a4 aa b2 bc
       0.02073264 -0.01815407 -0.24837737 -0.021809883
000020 83 9d 59 3d 99 e0 ae bd 5a 2c f7 3b a7 4f 2a be
       0.05312873 -0.08538932 0.007543129 -0.16631947
000030 a3 e2 d1 3c b9 f0 79 3e e4 43 3a be d3 52 79 be
       0.025620764 0.24408235 -0.1818996 -0.24348001
000040 d5 00 a3 bd c7 a4 ae 3e 80 c5 0a bd cc 79 5e be
       -0.07959143 0.3411009 -0.033879757 -0.2172615
000050 27 88 a6 bd dd 4b 07 bd dd f9 44 be 03 61 16 be
       -0.08131438 -0.033031333 -0.1923594 -0.14685445
000060 5a 30 0f 3e 35 13 11 be 9e ef db 3c b6 02 4e be
       0.13983288 -0.14167483 0.026847657 -0.20118222
000070 05 35 4d be 1b 32 25 be 61 aa 33 be e4 c1 a1 bc
       -0.20039757 -0.16132395 -0.17545463 -0.019745775
000080 fb 7f a5 3d 85 3e aa 3e 3e 53 20 bd f7 ba 8e be
       0.08081051 0.33250824 -0.039141886 -0.27877018
000090 b7 ad d8 3d 4a c3 8b 3d 67 6b 45 be 26 10 22 3d
       0.105800085 0.06824358 -0.19279252 0.03956618
0000a0 5f 43 0c 3e 38 eb 3a be ed 7e 03 3a 2f d0 e6 bd
       0.13697575 -0.18253791 0.0005016167 -0.112701766
0000b0 40 a5 52 be 64 d6 cd 3c e1 75 48 be 41 87 3f be
       -0.2057085 0.025126643 -0.19576217 -0.18703939
0000c0 ff 4f 5b bd 35 5a a4 3e b7 5c 64 3d f5 19 a7 bd
       -0.053543087 0.32100073 0.055752482 -0.08159248
0000d0 7b 53 d8 bc 56 4a 17 be 58 8d 3b bd 8e ed 62 be
       -0.026406994 -0.1477445 -0.045789093 -0.22160932
0000e0 d1 19 92 bd 03 a2 8c be 62 18 f8 3d 00 b5 1e be
       -0.0713383 -0.27467355 0.12114026 -0.15498734
0000f0 60 d8 d4 bd 9b 4d a8 3d ac b0 69 be 98 1d 33 be
       -0.10392833 0.08217927 -0.22821301 -0.17491758

bias f4 [4]
000000 b1 c0 eb 3d 77 f8 85 3c f7 48 8e bc 9f d0 ed ba
       0.11511362 0.016353829 -0.017368777 -0.0018143839
