data/243200.pth (torch, 49111 bytes, 6 tensors)

weight f4 [64, 33]
00000000: 1c85 67b6 8961 dfb4 bbd0 8734 ee8b 09b6
00000010: a1f7 6a33 7c09 e5b2 82e5 2535 5e1a 9ab4
00000020: a1aa a731 d06b ba35 4492 7d33 bca0 3535
00000030: 9117 dbb6 f23f d535 8804 2db5 6d3c f1b4
00000040: 4df8 92b4 b0b0 6535 5947 2735 d7fe 7b35
00000050: a4e4 5f33 4f50 3e34 eef3 ccb5 1818 7a35
00000060: 2ee4 6ab5 4e2b 05b8 3980 e0b7 79dd e0b7
00000070: 53b3 d3b7 1cb1 3f36 4c58 dbb6 791b d036
00000080: 9345 9eb6 824e ec29 2541 e327 98a2 9529
00000090: 31f2 8928 b5b0 45a9 e472 d028 6146 cd29
000000a0: 7781 c929 e0a8 a629 ffe4 88a9 69d5 bba9
000000b0: a4d7 5729 3721 eea9 e4b9 d929 bd3c daa8
000000c0: 5e28 9b29 1498 51a8 f4b8 5ea8 b67b 1d29
000000d0: cebd 4e29 42d6 8329 fbfb 9428 900b 0ea7
000000e0: 8910 e329 fed6 8c29 f021 fcaa 9d50 81a9
000000f0: 7695 25ab b4fa 6fab aecf 95a9 6a86 74aa
00000100: 2996 f928 2d4a e1a9 2ed2 1419 8ec4 f596
00000110: 1d59 1818 108c 9a98 06a3 4218 77d8 ac98
00000120: 253a d318 018f 9498 9cfb 2519 7aea 3c9f
00000130: e8f6 3c9f 454b fa18 f166 3d9f 9148 3d9f
00000140: 844b 3d9f 733e 3d9f 7efd 3c9f fa1c c518
00000150: 9fba 4f19 91f9 4317 d428 1718 b619 3d9f
00000160: fd1d 3d9f 0325 3d9f fb47 f518 693a 3b9f
00000170: f698 3c9f b436 3c9f 8e1f 389f c6b4 3a1f
00000180: 932d 3c9f d0ca 3d9f c758 3d9f 8a92 ff95
00000190: ff87 f995 bfa3 b495 463b 4f95 86f9 f895
000001a0: 97d1 0896 6619 f095 3801 4f93 6b87 1395
000001b0: 9365 0a96 b678 cb95 4445 bd92 931a c915
000001c0: 1790 1413 85af 5895 a113 d795 5d13 4995
000001d0: 49f0 e094 24b7 dd94 663d fb94 1259 5094
000001e0: acd6 6895 ea91 7693 ff0d ee94 364f 9195
000001f0: 0a8d 9996 ad78 3896 57df 4c96 d807 7b96
00000200: 42db 4814 01e8 2c95 6a8f fd94 1133 8016
00000210: f5df 59b1 7e6b 0cb1 6ff4 fab0 7261 71b1
00000220: bc2f 23b0 ee34 d2ab b5bf 60b0 7882 f8af
00000230: e603 29b0 9a80 baae 2e8d c2af 8b69 7531
00000240: 6b5d 09b2 9d77 f030 2881 cf2f b7df 4131
00000250: 3714 cc2f 0fc0 7bb0 db3d b630 0d8a b930
00000260: bc7c 8bb0 dbbc 46b1 e1d5 4730 e670 d52f
00000270: b6aa 24b1 fcdf 2cb3 b8be 0fb3 b7d8 3ab3
00000280: 6272 25b3 bc46 3eb0 f777 dcb1 8e98 1d32
00000290: 5c6c b3b1 3ec0 93b3 1c5d d0b2 990d c7b2
000002a0: ac4d 10b2 8e51 e6b2 5aac f3b2 e455 a732
000002b0: b1ee 9bb1 16c0 16b2 b979 15b3 146f 5fb3
000002c0: a321 d6b2 ebef e4b3 5d8a a8b2 46cc 6832
000002d0: 1e29 3333 3d73 12b3 1411 b332 0868 9032
000002e0: 45a0 b031 56e5 7032 13b1 2fb2 3472 7db2
000002f0: b4ba 1131 0f8d 43b2 1d73 08b5 e0f5 cdb4
00000300: 13c0 f3b4 53b3 fab4 382b 9532 fee2 9133
00000310: a807 ca33 bc50 a3b3 25ad b7bc 046b 56bc
00000320: 6887 6d3c 9d74 10b9 ce85 1b3c 95f5 db3b
00000330: 3601 6c3d 7634 5e3c f497 de3c 48bb f93c
00000340: 726a 953a cdfe 053d eadc 98bd 4b29 293d
00000350: b959 61bc 1ea6 be3c ac65 bb3c 4618 ae3b
00000360: 6930 6b3d 0dd5 283d 77b3 ca3c a179 beba
00000370: 2f51 cd3c b813 943c bdd3 a1bc 2f5c e3be
00000380: 5d2d e3be 4cf5 dabe 9fda bfbe 08db ad3b
00000390: ad84 d1bd b2bc 093e 9d28 36bd 4c29 ab14
000003a0: aa75 8795 22ae 5294 58c6 7014 e537 0996
000003b0: ffad c094 b39d d914 4c73 5c94 d6d5 8115
000003c0: 6ee3 5696 7056 9d94 f6ca d213 6bbb 7613
000003d0: 6422 0a95 c222 db14 eefb 7495 eae1 0096
000003e0: 2013 4b95 00ba b413 c87d c714 f5c3 8914
000003f0: d0bf 3795 796c 2a14 c1fa 1e94 ad7d 9895
-3.4499162e-06 -4.1607953e-07 2.529758e-07 -2.049604e-06 5.4707588e-08 -2.6663422e-08 6.180127e-07 -2.870392e-07
4.879738e-09 1.3889457e-06 5.903918e-08 6.7661654e-07 -6.529452e-06 1.5888347e-06 -6.4454116e-07 -4.4933714e-07
-2.7375282e-07 8.556626e-07 6.231617e-07 9.387563e-07 5.212918e-08 1.7724345e-07 -1.5270177e-06 9.316732e-07
-8.750384e-07 -3.175e-05 -2.676259e-05 -2.6806012e-05 -2.5236664e-05 2.856431e-06 -6.5369877e-06 6.2020813e-06
-4.7168664e-06 1.0494124e-13 6.3075786e-15 6.645135e-14 1.531509e-14 -4.3896056e-14 2.3142465e-14 9.1160376e-14
8.948652e-14 7.401176e-14 -6.079338e-14 -8.341489e-14 4.792663e-14 -1.0575085e-13 9.668983e-14 -2.4229203e-14
6.8903853e-14 -1.1634807e-14 -1.2363581e-14 3.4968305e-14 4.5905818e-14 5.8547365e-14 1.654058e-14 -1.9712727e-15
1.00836935e-13 6.254544e-14 -4.478774e-13 -5.742735e-14 -5.8827194e-13 -8.525778e-13 -6.652956e-14 -2.1718188e-13
2.7709675e-14 -1.0004875e-13 7.693866e-24 -3.9705928e-25 1.969053e-24 -3.9949494e-24 2.5156218e-24 -4.467953e-24
5.4600933e-24 -3.84015e-24 8.581112e-24 -4.0004503e-20 -4.0014785e-20 6.469949e-24 -4.0107458e-20 -4.0082332e-20
-4.0084772e-20 -4.0073964e-20 -4.0020232e-20 5.0952565e-24 1.0739337e-23 6.3322895e-25 1.9536906e-24 -4.0043574e-20
-4.0047112e-20 -4.0052922e-20 6.3403697e-24 -3.9647106e-20 -3.9937075e-20 -3.9855798e-20 -3.8989617e-20 3.9536564e-20
-3.9848247e-20 -4.019007e-20 -4.0095742e-20 -1.0322488e-25 -1.00784863e-25 -7.2959767e-26 -4.1850076e-26 -1.0056008e-25
-1.1052127e-25 -9.69753e-26 -2.6127674e-27 -2.979324e-26 -1.1179602e-25 -8.2181495e-26 -1.1944652e-27 8.122518e-26
1.8751268e-27 -4.3759313e-26 -8.686878e-26 -4.0606902e-26 -2.2712996e-26 -2.2387534e-26 -2.536874e-26 -1.05188824e-26
-4.7021373e-26 -3.1121506e-27 -2.4037379e-26 -5.8690006e-26 -2.4807491e-25 -1.490148e-25 -1.6549462e-25 -2.0278094e-25
1.01406606e-26 -3.4918142e-26 -2.5603038e-26 2.0711743e-25 -3.170496e-09 -2.0433784e-09 -1.8259366e-09 -3.5125507e-09
-5.936689e-10 -1.4936088e-12 -8.176316e-10 -4.520364e-10 -6.148738e-10 -8.481145e-11 -3.538871e-10 3.5712187e-09
-7.99569e-09 1.7496294e-09 3.7744852e-10 2.8212364e-09 3.7121747e-10 -9.15862e-10 1.3259823e-09 1.3499758e-09
-1.0149033e-09 -2.8920144e-09 7.269972e-10 3.8824693e-10 -2.396218e-09 -4.0250583e-08 -3.346824e-08 -4.35036e-08
-3.8521087e-08 -6.9222117e-10 -6.416481e-09 9.17329e-09 -5.2219047e-09 -6.8801896e-08 -2.4256728e-08 -2.3172833e-08
-8.399564e-09 -2.681261e-08 -2.83673e-08 1.9480417e-08 -4.53823e-09 -8.774824e-09 -3.4802472e-08 -5.202226e-08
-2.4928175e-08 -1.0660718e-07 -1.9620694e-08 1.3550624e-08 4.171408e-08 -3.4098083e-08 2.0846109e-08 1.6811114e-08
5.1404947e-09 1.4021984e-08 -1.0226603e-08 -1.4752505e-08 2.1206406e-09 -1.1382567e-08 -5.083146e-07 -3.8363123e-07
-4.540203e-07 -4.6696604e-07 1.7365537e-08 6.793378e-08 9.407751e-08 -7.6049645e-08 -0.022421429 -0.013087038
0.014497615 -0.00013776352 0.009492351 0.0067126253 0.057618342 0.013562312 0.027172066 0.03048481
0.0011399521 0.0327137 -0.07464011 0.041299146 -0.013754302 0.02327257 0.02287563 0.005312952
0.057419214 0.041218806 0.024743779 -0.0014532098 0.025063125 0.018075809 -0.019754285 -0.44406268
-0.44370547 -0.42765272 -0.37471482 0.0053056516 -0.10230384 0.13450888 -0.044472326 1.7282876e-26
-5.471171e-26 -1.0636632e-26 1.215602e-26 -1.1084409e-25 -1.9455675e-26 2.1973602e-26 -1.11299e-26 5.244006e-26
-1.7358546e-25 -1.5887042e-26 5.3211588e-27 3.114197e-27 -2.7896007e-26 2.2127058e-26 -4.9474145e-26 -1.0411044e-25
-4.101061e-26 4.56218e-27 2.0143477e-26 1.3910756e-26 -3.710787e-26 8.604199e-27 -8.026414e-27 -6.159059e-26

bias f4 [64]
00000000: dcad a4b7 ec55 84aa ea1a 2c9f ec78 2c96
00000010: 7e9e eeb2 ce47 acb4 e3b9 99be 1c38 3796
00000020: ab51 09be 39c0 ec3c a4d6 f695 0b8a 34ac
00000030: 54e0 98af 1b4d 0a97 c5f1 5bbe 290c 18be
00000040: 1429 57b5 b8a2 1bbb d761 0bb7 de19 0e3d
00000050: 310c 9f95 95ed 1295 5786 58ba d7ea 38b0
00000060: f700 bf3d 46c7 269c b748 ba96 2e28 9895
00000070: 5de0 0a97 002a baa8 65be d098 0eb6 a0ad
00000080: fe79 90ad 6596 5f98 2d8f a3bd 8b4d 7396
00000090: f903 ac3d de31 1098 bed4 0d96 545e f595
000000a0: c13d f4bc 7c81 a298 5dd7 4992 76a5 cba8
000000b0: 50d4 2c3c 0391 4292 467c 5a3d 5083 183e
000000c0: 028c 0ea6 f576 9ebc 05c1 19a0 381f 1dac
000000d0: 6f5f 46bd 236a ab3e 58d3 153b 532a ebbb
000000e0: 1402 9992 f1a2 e098 305e 0297 a81d 90a2
000000f0: ef5f 889b a267 18be 0146 9aa9 226b 8f9f
-1.9631283e-05 -2.350753e-13 -3.644468e-20 -1.3932206e-25 -2.777892e-08 -3.208974e-07 -0.30024633 -1.4800327e-25
-0.1341006 0.028900253 -9.969725e-26 -2.5656168e-12 -2.7808034e-10 -4.4687526e-25 -0.21478947 -0.14848389
-8.015352e-07 -0.002374811 -8.307826e-06 0.034692638 -6.4238823e-26 -2.9671884e-26 -0.0008259764 -6.727254e-10
0.09326356 -5.518235e-22 -3.009581e-25 -6.1455703e-26 -4.487339e-25 -2.0668363e-14 -5.395899e-24 -1.8270743e-11
-1.642508e-11 -2.8898004e-24 -0.07986293 -1.9653852e-25 0.08399195 -1.863674e-24 -1.1457019e-25 -9.9103535e-26
-0.029814603 -4.2006764e-24 -6.3689873e-28 -2.2609285e-14 0.010548666 -6.1394347e-28 0.053341173 0.14893842
-4.9455893e-16 -0.019343833 -1.3023469e-19 -2.2328372e-12 -0.048430856 0.33479413 0.0022861566 -0.0071766763
-9.65617e-28 -5.806717e-24 -4.2124147e-25 -3.906268e-18 -2.2561308e-22 -0.14883283 -6.8511176e-14 -6.074009e-20

weight f4 [16, 64]
00000000: bc54 9eb8 b79e 87aa 3e89 079b 8b45 bf93
00000010: 43c2 f7b3 a348 9fb5 f0f0 96bf a049 e195
00000020: fdfd 13bf 53c4 2e3e 999c b715 624d 0dad
00000030: 96bd 8cb0 440d 6096 4b6b d9be 851a 30bf
00000040: 4c95 35b5 8e6e 203e 2cbf b4a6 fa9f 323e
00000050: ffd0 1e95 9ade 0c95 5d8d 00bb b346 bfb0
00000060: afd6 a83e 1cc0 249d a3f1 0a96 58aa e494
00000070: e1ba 0297 a22c 6ea0 700f 4f98 e6ce 49a7
00000080: 66eb cbad ad47 9e98 2816 30bf bd59 fd15
00000090: b85e 363e 1ee6 d898 8c35 1295 49e3 5095
000000a0: 190b efbe 2632 ae98 55bf 3412 1d55 c4a9
000000b0: 9d5c d5be d980 5411 3335 383e ac5d 90bd
000000c0: 24de 00a7 cf68 b5be e740 f097 b69c 0429
000000d0: 656c 42bd d2fe 0ebe 518e 0a3e 3cbf c8bf
000000e0: beb9 6492 4566 c599 2e34 8396 8b7a 20a2
000000f0: 7ac9 9d9b 7fd0 ebbe 6d54 c0a9 b632 191f
00000100: bc54 7ab8 4119 3caa 5182 be9a 06c4 cc95
00000110: c3e1 c2b3 8dba 8cb5 c2ca 80bf 44af 4596
00000120: b280 09bf ba79 0a3e 0749 3395 1839 e7ac
00000130: d6ae 4bb0 aada c296 abea 95be 68fa 99bf
00000140: 9649 35b5 f8e2 263e 32cf fe37 b705 123e
00000150: a1e0 f094 2336 0a95 1c39 c1ba 9c13 95b0
00000160: eb96 1ebd df1f fc9c 39d8 3096 a588 b694
00000170: 04c6 2097 8264 33a0 0122 6798 c668 1ca7
00000180: 1678 cbad 92f4 bf98 9017 81bf 69a6 2714
00000190: 1bff 193e 203f d598 609b 1195 c89c 3f14
000001a0: 2e25 8dbf 7d94 c898 9fc9 0b92 186d a7a9
000001b0: 81c8 92bf 26ad 1c11 2a83 1a3e a270 3e3e
000001c0: e48c e1a6 a42b 8fbe 97e6 0996 bf0e 0b29
000001d0: 0084 7fbd 1e28 01bf b304 8a3e 0f78 06bf
000001e0: a239 3f12 1ca8 a799 38da 7d96 f9d0 5da2
000001f0: 803e 889b 48fe 0dbf 3b4b 7aa9 59a4 b9a0
00000200: cc83 a993 737e 1b94 84da 7494 b14c b992
00000210: f490 7194 c521 1794 2a8a 5594 abcc 0994
00000220: e9cf c212 e233 e510 1321 e592 3a86 9793
00000230: 813c e393 d4d9 8392 bd1d 5f92 aa95 b493
00000240: 9586 4293 0697 9493 53dc b093 326f 0a94
00000250: 691f 5213 7c65 3f92 9e75 7513 40dd c093
00000260: 511b 1992 63d4 6813 aa3c 1b92 56c2 7c11
00000270: 98c4 8813 2b83 0b94 470b 4f93 c440 dc93
00000280: b418 d412 d912 1b93 1f53 9493 174f 1993
00000290: 5e82 fc93 fcd2 a392 a6fa 8d92 099c 8b12
000002a0: 467b 3510 47fb b692 4955 1f12 60e4 de12
000002b0: 5817 6713 1109 5491 5cd1 2494 7923 2894
000002c0: dcf0 1993 96f3 af13 ed0e 2912 76a0 8193
000002d0: ce19 4c93 936d 1b94 7fc0 d293 df8e c913
000002e0: 2688 1a92 1999 a793 9a21 6512 aa57 d012
000002f0: 7d16 df92 98d7 ac92 9393 4f12 5be1 d693
00000300: 8177 6e38 3b97 9c2a a464 289f 86c6 1d16
00000310: 7c50 d033 b71a 1735 d0e0 9a3f e999 1616
00000320: 7445 163b 1398 6e3d ce85 3a14 843e 112d
00000330: 2f86 6630 86f7 8d16 3fef d33e 26c3 fdbc
00000340: cb54 3835 ce5d b5bb 06e0 feb7 f562 803d
00000350: d884 9515 2e2a 0d15 9f17 893a 0f8c 8c30
00000360: a28b dcbe 82da ae1c 59f7 a016 9be0 9815
00000370: 716d 2817 1e13 5120 4c95 ba16 1cec 5ead
00000380: 2921 97ad 21b2 5317 fc71 dbbb 2a78 f415
00000390: b492 f83c 015c b018 defa ff15 9c03 1116
000003a0: 46a7 953c b35f bc97 6571 b912 c20f a629
000003b0: 4e2d 033c 10cc bc10 ab76 703d 45de 103d
000003c0: e927 7c26 c0ed a23c 9983 17a0 f6c8 8fa8
000003d0: a75d ee3d 1419 21be b4f2 b9bd fa39 c13f
000003e0: 8d85 3692 f27f 7d19 04ee da16 bf53 1823
000003f0: 5194 fa1a d855 75ba 278e 232a bb5f 0b21
-7.54981e-05 -2.4090948e-13 -1.1211284e-22 -4.8283753e-27 -1.153717e-07 -1.1867563e-06 -1.1792278 -9.0992936e-26
-0.5780943 0.17067079 7.416018e-26 -8.0321045e-12 -1.0240224e-09 -1.8098762e-25 -0.4246467 -0.68790466
-6.764501e-07 0.15667173 -1.2541826e-15 0.17443839 -3.2072715e-26 -2.8448377e-26 -0.001961551 -1.3917173e-09
0.3297629 -2.1804537e-21 -1.1223798e-25 -2.3089305e-26 -4.224114e-25 -2.0174152e-19 -2.6761917e-24 -2.8006513e-15
-2.3182966e-11 -4.0914417e-24 -0.6878381 1.0232747e-25 0.1780957 -5.606705e-24 -2.9526706e-26 -4.2184562e-26
-0.46688154 -4.5028583e-24 5.703382e-28 -8.718913e-14 -0.4167222 1.6763555e-28 0.17989044 -0.070491165
-1.7883991e-15 -0.35431525 -1.552602e-24 2.9445813e-14 -0.047466654 -0.13964394 0.13530852 -1.568336
-7.217306e-28 -2.0410629e-23 -2.1197121e-25 -2.1748917e-18 -2.6103672e-22 -0.46057507 -8.5411584e-14 3.2440957e-20
-5.968356e-05 -1.6706516e-13 -7.8792696e-23 -8.2704214e-26 -9.074895e-08 -1.0485106e-06 -1.0061877 -1.5968837e-25
-0.53712 0.13522997 -3.620637e-26 -6.5717536e-12 -7.4099427e-10 -3.1480387e-25 -0.292806 -1.2029543
-6.7534836e-07 0.16297519 3.0375642e-05 0.14259993 -2.4322407e-26 -2.7911584e-26 -0.0014741751 -1.084675e-09
-0.038718145 -1.66842e-21 -1.4285395e-25 -1.84312e-26 -5.194872e-25 -1.5195145e-19 -2.9873218e-24 -2.1706147e-15
-2.3131757e-11 -4.9619296e-24 -1.0085316 8.464164e-27 0.15038721 -5.512295e-24 -2.9405086e-26 9.673955e-27
-1.1026971 -5.1848723e-24 -4.4109184e-28 -7.4352146e-14 -1.1467439 1.2359586e-28 0.15089098 0.18597654
-1.56507e-15 -0.27962983 -1.1139533e-25 3.087699e-14 -0.062381744 -0.5045184 0.2695671 -0.52526945
6.034001e-28 -1.7335294e-23 -2.0506035e-25 -3.0061714e-18 -2.2539702e-22 -0.5546613 -5.5576403e-14 -3.1448975e-19
-4.279156e-27 -7.850438e-27 -1.23619465e-26 -1.1694047e-27 -1.21959776e-26 -7.630212e-27 -1.0781e-26 -6.957096e-27
1.2294375e-27 9.040451e-29 -1.4460085e-27 -3.8250117e-27 -5.7362518e-27 -8.320961e-28 -7.040305e-28 -4.558597e-27
-2.4552597e-27 -3.7509373e-27 -4.4645903e-27 -6.989149e-27 2.6521213e-27 -6.039406e-28 3.0981337e-27 -4.8685783e-27
-4.8311957e-28 2.9387232e-27 -4.898415e-28 1.9939179e-28 3.4525083e-27 -7.043575e-27 -2.6132633e-27 -5.559967e-27
1.3385171e-27 -1.9573043e-27 -3.7442416e-27 -1.935031e-27 -6.3742295e-27 -1.0338758e-27 -8.960141e-28 8.810599e-28
3.5790922e-29 -1.1547759e-27 5.0276676e-28 1.4066468e-27 2.9167808e-27 -1.6726645e-28 -8.321173e-27 -8.488828e-27
-1.9430068e-27 4.4416405e-27 5.3345395e-28 -3.2722405e-27 -2.5761143e-27 -7.84711e-27 -5.320127e-27 5.0880415e-27
-4.876165e-28 -4.2307693e-27 7.2301076e-28 1.3148256e-27 -1.4078822e-27 -1.0907874e-27 6.549958e-28 -5.4243412e-27
5.685492e-05 2.7816104e-13 -3.5658632e-20 1.2745002e-25 9.700395e-08 5.629076e-07 1.2099857 1.2165469e-25
0.002292958 0.058250498 9.4169885e-27 8.256177e-12 8.38642e-10 2.2935988e-25 0.41393468 -0.030976843
6.866873e-07 -0.005534864 -3.0383479e-05 0.062688746 6.039021e-26 2.8507997e-26 0.001045931 1.0226148e-09
-0.4307528 1.1570837e-21 2.6005492e-25 6.1746676e-26 5.442186e-25 1.7709314e-19 3.014414e-25 -1.2671666e-11
-1.7181439e-11 6.8402607e-25 -0.0066969376 9.87404e-26 0.030343391 4.5587834e-24 1.0338948e-25 1.1714146e-25
0.018268239 -1.2173373e-24 1.1703095e-27 7.3746144e-14 0.008006407 7.4467333e-29 0.05870692 0.035368223
8.748415e-16 0.019888759 -1.283374e-19 -1.5963342e-14 0.116389565 -0.15732223 -0.09079495 1.5095818
-5.759369e-28 1.3105632e-23 3.5370008e-25 8.2576704e-18 1.03637195e-22 -0.00093588 1.4526627e-13 4.722173e-19

bias f4 [16]
00000000: cbaa 6b3e 8522 533e 9030 2c94 9edb e8bc
00000010: 417f d195 6c03 7a98 ccc9 8dbc 6257 33bd
00000020: 2957 de3e 054d 693d 70d3 b89d 3456 9c3b
00000030: 43f1 cabc ea7e 653e cf5f 5cbc 735f 7dbb
0.23014371 0.20618637 -8.693358e-27 -0.028425034 -8.46152e-26 -3.231347e-24 -0.017308138 -0.043784507
0.43425873 0.056958217 -4.8923016e-21 0.0047710184 -0.024773246 0.22411695 -0.013450577 -0.0038661628

weight f4 [4, 16]
00000000: cf26 0e3f 54bc 193f b72a 5b92 efcb a3be
00000010: 1da5 0797 3e93 5a91 9397 8fbe 2f41 d9be
00000020: 5f64 7c3e e280 953e 8b7d ab1d cb68 d3bd
00000030: 03be 30bd 29f7 063f c781 bd3e 165b b2bf
00000040: bb47 0e3f 8d7e 113f e787 2313 3460 c7be
00000050: 1aca 7492 1be0 c691 b96b 013d 1f6e d5be
00000060: 6935 793e dd00 af3e 54ef a61d 565c abbf
00000070: 668a 87be 88db 0d3f fb47 a03e 446c a3bd
00000080: 4e46 0e3f 92bc 113f 317b 0793 531f 49bf
00000090: 633c 9f12 996d 4d12 1447 e1be c13c 34ba
000000a0: f881 473e 8ea4 52bf 65d2 121d ede9 36bd
000000b0: 6f4f d6be cb2d 033f e3c8 983e 958a 0cbd
000000c0: 04ec 033f 5aa8 1e3f 4e95 2090 43cc 0c3b
000000d0: c9f9 9e91 cd2a 3119 15b7 debe cdf0 4cbf
000000e0: fe46 563e 904f ad3e 6bd2 0419 d02f 36bd
000000f0: 346b e2be 5e5a 0c3f 0faa 70bf 8c0c c2bc
0.5552797 0.6005299 -6.9156865e-28 -0.31991526 -4.3829255e-25 -1.724254e-28 -0.2804533 -0.42432544
0.24647664 0.29199892 4.539313e-21 -0.10322722 -0.04314996 0.52720886 0.37013075 -1.3934047
0.555782 0.56833726 2.0640497e-27 -0.38940585 -7.7241934e-28 -3.1377008e-28 0.031596873 -0.41685578
0.2433678 0.34180346 4.4187294e-21 -1.3387554 -0.26472777 0.55413103 0.31304917 -0.079796344
0.55576026 0.5692836 -1.7100134e-27 -0.7856342 1.0049197e-27 6.4821684e-28 -0.4399954 -0.0006875508
0.19483173 -0.8228234 1.943171e-21 -0.044656683 -0.41857478 0.5124175 0.29840764 -0.03431185
0.51532006 0.61975634 -3.1669456e-29 0.0021484054 -2.5081947e-28 9.159329e-24 -0.43499056 -0.8005493
0.20925519 0.33849764 6.866734e-24 -0.04447919 -0.44222414 0.5482539 -0.9400949 -0.023687623

bias f4 [4]
00000000: cb92 183e 926c 243e 1457 953d 9d85 0e3e
0.14899747 0.16057041 0.072919995 0.13918157
