data/26800.pth (torch, 20567 bytes, 6 tensors)

weight f4 [64, 33]
000000 8c 7d ac 3a 45 58 44 ba 71 bd a6 3b 6a 6a ae 39
       0.0013159974 -0.000748996 0.005088501 0.0003326715
000010 45 42 61 ba ed cb 9f bb d9 20 e9 bb 05 53 49 3b
       -0.0008592944 -0.004876605 -0.0071145114 0.003071965
000020 03 60 86 bb be 3e a8 3b e7 7a 29 bb 4d a1 c9 3b
       -0.004100801 0.0051344326 -0.002586061 0.0061532618
000030 2f bb 02 3e 13 c8 b7 39 28 df 8e bb fc b2 f3 ba
       0.12766717 0.00035053547 -0.0043600984 -0.001859277
000040 fc 09 0d 3b 83 01 77 3a c6 b6 91 3b ba b8 8a 3a
       0.0021520844 0.00094225275 0.004446837 0.0010583617
000050 71 96 42 3a f5 43 a8 3b a0 6f e3 3a bb b8 54 bb
       0.000742293 0.0051350542 0.0017351992 -0.003245874
000060 f1 72 6a ba 4a 2f cd 3d 65 ae 06 3e 7e f2 01 3e
       -0.0008943519 0.10018785 0.13152464 0.1269016
000070 4f 24 c5 3d 88 f4 3a 3c 55 6c 08 bd 48 69 d5 be
       0.09626066 0.01141084 -0.03330644 -0.41681886
000080 3a 1c 10 3b 38 ab 82 3e 24 0f 53 3e ba 1f 64 3e
       0.002198948 0.25521255 0.20611244 0.22277728
000090 65 9b 2f 3e 68 fc 51 3e 08 0d 5f 3e 19 72 b0 3d
       0.17149122 0.20506442 0.21782315 0.086155124
0000a0 c9 8b 61 3e 92 ec 28 3e ad f4 ad 3e e9 dd 8e 3e
       0.2202598 0.16496494 0.33975735 0.2790368
0000b0 6d d8 82 3d 3a 34 e3 be 7e 33 f2 3d f8 d5 47 3e
       0.06388936 -0.44375783 0.118262276 0.19515216
0000c0 ec 2f 4a 3e 45 6a 41 3e 03 f7 77 3e a2 2c 67 3d
       0.19744843 0.18888195 0.24215321 0.05643905
0000d0 41 0d 8f 3e fc b9 11 3e d8 e4 39 3e 32 0f 65 3e
       0.279398 0.14231104 0.18153703 0.22369078
0000e0 f4 09 43 3e 1b 04 63 3e fa 00 bb 3e 90 42 a5 3e
       0.19046766 0.22169535 0.36524183 0.32277346
0000f0 35 87 d8 3e 06 a3 d0 3e 36 64 e9 bc 82 42 ff bc
       0.42290655 0.40749377 -0.028490167 -0.031159643
000100 ca d4 29 3e 12 40 5a bf 35 8f 54 be ca 71 0f be
       0.16585079 -0.85254014 -0.20757754 -0.14008251
000110 9f 67 a2 bd a3 b5 a4 bd ac b0 0f be 0b 37 4a bd
       -0.079299204 -0.08042457 -0.14032239 -0.0493689
000120 f4 23 8e 3d 15 e7 56 bd 46 33 92 39 45 2b 06 bf
       0.06940451 -0.05246647 0.00027885492 -0.52409774
000130 d0 e7 88 be 0c 91 8d 3c 81 ca d4 3e 35 42 28 3e
       -0.2673936 0.017281078 0.41560748 0.16431506
000140 31 7c 10 3e 01 3d d6 3d 5e e5 05 be e8 67 26 bd
       0.14109875 0.10460854 -0.13075778 -0.040626436
000150 cf 3a da 3d bb cb 58 3d 84 02 a8 ba c9 aa 19 be
       0.10655748 0.052928668 -0.0012818133 -0.15006556
000160 b2 4b fd bc e4 6f ca 3c 8a 24 bd bd b8 0c b0 bd
       -0.030919883 0.024711557 -0.09235485 -0.08596176
000170 81 04 6f 3e 90 73 51 be 6b 53 21 bf ab 23 80 bc
       0.23341562 -0.2045424 -0.6301791 -0.015642008
000180 b8 b3 39 be fe 56 b9 3c d3 fd 22 3f 86 50 97 be
       -0.18134964 0.022624489 0.63668555 -0.29553622
000190 ac 45 35 be 27 14 20 be 0c 08 0b be d8 a4 40 be
       -0.17702359 -0.15632688 -0.13577288 -0.18812883
0001a0 3d de 09 be 1e cc d3 bc df ef 10 be 51 fe 10 be
       -0.13463683 -0.025854167 -0.14154004 -0.14159514
0001b0 ba 16 cd be ec a9 64 be f7 fe 01 bd 21 51 f7 3e
       -0.40056401 -0.22330445 -0.031737294 0.48304084
0001c0 d4 f7 30 bd b7 22 31 be d6 d9 57 be f3 56 19 be
       -0.043205097 -0.17298399 -0.21079192 -0.14974575
0001d0 c6 72 fc bd e0 93 0e bc d3 50 3f be fc e5 f8 bd
       -0.12326579 -0.008702248 -0.18683176 -0.12153241
0001e0 b5 8f 09 be 07 96 21 be 97 53 23 be 88 c4 7c be
       -0.13433726 -0.15779887 -0.15949856 -0.24684346
0001f0 98 67 48 be a9 f9 03 be 6d 73 3f be c6 0f 66 be
       -0.19570768 -0.12888207 -0.18696375 -0.22466955
000200 09 2e 06 bc f1 d6 b3 bc d3 fd 5f 3d 1f 84 58 3f
       -0.008189687 -0.021953078 0.054685425 0.845766
000210 c2 37 dc be 74 dc e4 bd ec da 52 be 9d 8d fe 3d
       -0.4301129 -0.111748606 -0.20591325 0.12429354
000220 15 59 2c be b5 36 b1 be 28 f1 8b be 1a dc 02 3e
       -0.16830857 -0.3461205 -0.27332425 0.12779275
000230 7c 79 6b bd 12 dd a2 bb 47 de 38 be 6f 3a 0c bf
       -0.057488903 -0.0049702013 -0.18053542 -0.5477666
000240 fb 2e 5c bd fa b5 12 3f 0f 50 1e 3e 38 0d 6c be
       -0.05375574 0.57308924 0.15460227 -0.23051918
000250 12 b0 30 3e a7 e4 6f 3e 8e 0e 38 3f 57 84 c8 3e
       0.17254665 0.23427068 0.7189721 0.39163467
000260 73 6d eb 3d 2d 18 d9 3d f1 96 9d 3e 0a a5 de 3d
       0.11495485 0.10600314 0.30779222 0.108713225
000270 0f 8a b5 be 54 29 09 3e c2 06 d1 3d 02 b0 3c 3e
       -0.35456893 0.13394672 0.10206367 0.18426517
000280 64 21 7c 3e fe 85 3d 3d da 74 20 3e 20 fb 10 3d
       0.24622113 0.046270363 0.15669575 0.03539574
000290 38 15 24 be 32 5d 74 3e 75 22 4a 3e 9b df 58 3e
       -0.1602372 0.23863676 0.19739707 0.21179049
0002a0 e0 eb 32 3e e9 10 59 3e 00 df 58 3e ec a5 9e 3d
       0.17472792 0.21197857 0.21178818 0.07746491
0002b0 23 16 66 3e 55 b9 20 3e e7 db a8 3e 9e 96 8b 3e
       0.22469382 0.15695699 0.32980272 0.2726335
0002c0 ea 8b 38 3d 30 b7 dd be d4 cd 0e 3e 31 fd 49 3e
       0.045055307 -0.43303823 0.13945705 0.19725491
0002d0 b0 cc 43 3e cf 2b 49 3e 76 37 7b 3e 2a 14 ab 3d
       0.19121051 0.19645618 0.24532875 0.08353455
0002e0 07 4d 98 3e 91 18 17 3e c6 5c 39 3e 34 6b 6d 3e
       0.29746267 0.14755465 0.18101797 0.23185426
0002f0 73 2b 4d 3e 40 95 58 3e 31 88 b2 3e 6d 47 a9 3e
       0.20036106 0.21150684 0.3486953 0.33062306
000300 a1 4e d7 3e a1 96 ce 3e 13 8f d0 bc 2b 6f 9b bc
       0.42052177 0.40349296 -0.025458848 -0.018973907
000310 8a 08 2a 3e 2d c9 56 bf b6 31 9b be e2 f3 2b bd
       0.1660482 -0.8390072 -0.30311364 -0.04198063
000320 29 2e 9b be 23 14 0e bd 48 d6 8b be fb 60 6b be
       -0.30308655 -0.034687173 -0.2731192 -0.22986214
000330 7d a5 01 bf cb da b1 bd 1b 71 2e be e0 54 a4 be
       -0.5064314 -0.086843096 -0.17035334 -0.32096004
000340 7a 68 81 3d ba 8b 05 3e dc d4 b3 3e 2f 10 27 3e
       0.063187554 0.13041583 0.35123336 0.16314767
000350 d1 c4 95 bc d9 aa 4d be d1 77 cd 3d 96 46 c1 3e
       -0.018282326 -0.20084704 0.10032619 0.37749165
000360 c1 67 5e 3f f3 79 11 3e 4b c6 53 ba 36 f5 6b 3d
       0.86877066 0.14206676 -0.0008078559 0.0576069
000370 34 72 ba 3e e9 1a 08 be 6f 87 a8 be ac ed b1 bc
       0.36415255 -0.13291515 -0.32915828 -0.021719776
000380 1c 22 1a 3b 46 15 62 3b 62 70 b8 3a 19 65 0b bd
       0.0023518866 0.0034497543 0.0014071579 -0.03403196
000390 6b c4 ad 3c b1 69 1f bb d5 55 fc 3e 22 91 87 3d
       0.021211823 -0.0024324472 0.49284235 0.06619479
0003a0 e1 32 35 3c 24 08 10 3e cf 10 e9 3c cf 4a dd bd
       0.011059494 0.14065605 0.028450398 -0.10805284
0003b0 95 ee 44 3d d2 31 46 3e b2 e9 5c 3d de e9 09 3d
       0.048079092 0.19354942 0.053933807 0.0336703
0003c0 de 99 08 bf 0e ea 3a be d4 19 40 3c 79 de b9 3e
       -0.5335978 -0.18253347 0.011724908 0.36302546
0003d0 c3 cd e7 3d e0 77 c9 3d 58 74 53 bc 97 ba 31 be
       0.11318543 0.098373175 -0.0129061565 -0.17356335
0003e0 43 16 c5 bc 45 c0 35 3e 24 d8 95 bd 86 5f 1d bd
       -0.024058467 0.17749126 -0.07316616 -0.038421176
0003f0 a4 04 d9 bd 74 16 ca bd 15 6c e0 bd 15 6f 97 be
       -0.10596588 -0.09867564 -0.10958115 -0.29576936

bias f4 [64]
000000 9f ce 01 3e 7b 32 89 3e 7a aa c3 3b 3b 33 93 bd
       0.12676476 0.26796326 0.00597125 -0.07187506
000010 33 19 18 3e e9 d1 83 3e 15 fc 55 bc ee 43 0a bc
       0.14853363 0.25746086 -0.013060589 -0.008439047
000020 02 46 ac 3d a8 77 d8 bc 3a 46 89 bd b0 5e 06 3e
       0.084117904 -0.026424244 -0.06702848 0.13122058
000030 de d2 13 3e 2f 4d 9d bd 69 b2 e1 3d 74 ac 92 bd
       0.14435908 -0.07680737 0.11020357 -0.07161799
000040 49 81 da 3d 4e f8 34 3e 55 9b 0f 3e 56 8f 46 3e
       0.106691904 0.17672846 0.14024098 0.19390616
000050 b8 2c d6 bd 56 e4 b0 bb 75 41 d5 3d 42 24 dd 3d
       -0.10457748 -0.0053983135 0.104128756 0.10797931
000060 f6 c7 60 3d 6a 7e b7 bd 2a 31 88 bd 4f bb 0d 3b
       0.054878198 -0.089596584 -0.06650002 0.0021626537
000070 38 3e e8 bd 85 97 6e 3c ed 71 80 bd b1 9d 16 3e
       -0.11339992 0.014562492 -0.062717296 0.14708592
000080 be 10 5f 3e 36 b5 b0 bd aa 53 c8 3c 6d d3 7b bd
       0.2178373 -0.08628313 0.024453957 -0.06148093
000090 ea ac 28 3d 23 a8 84 bd 42 17 b0 bd 03 ef 5f bd
       0.04118053 -0.06477382 -0.08598186 -0.0546713
0000a0 b2 28 1b 3d f5 da d2 bd d5 42 55 bb a8 29 0e 3e
       0.037880607 -0.10295669 -0.0032541056 0.13883078
0000b0 20 1e 80 bc 95 91 4d bb 87 49 47 3e a8 74 2b 3e
       -0.015639365 -0.0031367291 0.19461642 0.1674372
0000c0 52 6e 24 bd 8b a5 06 3d ae c8 01 bd c2 06 26 3e
       -0.040144272 0.032872718 -0.031685524 0.16213515
0000d0 a1 15 11 3e bb b3 88 3e ab 19 0a bc 04 b0 bf 3a
       0.14168407 0.26699623 -0.008428971 0.00146246
0000e0 ad a5 a1 bb 39 3e 19 be e8 9a 39 bd 21 c0 22 3e
       -0.00493308 -0.14965142 -0.045313746 0.15893604
0000f0 c0 03 38 3e 4c 0f 9c bd 4e d3 2c 3e 59 16 17 3e
       0.1797018 -0.07620105 0.16877481 0.14754619

weight f4 [16, 64]
000000 6b a2 50 be ef b0 87 3e 00 f0 0a bf 37 f0 53 be
       -0.20374458 0.26502177 -0.5427246 -0.20697103
000010 b7 10 88 3e d1 16 86 3e 72 f1 e8 3b 08 7e 87 be
       0.26575252 0.26189283 0.0071088606 -0.26463342
000020 c0 9d a4 bd 9f d0 33 be 1b 19 8f bd 30 13 74 be
       -0.08037901 -0.17560051 -0.0698721 -0.23835444
000030 3a 85 80 be f7 82 2c be 77 c5 66 bd 87 ba 6f be
       -0.25101644 -0.16846834 -0.05634066 -0.23410998
000040 87 e6 0f be f0 e2 62 be f8 22 74 be 1e 16 53 3e
       -0.14052783 -0.22156882 -0.23841465 0.20613906
000050 8b 6b 2b be 44 09 65 3a 43 bc c6 be 64 79 29 be
       -0.16740243 0.00087370374 -0.38815507 -0.16550213
000060 30 93 61 be 60 ae 9a be 9a 00 08 be c5 b2 61 ba
       -0.22028804 -0.30211163 -0.1328148 -0.00086097076
000070 c4 d5 2b be 2b 82 ff 3c f0 b4 10 be a9 94 8f be
       -0.16780764 0.031189999 -0.14131522 -0.28043106
000080 18 6a c6 bc 0f 41 68 be 29 33 7f bf 38 72 11 be
       -0.024220511 -0.22681068 -0.9968744 -0.14203727
000090 05 16 68 3d 9b d7 9f bd 61 99 8b be 1c 88 3b be
       0.056661624 -0.07804795 -0.27265456 -0.1831364
0000a0 ce c0 66 be d9 ae 10 be 5d f8 3e 3b c1 e7 74 bd
       -0.22534487 -0.14129199 0.0029139735 -0.05979133
0000b0 44 9e 9c be 4c 89 60 3a e6 48 2d 3e d3 a9 00 3e
       -0.30589497 0.00085653807 0.1692234 0.12564783
0000c0 e7 a1 d3 be 3d de 21 bf 49 55 28 be 25 5a 39 be
       -0.4133446 -0.63229734 -0.16438784 -0.18100794
0000d0 ec 7b fb bd 92 9a 80 3e 04 e5 80 bc 06 ea 23 c0
       -0.122794956 0.25117928 -0.015734203 -2.5611587
0000e0 79 aa 71 bb ba 8f 9a be 43 27 38 be 61 bb 91 bd
       -0.0036875291 -0.3018778 -0.17983727 -0.07115818
0000f0 66 11 e9 bd 3a 26 82 be 7d 2c a8 bd 3c 7b ea bd
       -0.113802716 -0.2541979 -0.082116105 -0.11449286
000100 bc 21 38 be 84 23 9c 3e b0 4e b0 be 3b 61 56 be
       -0.17981619 0.30495846 -0.34435034 -0.20935528
000110 35 31 f0 3c 0a 0d 95 3e ba d9 e7 bd b4 97 66 be
       0.029320339 0.2911151 -0.11320825 -0.22518808
000120 b4 9e ee be 55 0d da 3d cf 6b 09 be 27 81 63 be
       -0.46605456 0.10647074 -0.13420032 -0.22217236
000130 15 bc 6f be 3d 21 4c be cc 89 1c be 39 7b f9 bf
       -0.23411591 -0.19934554 -0.1528694 -1.949073
000140 b8 03 33 be 21 54 64 be 24 4b 7c be 15 cd 2e 3e
       -0.17481887 -0.22297718 -0.24638039 0.1707042
000150 4f 9d e9 bd cb 62 6e 3b 33 78 72 bd 8a 6f 1f be
       -0.11406957 0.0036374803 -0.059196662 -0.15569893
000160 2f 63 93 3e f5 14 94 be 1d 32 38 bd e3 dc 28 3b
       0.2878661 -0.2892224 -0.044969667 0.0025766424
000170 9c 43 1a bd 36 0d ab 3d d7 3b 6a be ca c8 87 be
       -0.037662134 0.08352129 -0.2287439 -0.26520377
000180 1a 1a 0f be af aa 76 be 65 11 0d bf 4a c3 52 be
       -0.139748 -0.24088548 -0.55104667 -0.2058231
000190 a5 0a 3a 3d 13 9e 5f be 9f 1f 47 be 14 2c b7 bd
       0.045420308 -0.21837644 -0.19445656 -0.08943954
0001a0 cc 09 44 bf bf c4 71 be f1 b2 13 bb f4 07 85 bd
       -0.7657745 -0.23610209 -0.0022537077 -0.064956576
0001b0 74 c0 87 bf cd 8a 25 3a 42 af 1b 3e 66 84 01 3e
       -1.0605607 0.00063149334 0.15203574 0.12648162
0001c0 36 12 52 be 01 d1 02 be 74 14 c1 3d 9c 80 3a be
       -0.2051476 -0.12775041 0.09427729 -0.18213123
0001d0 d5 31 19 be a3 cf 91 3e 78 70 e9 3d 84 4b 02 bf
       -0.14960416 0.28478727 0.11398405 -0.5089648
0001e0 e6 08 4a 3b 55 13 77 be 04 fa b2 3c 09 35 f5 bd
       0.0030828058 -0.24128468 0.021847732 -0.11973006
0001f0 ad d3 30 be 05 10 0d bf 48 13 05 be 96 9d 1a be
       -0.17268248 -0.5510257 -0.12995636 -0.15099177
000200 2a 1a b3 bc d0 10 f2 bc 47 58 81 bd 29 c7 c3 bb
       -0.021863062 -0.029549032 -0.06315666 -0.0059746695
000210 f8 f5 53 bd e0 d8 e8 bc 43 9f 61 bd 73 93 11 bd
       -0.051748246 -0.028423727 -0.055083524 -0.03554101
000220 d0 d3 cd 3b 04 2a f2 39 67 16 f2 bb 3c 1a a0 bc
       0.0062813535 0.0004618914 -0.0073879245 -0.01954376
000230 9f 18 f0 bc 3b 4f 8b bb dc 2b e4 3b 4f cc be bc
       -0.029308615 -0.0042513884 0.0069632363 -0.023290781
000240 9e 86 4d bc a2 fb 9c bc a2 dc ba bc 3a fb cd bc
       -0.012544302 -0.019162957 -0.022810284 -0.025144208
000250 b2 ff 5d 3c 21 37 4a bb 10 a9 81 3c 2a 8f 6a bc
       0.013549732 -0.0030855613 0.015827686 -0.01431636
000260 e8 a4 04 3c d4 02 76 3c 50 06 24 bb 82 87 85 3a
       0.008095957 0.015015323 -0.0025028177 0.0010187479
000270 96 81 90 3c eb 49 d0 bc 00 c3 5a bc cb b2 e8 bc
       0.017639916 -0.025425872 -0.013352156 -0.028405568
000280 cf 8e 8e 3c b4 d9 23 bc 85 53 0c bc d5 f7 21 bc
       0.01740208 -0.010000635 -0.0085648345 -0.009885748
000290 a4 45 b4 bc f7 15 ad bb f5 01 96 bb fd 81 93 3b
       -0.022005863 -0.0052821594 -0.00457787 0.00450158
0002a0 07 bf 3f 39 c7 54 c1 bb f6 57 28 3b bd 67 91 3c
       0.00018286343 -0.005899999 0.0025687194 0.017749662
0002b0 1a 28 74 3c e8 08 60 ba 08 d8 02 bd f5 5e 06 bd
       0.014902139 -0.0008546249 -0.031944305 -0.0328054
0002c0 60 a4 22 bc 1c 35 08 3d 37 9e 32 3b 22 c6 c9 bb
       -0.009926885 0.033253774 0.0027254948 -0.0061576525
0002d0 f0 a4 57 bc 2f ed f1 bc 88 26 88 bc cc c0 15 3d
       -0.013161883 -0.029532043 -0.016619936 0.03656082
0002e0 c1 45 23 bb ba 11 b1 bc ec 16 72 3b 02 8e 8d 3c
       -0.0024913403 -0.021614898 0.0036939932 0.017279629
0002f0 aa df 5c 3b 92 8a a3 3b 12 e3 63 3c 92 87 8c bc
       0.003370265 0.004990884 0.013909118 -0.017154489
000300 e5 fb c2 3e 3d b2 f8 bd b1 11 25 3f b0 bf dd 3e
       0.38082805 -0.12143371 0.6448012 0.43310308
000310 3d a0 5b 3d 14 c8 e0 bd c9 9a 3f 3e 76 5c e6 3e
       0.053619612 -0.10975662 0.1871139 0.44992417
000320 7c fe 46 bd 4f e1 50 3e 0b c2 c1 3e 44 1d d2 3e
       -0.04858254 0.20398448 0.37843356 0.41037953
000330 32 96 d5 3e 86 97 d7 3e 54 d9 8b 3e fb 1f 26 bd
       0.41716152 0.4210779 0.27314246 -0.040557843
000340 d6 ee b4 3e a6 4e b4 3e 98 16 c8 3e 7e 15 82 3d
       0.35338467 0.35216254 0.39079738 0.063517556
000350 1e 75 c8 3e 4e b7 0d ba 8d 76 0e 3f 63 7a bb 3e
       0.39151853 -0.00054060377 0.55649644 0.3661681
000360 2f a7 26 3e 1f 67 29 3f 78 dc c0 3e e6 01 c2 39
       0.16274713 0.66172975 0.37668204 0.00037003978
000370 74 78 d8 3e ca 60 3f 3e 4f 5c de 3e 3a 5c e7 3e
       0.42279398 0.18689266 0.434298 0.4518755
000380 5e a2 94 3e ec 33 e2 3e 5e 8a ad 3d f3 77 d8 3e
       0.29030126 0.44180238 0.08473657 0.42279014
000390 2a 4f d2 bb 60 92 ce 3e 14 a6 db 3e 2d 09 b6 3e
       -0.0064181285 0.4034605 0.42900145 0.35553876
0003a0 79 3f 78 3d a3 a2 e2 3e e5 ed c3 3b bb 63 90 3e
       0.060607407 0.44264707 0.005979287 0.28201088
0003b0 03 de 95 3d bd 79 c7 39 28 3a c1 3d 4b 58 04 3e
       0.07317736 0.0003804694 0.094349205 0.12924306
0003c0 67 9b 0d 3f 80 a9 8d bc 11 b4 51 3e 62 30 a6 3e
       0.5531525 -0.017292738 0.20478846 0.32458788
0003d0 d3 b8 93 3e 23 a9 a5 bd 1f 4c 2f 3e f6 6f b4 3d
       0.28851947 -0.08088901 0.17118882 0.08810417
0003e0 81 d8 40 bb 18 9e 2e 3f 87 15 b5 3e a2 67 aa 3e
       -0.0029425921 0.6820998 0.35367987 0.3328219
0003f0 f5 1c ba 3e 9f 7f 85 bd d9 4b 92 3e 05 dd bb 3e
       0.36350217 -0.065184824 0.28573492 0.36692062

bias f4 [16]
000000 a0 f2 7f 3e 1e fb 98 3e 15 ad 0a bd 8c 71 6a bd
       0.24994898 0.29879087 -0.03385647 -0.057237193
000010 5f c0 bf 3a 9c f8 b9 bb 07 6d 7d bd c0 2a 5d 3c
       0.0014629475 -0.0056753885 -0.061871555 0.013498962
000020 c6 fb 6b ba 04 ce 1f bd dd 43 1d bb 71 30 59 bd
       -0.0009002056 -0.03901483 -0.0023996748 -0.053024713
000030 41 fa 59 bd a3 ed 87 3e 47 d6 4b bd 3f 50 79 bd
       -0.053217176 0.2654849 -0.049764898 -0.060867544

weight f4 [4, 16]
000000 94 5e 04 3f a5 53 da 3e 20 cb 66 bc 63 c2 e6 bd
       0.51706815 0.4264194 -0.014086515 -0.11267545
000010 8b de 83 3a 47 f1 66 ba 58 a3 09 be 01 1a 36 be
       0.001006083 -0.0008809757 -0.13441217 -0.17783357
000020 cc f9 28 3b f7 b4 e4 bd 71 e6 bf 39 57 30 e4 bd
       0.0025783656 -0.11167329 0.0003660205 -0.111420326
000030 5d 3e c2 bd a4 56 2f 3f 92 fa e6 bd ec 8b 02 be
       -0.09484551 0.6849158 -0.11278261 -0.12748688
000040 02 6d 08 3f 0a fb 2b 3f 2f c6 2c 3c 07 42 e5 bd
       0.5329133 0.6717993 0.0105452975 -0.11194234
000050 b7 4f 81 bb e4 1f d2 ba 1c a8 c8 bd ce 6a a2 be
       -0.0039462703 -0.0016031233 -0.09797689 -0.3172211
000060 53 58 de 3b e2 4b d3 bd bd c1 aa 3a 47 13 e0 bd
       0.0067854314 -0.10317208 0.0013027709 -0.10941177
000070 2e 9e ea bd bc bb d2 3e c3 31 d2 bd be 1e a7 bd
       -0.11455952 0.41158855 -0.102633975 -0.081601605
000080 ac 9b 20 3f dc 3f fe 3e f1 29 0f bc 8c 30 1c be
       0.62737536 0.49658096 -0.008738027 -0.15252894
000090 74 3d a8 3b b8 09 59 3b 19 f5 13 be b9 9c 8f 3d
       0.005134279 0.0033117365 -0.14448966 0.07012314
0000a0 46 d2 d9 3b 7f 00 ff bd cf 35 cc 37 00 23 04 be
       0.006647381 -0.124512665 2.4343752e-05 -0.12903976
0000b0 ae e1 19 be f6 6d f9 3e 7b 67 00 be d3 8f 09 be
       -0.15027496 0.48716706 -0.12539475 -0.13433771
0000c0 76 44 ad 3e bd c2 25 3f a6 ac 29 b9 27 57 d8 bd
       0.33841294 0.6475027 -0.00016181413 -0.10563498
0000d0 8e f6 a7 ba fa 31 d9 bb 71 bb e2 bd 4f 56 f6 bd
       -0.0012814568 -0.006628272 -0.11070908 -0.12028181
0000e0 05 e7 62 bb 6f f6 13 be 99 a0 c0 3b 6b b6 fb bd
       -0.0034622562 -0.14449476 0.0058785197 -0.12290653
0000f0 99 47 e5 bd 6d fd 21 3f 59 75 06 be 26 a3 e2 bd
       -0.11195297 0.6327732 -0.13130702 -0.11066274

bias f4 [4]
000000 19 09 29 3e e7 f5 1a 3e 5e 5e 40 3e 1c b3 9c bc
       0.16507377 0.15132867 0.18785998 -0.019128375
