data/44000.pth (torch, 22871 bytes, 6 tensors)

weight f4 [64, 33]
000000 38 4d 66 3d 12 11 a0 bb ad 31 4f 3d b9 3c 19 bb
       0.056225985 -0.0048848474 0.050584484 -0.002338214
000010 38 c0 58 b8 96 16 ff ba a6 ad 90 3d c7 fb 0c ba
       -5.167743e-05 -0.0019461687 0.07064371 -0.0005378094
000020 ba 4d 81 b9 52 13 41 bc 0a 55 e4 bc f0 ab db bc
       -0.00024662708 -0.0117843915 -0.027872581 -0.026815385
000030 51 e4 d5 3d 12 f5 a4 bc a2 7a 89 b9 09 82 ea b8
       0.104439385 -0.02013639 -0.00026222045 -0.000111822104
000040 1b f1 4d bc 24 5a 04 3d 74 d1 42 3d 47 78 17 bd
       -0.012569691 0.032312527 0.04756303 -0.03697994
000050 22 3b 3b 38 fb 37 c1 3c ec ad 71 3d 1d eb 2a bd
       4.4639346e-05 0.023586264 0.059003755 -0.041728128
000060 7c 85 f7 3c 40 f1 a8 3d 9e 00 c8 3d c9 19 f5 3d
       0.030215017 0.0824914 0.09765743 0.11967809
000070 d7 ed 90 3d 21 be ff 3d 9f 81 7a bd e8 b2 a2 be
       0.07076614 0.12487436 -0.061158773 -0.3177712
000080 93 fd 89 3d 4e 6a 58 3d f7 a6 a0 bc 6b e0 51 3d
       0.067378186 0.052835755 -0.019610865 0.051239412
000090 4e 24 f2 bc 2a 36 8c bb 2f 90 fc bc ea 7a a1 3b
       -0.029558327 -0.004278918 -0.03083047 0.0049279826
0000a0 34 62 a5 bd d1 f6 90 bc 32 06 35 3d 9c 8b cf bc
       -0.080753714 -0.017695816 0.04419536 -0.025335126
0000b0 6d 23 82 bc b3 0a ea bc 8e 5b a0 bd 97 d5 d7 bc
       -0.015886033 -0.028569555 -0.07829963 -0.026346965
0000c0 d9 c5 4c 3d 9b 1a ae bb 1b e7 fb bc 9c 3b e0 bb
       0.04999337 -0.00531323 -0.030749848 -0.0068430435
0000d0 83 9b b0 bd a5 8e d4 bb 01 81 25 bd af 6b 73 bb
       -0.086234115 -0.006486731 -0.04040623 -0.0037143042
0000e0 61 b2 f2 bc 22 32 80 bc f2 df d1 3e 81 7d b7 3e
       -0.029626073 -0.015648905 0.4099117 0.3583794
0000f0 9a 6a df 3e 9f 65 ca 3e 3b ff 72 bd a2 88 c4 3d
       0.43636018 0.39530656 -0.059325438 0.09596373
000100 74 d9 e8 3d 40 ac 02 be b0 28 be 3c 03 ae e2 3c
       0.11369601 -0.1276102 0.02321276 0.027670866
000110 4d ff 93 3d 6d ff 74 3d 1f d5 e2 bc d4 e6 98 bc
       0.07226429 0.059813906 -0.027689515 -0.018664755
000120 8b b8 43 3d 20 ff ba 3d c0 60 76 3d e6 ff 67 bd
       0.047783416 0.091306925 0.06015086 -0.05664053
000130 c7 85 b1 ba 0f f8 d6 bb cc 0b 20 bd 31 0d 22 3e
       -0.0013543897 -0.0065603326 -0.03907375 0.15825345
000140 46 58 a9 3d fd 6c cd 3d c1 9d 1a bc 66 50 a6 bc
       0.0826879 0.100305535 -0.0094370255 -0.020302009
000150 a7 f0 49 3d 81 89 9c 3d db 04 94 3d e9 bd 9e 3b
       0.04930177 0.07643414 0.072274886 0.0048444164
000160 8e b9 f3 bb 52 57 61 3d 72 78 d7 bb 26 f6 7b be
       -0.0074378913 0.055014916 -0.0065756375 -0.24605617
000170 c2 aa 57 3d 32 fe 85 be 31 68 13 bf 8b b8 c5 3b
       0.05265308 -0.26170498 -0.5758086 0.006033962
000180 2b c9 e1 bd bc 40 ac 3d 59 dc 8f bc 6a e7 01 bd
       -0.11024698 0.084107846 -0.017561125 -0.031714834
000190 e0 af fd bc 3f a8 b7 bc 93 b3 52 bc 20 20 fd bc
       -0.030967653 -0.022419093 -0.012860197 -0.030899107
0001a0 1c 1b 0b bd 72 19 f4 bc 12 78 52 ba 53 fc 15 bc
       -0.0339614 -0.02979729 -0.0008028756 -0.009154397
0001b0 1c af 0c bd 29 dc ce bc 4b 61 2e 3b a4 45 e5 3c
       -0.034346685 -0.025251465 0.0026608284 0.027987309
0001c0 fa 04 17 3a 70 4e 5c bc be a8 da bc 25 6f 4c bc
       0.00057609344 -0.013446435 -0.02669179 -0.012477671
0001d0 8e 78 81 bb 56 6b e1 bb 32 6e ff bb 38 d2 53 bb
       -0.003951139 -0.0068792505 -0.0077951187 -0.0032321345
0001e0 97 22 3b bc 2f af 7a ba 1e 09 f2 bb 87 be 93 bc
       -0.011421821 -0.00095628476 -0.0073863408 -0.018035186
0001f0 da e5 95 bd 85 1e 2f bd e5 df 43 bd 6e cd 72 bd
       -0.07319231 -0.042753715 -0.047820944 -0.059277944
000200 b5 f4 b8 38 ea 69 61 bc 4d 95 9e bb b4 84 88 3d
       8.819384e-05 -0.013758162 -0.0048395754 0.06665936
000210 cf 4e 9a bc bc b2 7d bd df 0c 2d bd da 01 9c 3d
       -0.018836407 -0.061938033 -0.042248603 0.07617541
000220 0b c1 89 bd bb 9d 83 be eb d1 92 be 47 be 23 bc
       -0.06726273 -0.25706276 -0.2867578 -0.009994096
000230 0f 0c 36 3b 0d 66 61 bd 4a d6 65 be 05 61 8c be
       0.0027778184 -0.055028964 -0.22445026 -0.2741777
000240 85 73 8f bb bb 19 11 3f af c9 96 3e cd 5b 22 3e
       -0.0043777847 0.56679887 0.29450747 0.15855332
000250 d4 d6 f1 3c 74 46 ac bc a6 3e bc 3d 23 3e 1b 3e
       0.029521383 -0.021029688 0.09191637 0.15160422
000260 37 eb 9b 3d e5 e1 a3 bc 90 9e 28 3c 8d 77 06 3d
       0.07613223 -0.020005176 0.0102917105 0.032828856
000270 bb d0 50 bd 5f 90 70 3e 3d 6a 60 3e f1 f6 8c 3e
       -0.05098031 0.23492573 0.21915527 0.2753215
000280 bb df 44 3e 13 33 03 3e 11 34 ea 3e fb b7 60 3c
       0.19225971 0.12812452 0.4574285 0.013715739
000290 2c 80 41 bd b8 8a 4f 3d ab 57 a8 bc 2f c8 4d 3d
       -0.047241375 0.050669402 -0.020549616 0.050239738
0002a0 45 1b ef bc dd cc 99 bb 0f 2b 05 bd e7 ed 39 3b
       -0.029187808 -0.004693611 -0.032511767 0.002837056
0002b0 4c dc a4 bd 2b 7f 96 bc d9 c2 2c 3d e0 53 e1 bc
       -0.08049831 -0.018371185 0.04217801 -0.027505815
0002c0 f3 85 94 bc ac 85 ee bc 3a c1 94 bd 83 c2 c5 bc
       -0.018130278 -0.029116474 -0.072634175 -0.024140602
0002d0 5b 50 4f 3d a9 e9 94 bb 3d c6 fc bc 67 03 9e bb
       0.050613742 -0.004544456 -0.030856246 -0.004822183
0002e0 36 fa ab bd b8 f8 bf bb 3c cb 28 bd 07 56 44 bb
       -0.08397333 -0.005858507 -0.041209444 -0.0029958503
0002f0 c8 d4 ee bc 52 09 83 bc 6e 73 d0 3e 7a 17 b7 3e
       -0.029154196 -0.015995655 0.40713066 0.357601
000300 4a 28 df 3e e7 ad c9 3e 9e a6 6c bd 51 8a cd 3d
       0.43585426 0.3939049 -0.057776086 0.100361474
000310 1d a5 e7 3d 8d b5 02 be b4 b2 f5 3a 0a 56 f2 3b
       0.1131079 -0.12764569 0.0018745274 0.0073955106
000320 39 2d d2 bc 86 8f 1e bc dd 59 87 bc 1c 41 97 bd
       -0.02565633 -0.009677773 -0.016522342 -0.073854655
000330 ac b7 13 be d6 fd 94 bd 65 aa b7 bc d4 62 38 be
       -0.14425534 -0.07274978 -0.022420118 -0.1800645
000340 49 b5 e5 bd 4d be 1b be 29 d7 b4 3d 67 73 06 be
       -0.11216218 -0.15209313 0.08830101 -0.1312996
000350 7c 24 fd bd 13 af 34 be 34 2d 29 3e 0a a4 87 3e
       -0.123604745 -0.1764491 0.1652115 0.2649234
000360 7d 10 1e 3f 6e 7d 0d 3e 07 1d b0 3d a6 d9 a1 3d
       0.6174391 0.13817379 0.085992865 0.07902841
000370 f0 df d4 3e 39 99 44 bd 2f 39 8f 3e fb 2b f2 be
       0.415771 -0.047997687 0.27973315 -0.4729918
000380 3c fe ba bd c1 e5 83 3d 76 96 c6 bd 40 cc 8d bc
       -0.091305226 0.064403065 -0.09696667 -0.017309308
000390 12 f9 06 be 53 ea c9 3c 3e 41 f5 3d d5 07 ae 3b
       -0.1318095 0.024647867 0.119753346 0.0053109922
0003a0 04 bd 89 bc b7 31 56 bb aa 69 8e 3c 6a 81 0b bd
       -0.016813762 -0.003268344 0.017384369 -0.034058966
0003b0 0d e6 c3 bb 31 42 dd 3b 0c 9b 27 3c 3f 02 84 3c
       -0.005978352 0.0067522754 0.010229837 0.016114352
0003c0 63 77 5a bd b4 f6 9f bb 41 4f d6 3a c8 53 6f 3c
       -0.053336512 -0.004881704 0.0016350524 0.014607377
0003d0 62 63 a6 3b 99 c7 de 3b be 10 79 bc 92 04 03 bd
       0.0050777653 0.0067986962 -0.015201746 -0.03198678
0003e0 93 76 4e bc 22 bf b7 3a 2e cf ca 3b 77 0d 8c 3b
       -0.0126015125 0.0014018754 0.0061892485 0.004274066
0003f0 80 cc 3a bc 4f 45 2d 3b b9 9d 21 bb 42 08 9b bc
       -0.011401296 0.0026439016 -0.002466066 -0.018924836

bias f4 [64]
000000 0a 8b f2 3d de 44 91 3e 8a f0 ba bd e2 f5 22 bd
       0.11842926 0.28372854 -0.091279104 -0.039785273
000010 92 d5 18 3e 44 8b 90 3e 69 b8 39 bc 99 57 02 bd
       0.1492522 0.2823125 -0.011335471 -0.03182182
000020 50 b1 c5 bb b4 18 5e bb 5e f5 fa bc 50 fe 09 3e
       -0.0060331 -0.0033889236 -0.030634578 0.13475919
000030 f6 55 01 3e ec 75 84 bd 56 5e fd 3d 35 66 1a be
       0.12630448 -0.06467804 0.12371509 -0.15078051
000040 57 10 08 3e 6d 71 46 3d c9 36 bb 3d cf dd 6c 3e
       0.13287483 0.048448015 0.09141309 0.23131488
000050 b6 af a1 bc 79 62 15 bc a8 dc 82 3d 9a 8a 96 3d
       -0.019737106 -0.009117716 0.06389743 0.07350655
000060 e2 30 35 bd 71 a5 0e be 5f 0e a1 bd c0 b2 9a bc
       -0.04423607 -0.13930298 -0.07864069 -0.018884063
000070 55 2d 0d be 13 6a d4 bd 95 0a 25 be b5 bd f2 3d
       -0.13786824 -0.103717946 -0.16117318 0.1185259
000080 92 00 f2 3d fb 1f 40 be 00 10 33 be 55 a2 2b bd
       0.11816515 -0.187622 -0.17486572 -0.04190286
000090 dd 70 07 bd d6 dc 81 be f1 33 10 bd 34 75 f9 bc
       -0.03306662 -0.25363797 -0.035205785 -0.030451395
0000a0 77 31 21 bc 86 cf 09 bd 30 38 4d b9 33 f0 fc 3d
       -0.0098384535 -0.033645175 -0.00019571255 0.12350502
0000b0 d8 2c 45 3c 8f cd 45 b9 f6 34 73 3e 12 68 61 3e
       0.012034617 -0.0001886396 0.23750672 0.22012356
0000c0 8b a7 09 be fd 29 1b bd f7 62 68 bd 8a 6d 4a 3e
       -0.13442819 -0.03788184 -0.056735005 0.19768348
0000d0 43 fc b4 3d 76 9e 8f 3e 9d ed 64 bc e4 c8 c6 3c
       0.088371776 0.28050584 -0.013972667 0.024265714
0000e0 a8 8c 9b b9 e8 a8 7d be 54 14 30 bd 81 a4 dd 3d
       -0.000296687 -0.24771464 -0.042988136 0.10822392
0000f0 46 2c 3a 3e fe 2a 1a be 49 9a cf 3d fd 57 de 3d
       0.18180951 -0.15055463 0.101368494 0.10856626

weight f4 [16, 64]
000000 7b 93 1a be 5c 25 5b 3e 27 a1 73 be 92 78 c2 ba
       -0.15095322 0.2140097 -0.23791943 -0.0014836958
000010 dc c9 4e 3e bc db 5a 3e 41 d8 50 be 9f 0a e5 bc
       0.2019419 0.21372885 -0.20394994 -0.027959166
000020 5f 7a 77 be f1 f4 47 be 4b a9 ba 3c 74 19 0d be
       -0.24167775 -0.19527031 0.022785803 -0.13779241
000030 54 f9 64 be a1 ef 6b bd 6c b9 5d be ff 37 3e bf
       -0.22360736 -0.057601575 -0.21652764 -0.74304193
000040 c4 e9 64 be 7c 0b 42 be 0b f1 22 be 3b 8c 77 3e
       -0.223548 -0.18949693 -0.15912263 0.24174587
000050 9c 72 21 bc d3 3d 0f bc 3b 3c c3 be c2 dd 40 be
       -0.009853985 -0.008742767 -0.3813189 -0.18834594
000060 6c 35 30 be 37 72 a1 be e4 f2 05 bd 36 7a e8 bb
       -0.17207879 -0.31532452 -0.03270234 -0.007094647
000070 b4 ee 04 be 94 56 8f 3d 12 f0 5a be 6a 13 2a be
       -0.12981683 0.06998935 -0.21380642 -0.16608968
000080 0b c8 5b be 8c cc 84 be ff b4 86 bf 69 ec 0f 3c
       -0.21463029 -0.25937307 -1.0523986 0.008784392
000090 ea f7 3b 3f ed 0b 34 bf 70 aa 14 bc 6d 5c 54 bc
       0.7342516 -0.703307 -0.009073839 -0.012961489
0000a0 46 fd 1c bf c8 5f 2e 3c a1 c4 37 39 63 73 14 be
       -0.61323965 0.010642953 0.0001752549 -0.14497142
0000b0 8c 8f f8 be aa 0f 58 38 3c 23 53 3e 2b 84 28 3e
       -0.48547018 5.1513e-05 0.2061891 0.16456668
0000c0 44 ac 9c be 00 d0 5e be dc 49 65 be 2d 52 93 be
       -0.30600178 -0.21759033 -0.22391456 -0.28773633
0000d0 ba c8 1b be 54 e3 58 3e 31 6c dd bc 07 8c 11 c0
       -0.1521329 0.21180469 -0.027029129 -2.2741716
0000e0 9e 89 68 b9 75 c3 ea be c5 da ae 3c bf 38 86 be
       -0.0002217651 -0.45852247 0.021344552 -0.2621517
0000f0 e9 21 8f be 15 40 f3 be f5 75 28 be 77 da e5 bd
       -0.2795556 -0.47509828 -0.16451247 -0.112233095
000100 2c 2a 47 be 0d 01 4e 3e 94 e5 6a be 8b 2c d0 bc
       -0.19449681 0.20117588 -0.2293914 -0.025411865
000110 f7 26 52 3d 72 21 4c 3e ae e0 f0 bd 04 fd 48 bd
       0.05130669 0.19934633 -0.11761604 -0.04906942
000120 97 65 36 bf d3 0a 07 3e a2 43 36 bc c5 cc 24 be
       -0.71248764 0.13187723 -0.011124523 -0.16093738
000130 80 4f 77 be 9b 0d 9e bd 21 2b 6f be be 3b b4 bf
       -0.2415142 -0.07717439 -0.23356296 -1.4080732
000140 84 eb 73 be 51 c0 17 be f1 e6 64 be da 20 3a 3e
       -0.23820311 -0.14819457 -0.22353722 0.18176594
000150 ea e4 f4 bb a8 7f 0c bc 22 0b 29 be 10 02 59 be
       -0.0074735777 -0.0085753575 -0.16508153 -0.21192193
000160 67 61 23 3f 99 66 c4 be 6c f1 e9 bc 56 95 b9 bb
       0.638205 -0.38359526 -0.028557502 -0.005663554
000170 c7 77 23 be ee ba 44 be 0c a9 91 be aa bc 40 be
       -0.1596366 -0.19211933 -0.28449285 -0.1882197
000180 ed be 69 be 66 6f d1 be 5d 64 89 bf f1 54 a4 bc
       -0.22826739 -0.40905303 -1.0733753 -0.020060034
000190 20 20 9f 3e 7d 50 48 bf 68 0d 14 bc 2f d2 42 3b
       0.31079197 -0.78247815 -0.009036399 0.002972733
0001a0 ab 4d 8c bf 94 4a 93 bc 3a 1f 0e b9 31 a3 1a be
       -1.0961202 -0.017979898 -0.00013553808 -0.15101315
0001b0 4f a7 8c bf 6a 4d 1f 38 3b d6 2c 3e a0 59 12 3e
       -1.0988559 3.798065e-05 0.16878597 0.14292002
0001c0 c7 4b 99 be 45 03 6d be 16 84 0c 3d 2e 97 89 be
       -0.29940626 -0.23145778 0.034305654 -0.26873153
0001d0 20 1b 03 be 61 07 4b 3e a0 2e 8c 3d b6 e9 02 bf
       -0.12803316 0.19827034 0.068448305 -0.51137865
0001e0 59 6c 42 39 38 95 06 bf 06 4e c0 3c 32 21 3f be
       0.00018541644 -0.5257144 0.023474704 -0.18665007
0001f0 0e 92 44 be a0 ce 27 bf 85 8f 1d be bd 7b 15 be
       -0.1919634 -0.6554966 -0.1538678 -0.14597984
000200 92 55 ac ba 08 19 1e bb a6 ee 78 bb d6 63 bc b9
       -0.001314806 -0.0024123807 -0.0037984042 -0.00035932538
000210 fb 98 75 bb 59 ac 19 bb fa 18 59 bb 32 16 0c bb
       -0.0037475217 -0.0023448674 -0.003312646 -0.0021375534
000220 1e 0e c6 39 0e 04 e9 37 f4 f0 e8 b9 cd 10 9a ba
       0.0003777602 2.7777653e-05 -0.00044430012 -0.0011754275
000230 dd 08 e7 ba ab 0d 86 b9 ec d7 62 b9 c3 99 b7 ba
       -0.0017626543 -0.00025568655 -0.00021633477 -0.0014007617
000240 db c2 45 ba f9 0b 97 ba 55 d3 b3 ba b8 b8 0c bb
       -0.00075439893 -0.0011523954 -0.0013719598 -0.0021472406
000250 7e 9f 55 3a 60 99 42 b9 fb 8c 79 3a 53 15 c4 ba
       0.00081490714 -0.00018558418 0.0009519604 -0.0014959968
000260 e6 a5 1b b9 37 b9 6c 3a 0e d5 1d b9 8b 7d 80 38
       -0.00014843754 0.0009030285 -0.00015052056 6.1269e-05
000270 1d 0e 8b 3a 2a d6 0d bb 63 82 52 ba 44 ec df ba
       0.0010609064 -0.0021642544 -0.00080302934 -0.0017083962
000280 1c a5 d7 39 d9 a9 1d ba 05 c8 96 ba ac d9 1b ba
       0.00041131012 -0.0006014384 -0.0011503702 -0.00059452164
000290 e8 5c 00 bb 06 8a a6 b9 dc 59 90 b9 f6 ef 8d 39
       -0.0019586626 -0.00031764823 -0.0002753277 0.000270724
0002a0 ec 85 38 37 f8 07 ba b9 27 fb 21 39 8b 9e e2 39
       1.0998436e-05 -0.00035482622 0.00015447718 0.00043224203
0002b0 46 f2 6a 3a 1c 95 57 b8 55 90 27 bb 1e ef 2a bb
       0.0008962493 -5.1398863e-05 -0.0025568206 -0.0026082466
0002c0 2e 7e 1c ba 6b e5 b2 3a 28 dd 2b 39 bf ca 83 ba
       -0.000596973 0.0013648694 0.00016390218 -0.001005493
0002d0 15 7e 4f ba 9a 07 1e bb 81 44 d6 ba d5 ed cc 3a
       -0.0007915211 -0.0024113418 -0.001634732 0.0015634844
0002e0 84 1a 1d b9 bd 64 aa ba 76 f1 68 39 cb d0 d3 39
       -0.00014982565 -0.0012999993 0.00022215195 0.0004040062
0002f0 ae d0 e2 b9 e9 b8 af b9 b4 0c 53 39 48 75 da ba
       -0.00043261558 -0.0003351637 0.0002012726 -0.0016667033
000300 04 9c 43 3e c8 ab 9e 3c 83 fc 24 bc a4 28 df 3c
       0.19102484 0.019369021 -0.010069969 0.027241059
000310 42 ec 4e be 70 96 9d 3c 33 31 42 3e 1c 10 51 3d
       -0.20207313 0.019236773 0.1896408 0.051040754
000320 ab dd a2 3d 89 0a 8f 3e a5 a5 3d 3b 04 28 53 3e
       0.07952436 0.27937725 0.0028937843 0.20620733
000330 9f 8c 87 3e 9a f5 f0 3d ae 5f 88 3e 47 1b ff 3d
       0.26474473 0.11765595 0.26635498 0.124563746
000340 9e 07 80 3e 05 42 38 3e 44 42 4f 3e 09 3a 05 bd
       0.2500581 0.17993934 0.20240122 -0.03252605
000350 00 02 98 3c 63 89 0f 3c f4 31 9f 3e 20 f8 31 3e
       0.018555641 0.008760783 0.310928 0.17379808
000360 47 32 73 3e 11 d4 b2 3e 5a 95 ce 3d 31 6b 9b 3c
       0.23749648 0.3492742 0.1008708 0.018972011
000370 13 39 2b 3e 01 32 00 be e3 25 38 3e f0 53 61 3e
       0.16720991 -0.12519075 0.17983203 0.22004676
000380 7c 72 81 3e 0b f0 a0 3d 65 e5 44 3e 1d 26 59 3d
       0.25282657 0.078582846 0.19228132 0.053014863
000390 ae 35 4f bf ad 7f 2f 3f 94 1b 02 3d 38 70 13 3d
       -0.80941284 0.6855419 0.03176458 0.035995692
0003a0 74 0f f6 3d 33 f2 08 bc 8e 89 bc 39 37 a4 67 3e
       0.12014666 -0.008358526 0.0003596064 0.22621237
0003b0 53 ee 80 3d 71 ee bf 37 0f 5a 12 3c fe 67 1c 3d
       0.06295457 2.2880007e-05 0.008932604 0.038185112
0003c0 f3 32 88 3e c2 84 ef 3d d1 6f 06 3e dc f7 a2 3e
       0.2660137 0.116952434 0.13128592 0.31829727
0003d0 52 fa 0a 3e db c8 bf 3c 18 9b a3 3d ad df 80 3f
       0.13572052 0.023411205 0.07988566 1.006826
0003e0 3e 92 39 b9 db ca 46 3f fe cf b5 3c 0d e1 44 3d
       -0.00017697454 0.7765328 0.022193905 0.048066188
0003f0 e1 91 6d 3d e5 94 21 3e 23 3e ba 3d 9c 96 4b 3e
       0.05800045 0.15779455 0.09093883 0.19881672

bias f4 [16]
000000 23 86 a4 3e 3f 0c b0 3e e4 11 2f bb 17 91 57 bd
       0.32133588 0.34384343 -0.0026713545 -0.052628603
000010 38 87 b8 38 a7 f5 b2 b9 63 5c 9f bd dc 60 ae bd
       8.79899e-05 -0.0003413383 -0.07781293 -0.08514568
000020 20 12 63 b8 27 34 50 bd de 51 17 b9 59 fb 0b be
       -5.4137898e-05 -0.050830986 -0.0001443098 -0.136701
000030 04 da ae bd 42 b5 a8 3e 49 83 f2 bd d4 66 d7 bd
       -0.08537677 0.3295079 -0.11841447 -0.1051766

weight f4 [4, 16]
000000 22 f5 14 3f a8 dd ef 3e c0 cf 5e b9 af 0b 7c be
       0.58186543 0.46848798 -0.00021248963 -0.24613832
000010 dc c9 7d 38 be 37 5e b8 19 70 9e be b1 74 1a bf
       6.0507897e-05 -5.298084e-05 -0.309449 -0.60334307
000020 16 98 22 39 0e 87 a6 bd 43 ac b8 37 76 d8 32 be
       0.0001550618 -0.081312284 2.2014725e-05 -0.17465386
000030 ee c2 4c bd a0 87 23 3f 03 65 5c be e4 1c f0 be
       -0.049990587 0.6387882 -0.21522908 -0.46897042
000040 4c 3b 25 3f a2 dc 1f 3f dc 3d 26 3a c7 54 65 be
       0.64543605 0.62446034 0.0006341615 -0.22395621
000050 e0 dd 78 b9 dc 2d ca b8 d7 b3 66 bd e1 16 0a bf
       -0.00023733778 -9.6406526e-05 -0.056323852 -0.5394116
000060 0e f6 d5 39 72 b9 c0 bd 36 52 a4 38 e8 69 cb be
       0.0004080985 -0.09410371 7.8354424e-05 -0.39729238
000070 e4 93 59 be c2 8a f2 3e c6 89 81 be 8e 82 07 be
       -0.21247822 0.4737149 -0.25300425 -0.13233396
000080 20 59 f0 3e e3 1f 29 3f c1 c2 09 ba b0 f4 b6 be
       0.46942997 0.6606428 -0.0005255156 -0.35733557
000090 76 e1 a1 39 5a da 50 39 7f 2d 9d be b1 97 c7 3d
       0.00030876294 0.00019917768 -0.30698773 0.0974573
0000a0 da 9c d1 39 ee 74 8b be ad 7e c4 35 ab 63 5e be
       0.0003998045 -0.27237648 1.4640005e-06 -0.21717708
0000b0 08 79 aa be a7 9d 0c 3f 45 ce 74 be 9b c7 72 be
       -0.33295465 0.5492806 -0.2390681 -0.23708956
0000c0 fe aa dd 3e ef e1 2a 3f 83 45 23 b7 c8 9e a9 3d
       0.4329452 0.66751 -9.731742e-06 0.08282238
0000d0 b6 9c a1 b8 a9 01 d1 b9 60 18 88 be e9 4d e6 be
       -7.706268e-05 -0.00039864823 -0.26581097 -0.44981316
0000e0 3c 56 5a b9 fb e7 ae be 49 5d b9 39 a4 86 97 be
       -0.00020822225 -0.34161362 0.00035355453 -0.2959491
0000f0 fa cb 25 be 03 48 11 3f 23 60 a1 be b8 c2 8d be
       -0.16191092 0.56750506 -0.3151866 -0.2768762

bias f4 [4]
000000 71 f8 4b 3e 26 0a 37 3e 11 e0 1f 3b f3 02 bf 3e
       0.19918992 0.17874965 0.0024395029 0.37306938
