data/58000.pth (torch, 24727 bytes, 6 tensors)

weight f4 [64, 33]
0	0x3c26e7fc	0.010187145
1	0xb8e7aa4c	-0.000110466586
2	0x3c28a72c	0.010293763
3	0x393d3f0d	0.00018047933
4	0xb59cd72b	-1.1685528e-06
5	0xb8389686	-4.4009204e-05
6	0x3c3013f2	0.010746943
7	0xb74c112b	-1.2163345e-05
8	0xb6bb20dd	-5.57686e-06
9	0x39ad291b	0.00033027757
10	0xb891f14e	-6.959085e-05
11	0xbb727152	-0.0036993814
12	0x3ded4a06	0.115863845
13	0xbb915d20	-0.00443615
14	0xb6c6f806	-5.9297336e-06
15	0xb629b219	-2.528663e-06
16	0xba067cc7	-0.00051302876
17	0xba914ac1	-0.00110849
18	0x3d4a0803	0.049324047
19	0xbb6dcaaa	-0.0036284127
20	0x35877a08	1.00938e-06
21	0x3afec1c6	0.0019436411
22	0x3d4674db	0.048451286
23	0x3c8ddd6e	0.0173175
24	0x3cf5c0a6	0.029999088
25	0x3e155588	0.14583409
26	0x3dfbc980	0.122942924
27	0x3da1c9aa	0.078997925
28	0x3e06a46c	0.1314866
29	0xbde511bf	-0.111850254
30	0xbd808aa4	-0.062764436
31	0xbe8018fb	-0.2501906
32	0x3d675c17	0.056484308
33	0x3c3db90b	0.011579762
34	0xbccdab82	-0.025106195
35	0x3d314249	0.043276105
36	0xbce09b4a	-0.027417798
37	0xbcfe221d	-0.031022126
38	0xbdbe0e7a	-0.09280105
39	0x3c9bb549	0.019007342
40	0xbda4dd2e	-0.08049999
41	0xbce00644	-0.027346738
42	0x3d298fe1	0.04139698
43	0xbd720eec	-0.05909626
44	0xbdad4e60	-0.084622145
45	0xbd9c753f	-0.076395504
46	0xbd3c84a2	-0.046024926
47	0xbd1085e6	-0.035283946
48	0x3d27daa2	0.04097999
49	0xbd783b22	-0.06060327
50	0xbddb635d	-0.107123114
51	0xbe086b5b	-0.13322203
52	0xbdccfb86	-0.10008912
53	0xbd193b23	-0.037409913
54	0xbd634303	-0.05548383
55	0xbcff0349	-0.031129496
56	0xbcbdb071	-0.023155423
57	0x3cb84502	0.022493843
58	0x3ee233af	0.44180056
59	0x3e9461b2	0.28980786
60	0x3ee14993	0.44001445
61	0x3eba73ed	0.3641657
62	0xbd56883a	-0.05237601
63	0x3d37c838	0.044868678
64	0x3d922bcd	0.071372606
65	0xbded4cef	-0.115869395
66	0x3d0e5973	0.034753274
67	0x3c989e0e	0.018630054
68	0x3d308d1b	0.04310332
69	0x3be5daa0	0.0070145875
70	0x3ce9dc18	0.028547332
71	0x3c9abddf	0.018889366
72	0x3d1eff7d	0.03881787
73	0x3cfe3e48	0.031035557
74	0x3d4ca9a6	0.049966477
75	0x3c87d79b	0.0165823
76	0x3d39bd39	0.045346472
77	0x3db1f1fc	0.08688733
78	0x3c093791	0.0083750645
79	0x3d7a77ac	0.061149284
80	0x3c9a4c46	0.018835198
81	0x3d26555c	0.04060875
82	0x3c0bbc3b	0.008528764
83	0x3b8eceaf	0.0043581347
84	0x3d2afc01	0.041744236
85	0x3d03aed4	0.03214915
86	0x3d11a66e	0.03555911
87	0x3c6ad959	0.014334046
88	0x3d66910a	0.056290664
89	0x3cb7432f	0.022370903
90	0x3cdd2fff	0.027000425
91	0xbec58b1c	-0.38582695
92	0xbe183572	-0.14864138
93	0xbea73204	-0.32655346
94	0xbf01f610	-0.50766087
95	0x3d0b3b03	0.033991825
96	0x3c57fdfb	0.013183112
97	0x3dff8cb7	0.12478011
98	0x3d03db8f	0.03219181
99	0xba3c0452	-0.00071722746
100	0xba379441	-0.00070029875
101	0xba04e709	-0.00050698273
102	0xb9987772	-0.00029080693
103	0xba372b92	-0.00069873885
104	0xba49519b	-0.00076797017
105	0xba309f19	-0.00067375746
106	0xb7984be5	-1.8155153e-05
107	0xb9591209	-0.00020701451
108	0xba4ba213	-0.00077679864
109	0xba15b169	-0.0005710335
110	0xb70b3e91	-8.299613e-06
111	0x3a13f48e	0.00056440465
112	0x375a973d	1.30290255e-05
113	0xb99f6b1b	-0.00030406643
114	0xba1e3b15	-0.00060360256
115	0xb993ef2f	-0.0002821623
116	0xb9257a8d	-0.0001578128
117	0xb9231e1c	-0.00015556108
118	0xb938d59b	-0.00017627182
119	0xb899492c	-7.309238e-05
120	0xb9ab4aa9	-0.00032671288
121	0xb7b56327	-2.1623053e-05
122	0xb92f2461	-0.00016702853
123	0xb9d5d302	-0.0004078374
124	0xbae1ef95	-0.0017237539
125	0xba87b188	-0.0010352591
126	0xba96b56a	-0.0011498157
127	0xbab8ae40	-0.0014090016
128	0x3893c57a	7.046289e-05
129	0xb97e6b94	-0.00024263404
130	0xb93a8990	-0.00017789588
131	0x3abca0e9	0.0014391217
132	0x3d9c523b	0.07632872
133	0xbddb84a7	-0.10718661
134	0xbd92ec4e	-0.07173978
135	0xbd187880	-0.037224293
136	0xbdcaaa42	-0.09895755
137	0xbe869e91	-0.26292852
138	0xbea79e6e	-0.3273806
139	0xbe5ca4e2	-0.21547273
140	0xbdd2e0f6	-0.10296814
141	0x3c37ee71	0.011226282
142	0xbdcb8c92	-0.09938921
143	0xbe7ec904	-0.24881369
144	0xbe10025f	-0.14063405
145	0xbcc5cf4d	-0.0241467
146	0xbd399c18	-0.04531488
147	0xbd021bb3	-0.031764697
148	0xbd14cd77	-0.03632876
149	0xbdae1e51	-0.08501876
150	0x3dd9cbcf	0.106345765
151	0xbce2dd4c	-0.027693413
152	0x3cfc7f50	0.030822426
153	0xbd1b3981	-0.037896637
154	0x3d87dc33	0.066337965
155	0xbcef38fe	-0.02920198
156	0x3c5241fe	0.012833117
157	0x3ed51a0c	0.41621435
158	0x3e7ce56c	0.24696892
159	0x3ed3086c	0.41217363
160	0x3ec6d841	0.38836864
161	0x3e128e82	0.14312175
162	0x3e14f979	0.14548291
163	0x3d4e583b	0.050377112
164	0xbe3c334d	-0.18378945
165	0x3c40f9a2	0.011778267
166	0xbcce5395	-0.02518634
167	0x3d30c2f2	0.043154664
168	0xbce1232a	-0.027482588
169	0xbd0067ba	-0.03134892
170	0xbdbef880	-0.09324741
171	0x3c94b760	0.018153846
172	0xbda5d8e3	-0.080980085
173	0xbce2db98	-0.027692601
174	0x3d292a2a	0.041299976
175	0xbd7276ee	-0.05919545
176	0xbdade849	-0.084915705
177	0xbd9c9fc2	-0.07647659
178	0xbd3b9ba9	-0.045802746
179	0xbd107960	-0.035272002
180	0x3d26b662	0.040701278
181	0xbd777f69	-0.060424242
182	0xbddab027	-0.1067813
183	0xbe0752dc	-0.13215202
184	0xbdcc6c39	-0.09981579
185	0xbd182406	-0.03714373
186	0xbd62ba69	-0.055353556
187	0xbcfae240	-0.030625463
188	0xbcbdb6b0	-0.023158401
189	0x3cb8d767	0.02256365
190	0x3ee237c9	0.44183186
191	0x3e946aa6	0.28987616
192	0x3ee14dcf	0.44004676
193	0x3eba7c97	0.3642318
194	0xbd5189d0	-0.05115682
195	0x3d398714	0.045294836
196	0x3d922c88	0.071374
197	0xbded765a	-0.115948394
198	0x3d8b7fb3	0.06811466
199	0xbd47cdca	-0.04878024
200	0xbcbd51f8	-0.023110375
201	0xbd7f07a5	-0.06226315
202	0xbd7eaa7d	-0.06217431
203	0xbdf75cec	-0.1207827
204	0xbe2c6b23	-0.16837744
205	0xbd30cbf6	-0.043163262
206	0xbe1cc8ca	-0.1531097
207	0xbe843fb7	-0.2582986
208	0xbe5bc978	-0.21463573
209	0xbdf0742a	-0.117409065
210	0xbd041b22	-0.03225244
211	0xbf313f09	-0.6923681
212	0xbf71a192	-0.9438716
213	0xbf2eca3b	-0.6827733
214	0xbcc8363c	-0.024439923
215	0x3e2e2cc8	0.1700927
216	0x3ee1fb2b	0.44136938
217	0x3df6cc22	0.12050654
218	0xbe253eeb	-0.16137283
219	0x3cb79f26	0.022414755
220	0x3dd1afcf	0.10238611
221	0xbd587f2f	-0.052855667
222	0xbdd34df0	-0.103176
223	0xbec7782a	-0.38958865
224	0xbcb8666c	-0.022509776
225	0x3de4653c	0.111521214
226	0xbc1cba95	-0.009565969
227	0x3dfd2ef7	0.123624735
228	0xbef6834d	-0.4814705
229	0x3d43f99e	0.047845475
230	0xbd40b25c	-0.047045097
231	0x38fbdec1	0.00012010104
232	0xb9c757eb	-0.00038021742
233	0xb89afe0a	-7.390611e-05
234	0x38b11fc0	8.4459316e-05
235	0xba49e561	-0.00077017216
236	0xb90dc0ca	-0.00013518627
237	0x39201ad6	0.00015268786
238	0xb8a22d1d	-7.733165e-05
239	0x39bf0caf	0.0003643981
240	0xba9e1781	-0.0012061448
241	0xb8e78403	-0.000110395275
242	0x381b1322	3.69727e-05
243	0x37b5816d	2.163715e-05
244	0xb94b3e89	-0.00019382885
245	0x3921334f	0.0001537327
246	0xb9b43b20	-0.00034376327
247	0xba3da3ae	-0.0007234168
248	0xb99567c2	-0.000284968
249	0x3804f791	3.1701817e-05
250	0x3912c19c	0.0001399577
251	0x38cab29f	9.6653814e-05
252	0xb9872be4	-0.00025781908
253	0x387ac666	5.9789418e-05
254	0xb869eb82	-5.5770863e-05
255	0xb9e06198	-0.00042797322

bias f4 [64]
0	0x3df0f7a4	0.11765984
1	0x3e7ee171	0.24890687
2	0xbe48989c	-0.19589466
3	0xba7dc836	-0.0009681018
4	0x3e679052	0.22613648
5	0x3e7eeab6	0.24894223
6	0x3d1fae22	0.038984425
7	0xba86c9e2	-0.0010283554
8	0xbd461bae	-0.04836624
9	0x3da3ced8	0.07998437
10	0xba359546	-0.00069268455
11	0x3e0a8126	0.13525829
12	0x3e0770e3	0.13226657
13	0xbb4b7dd1	-0.0031050334
14	0x3e1714cc	0.14754027
15	0xbd6a5e0b	-0.057218593
16	0x3e0c19d8	0.13681734
17	0x3cf68acb	0.030095479
18	0x3e00bec2	0.12572768
19	0x3e71ee56	0.23626074
20	0xb9ea055e	-0.00044635957
21	0xb958333b	-0.0002061845
22	0x39475c71	0.00019012556
23	0x3e000485	0.12501724
24	0x3dc4a0ba	0.09600969
25	0xbe86943a	-0.26284963
26	0xbb090d8f	-0.0020912623
27	0xb9dfe430	-0.00042703887
28	0xbb4c57f8	-0.0031180363
29	0xbe73f0cb	-0.23822324
30	0xbb6edc41	-0.00364472
31	0x3e023755	0.1271642
32	0x3e14227c	0.1446628
33	0xbca47f01	-0.020080091
34	0xbdd8afd6	-0.10580413
35	0xbab3014f	-0.0013657006
36	0x3da1ea4b	0.07906016
37	0xbc542902	-0.01294923
38	0xba50b2eb	-0.0007961231
39	0xba3482e1	-0.00068859576
40	0xbd0dabbf	-0.034587618
41	0xbcef1e1e	-0.029189166
42	0xb69480ef	-4.4257536e-06
43	0x3e08ef82	0.13372615
44	0x3cb10f85	0.021613846
45	0xb68f24b2	-4.266004e-06
46	0x3e806c39	0.25082567
47	0x3e85d32d	0.26137677
48	0xbe72793e	-0.23679063
49	0xba58208c	-0.0008244596
50	0xbbd40cad	-0.0064712376
51	0x3dae67ab	0.08515867
52	0x3e1398b8	0.14413726
53	0x3e7f1f6e	0.24914333
54	0x3d0239d6	0.031793438
55	0xbaa854fe	-0.0012842712
56	0xb6e123c5	-6.7096867e-06
57	0xbd25424b	-0.040346425
58	0xbb3fd67d	-0.0029272132
59	0x3df24fe8	0.11831647
60	0xbdca8aea	-0.09889777
61	0xbdc79d25	-0.0974677
62	0x3e03a48f	0.12855743
63	0x3e0a7d72	0.13524416

weight f4 [16, 64]
0	0xbdee3d59	-0.11632795
1	0x3e6f6806	0.23379526
2	0xbeed183b	-0.4630755
3	0xb80cb465	-3.3546607e-05
4	0x3ea3ae7f	0.31969067
5	0x3e6f6bc7	0.23380958
6	0xbe744936	-0.23856053
7	0xba25bb87	-0.0006322194
8	0xbe5dcc73	-0.21660022
9	0xbd58a0bc	-0.052887663
10	0x3a071275	0.00051525916
11	0xbe19d647	-0.15023147
12	0xbe06cfe2	-0.13165238
13	0xbaa4d578	-0.0012575826
14	0xbe155384	-0.1458264
15	0xbf1bfd40	-0.60933304
16	0xbe0bf2be	-0.13666818
17	0x3e143b78	0.1447581
18	0xbdf90783	-0.12159636
19	0x3e7e7b0b	0.24851625
20	0xb969ad8b	-0.00022285261
21	0xb94f4af3	-0.00019768979
22	0xbe59155b	-0.21199553
23	0xbde83731	-0.11338652
24	0xbde289dd	-0.110614516
25	0xbf52fb65	-0.8241485
26	0xba4c7191	-0.0007798905
27	0xb9283b37	-0.00016043788
28	0xbb405fb5	-0.002935392
29	0xbefe00c9	-0.49609974
30	0xbb9e6e81	-0.0048349504
31	0xbdf505a2	-0.11963965
32	0xbe6a3581	-0.22871973
33	0xbce8e236	-0.028428178
34	0xbf4b67f1	-0.79455477
35	0x3a3a6297	0.0007110028
36	0x3f29b635	0.6629365
37	0xbd1f9368	-0.038958937
38	0xb95728b0	-0.00020519155
39	0xb999ae4c	-0.00029312295
40	0xbf1c6ff9	-0.61108357
41	0xbd002888	-0.031288654
42	0x3684fb87	3.963188e-06
43	0xbe03eb3e	-0.12882707
44	0xbecf56ea	-0.40495998
45	0x359c54d9	1.16476e-06
46	0x3e7538b2	0.23947409
47	0x3e73690d	0.23770542
48	0xbf389061	-0.72095305
49	0xbe65a9bf	-0.22428034
50	0xbc30bc64	-0.010787103
51	0x3db6ed7e	0.08932017
52	0xbe1d79fb	-0.15378563
53	0x3e6f555f	0.2337241
54	0x3e13199a	0.14365235
55	0xbff22836	-1.8918521
56	0xb6a84683	-5.014999e-06
57	0xbe1139c0	-0.14182186
58	0xbac11101	-0.0014729799
59	0xbdfbe694	-0.12299839
60	0xbea6cb91	-0.32577184
61	0xbeba5b2a	-0.36397678
62	0xbe010597	-0.12599789
63	0xbe0f9f4d	-0.14025612
64	0xbd902dde	-0.070399985
65	0x3e50ca3e	0.2038965
66	0xbec3043d	-0.3808917
67	0xba16a19d	-0.0005746128
68	0x3e7daa10	0.24771905
69	0x3e50b328	0.20380843
70	0xbcb2fa35	-0.021847824
71	0xba916e2a	-0.0011095454
72	0xbf5ce4e9	-0.8628679
73	0x3e8283ea	0.25491267
74	0xb983e57a	-0.0002515724
75	0xbdcb932a	-0.09940179
76	0xbd9953f5	-0.07486717
77	0xbb0f5afa	-0.0021874295
78	0xbde749eb	-0.112933956
79	0xbf9e8a28	-1.2385912
80	0xbdc58415	-0.09644333
81	0x3e112633	0.14174728
82	0xbd588a99	-0.052866552
83	0x3e554d5d	0.20830293
84	0xb9313356	-0.0001689916
85	0xb94b5bc8	-0.0001939378
86	0xbe2c2e71	-0.16814591
87	0xbd4a6c90	-0.04941994
88	0x3f097cd8	0.5370612
89	0xbf30e51c	-0.69099593
90	0xba821a06	-0.0009925968
91	0xb9064b26	-0.00012807231
92	0xbb6c94fa	-0.003609954
93	0xbee9170c	-0.45525396
94	0xbbd2d53f	-0.0064341123
95	0xbd9a48b5	-0.07533399
96	0xbe13871d	-0.1440701
97	0xbd0d37f2	-0.03447718
98	0xbfa551a6	-1.2915542
99	0x3876b0b9	5.8815556e-05
100	0xbc87c6cf	-0.016574292
101	0xbd1ce14e	-0.038300805
102	0xb9564546	-0.00020434437
103	0x388cf582	6.7214496e-05
104	0xbf92057d	-1.1407925
105	0xbd1390d5	-0.036026794
106	0xb64db186	-3.0650713e-06
107	0xbdb31018	-0.08743304
108	0xbf95f561	-1.1715509
109	0x35668e45	8.5888706e-07
110	0x3e5283e5	0.20558126
111	0x3e5481ba	0.20752612
112	0xbf2003b9	-0.6250568
113	0xbe7faa94	-0.24967414
114	0xba4ae5f1	-0.00077399524
115	0xbe66a30c	-0.22523135
116	0xbe1405c6	-0.14455327
117	0x3e50e91f	0.20401429
118	0x3e349a2c	0.17636937
119	0xbee4c272	-0.446796
120	0x368cabb3	4.1923136e-06
121	0xbdf6b334	-0.12045899
122	0xbababf6d	-0.0014247723
123	0xbd8ff57d	-0.07029245
124	0xbeb56b06	-0.35433215
125	0xbede5694	-0.4342543
126	0xbd87761d	-0.06614325
127	0xbddec64b	-0.10877665
128	0xb7f96ce5	-2.9733821e-05
129	0xb864cea2	-5.4551878e-05
130	0xb8b422c4	-8.5895444e-05
131	0xb7085089	-8.124983e-06
132	0xb8b1b6a2	-8.474036e-05
133	0xb85e6543	-5.3023232e-05
134	0xb89d18ae	-7.49094e-05
135	0xb84abf88	-4.833893e-05
136	0x370f530e	8.542802e-06
137	0x3528a011	6.2817804e-07
138	0xb7289249	-1.004764e-05
139	0xb7def6a8	-2.657932e-05
140	0xb8272c5c	-3.9857216e-05
141	0xb6c2031b	-5.782012e-06
142	0xb6a42742	-4.892151e-06
143	0xb804dc93	-3.167668e-05
144	0xb78f1d06	-1.7060443e-05
145	0xb7daa185	-2.6062839e-05
146	0xb8021cf4	-3.102138e-05
147	0xb84bb050	-4.8563175e-05
148	0x379a9599	1.8427892e-05
149	0xb68ccbb4	-4.1960393e-06
150	0x37b493db	2.1526523e-05
151	0xb80de39e	-3.3829005e-05
152	0xb66148cd	-3.3569988e-06
153	0x37ab48fc	2.0418775e-05
154	0xb6646bf1	-3.4037478e-06
155	0x35b9f35b	1.38544e-06
156	0x37c93ed5	2.3990326e-05
157	0xb84d4926	-4.8943934e-05
158	0xb7985372	-1.815867e-05
159	0xb8220782	-3.8630802e-05
160	0x371c0753	9.30003e-06
161	0xb7642d3b	-1.360039e-05
162	0xb7da3cd8	-2.6015958e-05
163	0xb76194bc	-1.3445675e-05
164	0xb839c45d	-4.4290315e-05
165	0xb6f10dd4	-7.1839695e-06
166	0xb6d0ea70	-6.226175e-06
167	0x36cd6dff	6.1222813e-06
168	0x34858722	2.4871503e-07
169	0xb7069df2	-8.023797e-06
170	0x366a71d4	3.4934974e-06
171	0x3723fd87	9.774586e-06
172	0x37aa029e	2.0266798e-05
173	0xb59bfbe4	-1.162171e-06
174	0xb8728371	-5.781971e-05
175	0xb87766a4	-5.898498e-05
176	0xb76281fc	-1.3500914e-05
177	0x38017302	3.0863106e-05
178	0x3678bf5f	3.7066272e-06
179	0xb7bebdaf	-2.2738093e-05
180	0xb7962634	-1.7899183e-05
181	0xb864b552	-5.4528304e-05
182	0xb81b0b77	-3.6965557e-05
183	0x38144b09	3.535583e-05
184	0xb6635fe0	-3.3881443e-06
185	0xb7f69d63	-2.9398774e-05
186	0x36a892a9	5.0238637e-06
187	0x37194822	9.136305e-06
188	0xb72421fc	-9.783074e-06
189	0xb6fe536e	-7.5795024e-06
190	0x3698b8a5	4.5514485e-06
191	0xb81e15fc	-3.769061e-05
192	0x3e4660ff	0.19372939
193	0xbaaa55b4	-0.0012995512
194	0x3e1405ab	0.14455287
195	0x3a6826b8	0.0008855867
196	0xbd516531	-0.051121894
197	0xbaacf2ba	-0.0013194897
198	0x3e886af8	0.2664411
199	0x3a5d9cf7	0.00084538705
200	0x3de40bc2	0.11135055
201	0x3e3e1adb	0.18564932
202	0x38893b60	6.5437285e-05
203	0x3e7361e5	0.23767813
204	0x3e5f6a42	0.21817878
205	0x3ad0e5d9	0.001593764
206	0x3e39927c	0.18122286
207	0x3d00a0ea	0.03140346
208	0x3e38aae5	0.18033941
209	0xbdbe5cdd	-0.09295056
210	0x3e5231e6	0.20526847
211	0xbc4e2e07	-0.012584216
212	0x39dc0228	0.00041963276
213	0x394fb92e	0.00019810043
214	0x3d923586	0.07139115
215	0x3e57b08a	0.21063438
216	0x3f20f9c6	0.62881124
217	0x3ec44d56	0.38340253
218	0x3aecde2e	0.0018071586
219	0x39e0f2b1	0.0004290543
220	0x3b77d23b	0.0037814516
221	0x3e938fbe	0.28820604
222	0x3b8541c4	0.0040666778
223	0x3e43d36d	0.19123621
224	0x3db9959e	0.0906174
225	0x3b9bbc49	0.00475267
226	0x3d8dbb38	0.06920475
227	0x3a33db0c	0.00068609486
228	0xbef0c88a	-0.47028
229	0x3d01bfca	0.031677045
230	0x3a3c5189	0.00071837805
231	0x3a55619d	0.00081398507
232	0x3e19634f	0.1497929
233	0xbc0a9709	-0.008458861
234	0x37086c10	8.131392e-06
235	0x3e2671c7	0.1625434
236	0x3e1b27ed	0.15151949
237	0x350ae620	5.174388e-07
238	0xbb84f986	-0.004058066
239	0x3b11b262	0.0022231569
240	0x3e576784	0.21035582
241	0x3d6c580d	0.05770116
242	0x3b20d6c6	0.0024542077
243	0xbdebc7fc	-0.11512753
244	0x3df08919	0.11744899
245	0xba7fdf02	-0.0009760709
246	0xbdcfb4a7	-0.101418786
247	0x3fb0e8fb	1.38211
248	0xb68648ea	-4.0019995e-06
249	0x3dba7e6f	0.091061465
250	0x3b210d49	0.002457457
251	0x3e47964d	0.19490929
252	0x3e70c999	0.23514403
253	0x3da70840	0.081558704
254	0x3e5d1a04	0.21591955
255	0x3e45966a	0.1929566

bias f4 [16]
0	0x3ebe04ee	0.37113136
1	0x3eb76968	0.35822606
2	0xb87d5e2e	-6.0407612e-05
3	0xbd84b6dc	-0.0648019
4	0xba1a2069	-0.0005879463
5	0xb7017e9c	-7.718478e-06
6	0x3b8f9d2e	0.004382751
7	0xbd78cd07	-0.060742404
8	0xb5a45196	-1.2242697e-06
9	0xbcc5d67f	-0.024150131
10	0xbc66e528	-0.014092721
11	0xba85f934	-0.0010221363
12	0x3c3a0184	0.0113529
13	0x3ec2276e	0.37920707
14	0xbd36319f	-0.044480916
15	0x3cf61251	0.03003803

weight f4 [4, 16]
0	0x3f0024de	0.50056255
1	0x3f047258	0.51736975
2	0xb6a1390e	-4.804816e-06
3	0xbf389c06	-0.7211307
4	0xbb479f15	-0.003045981
5	0xb5a0cbda	-1.1980258e-06
6	0xbe9c33da	-0.3050831
7	0xbf44b340	-0.76836014
8	0x366b5368	3.5066278e-06
9	0xbe977bc7	-0.29586622
10	0xbbb628f7	-0.0055590826
11	0x3e3ae6c3	0.18252091
12	0x3c08599a	0.008322144
13	0x3f1345d9	0.57528454
14	0xbead7791	-0.33880284
15	0xbebc5630	-0.36784506
16	0x3f0da146	0.5532421
17	0x3f19cd99	0.6007934
18	0x37709f92	1.4342268e-05
19	0xbf31c3ed	-0.69439584
20	0xb6b416ca	-5.367071e-06
21	0xb6124c5d	-2.1800145e-06
22	0x3ccf6e0e	0.025321033
23	0xbf2c2ab2	-0.6725265
24	0x371ad36e	9.228343e-06
25	0xbe99f987	-0.30073187
26	0x3c2663ea	0.010155657
27	0xbed942d6	-0.42433804
28	0xbe8f81a2	-0.2802859
29	0x3eee4b33	0.46541747
30	0xbe8f2828	-0.27960324
31	0x3e5fbf31	0.21850277
32	0x3efc8b98	0.49325252
33	0x3f0e4e44	0.55588174
34	0xb7476034	-1.1883723e-05
35	0xbf1393a0	-0.5764713
36	0x36ea4ce2	6.982694e-06
37	0x36971d2d	4.503547e-06
38	0xbeb689fd	-0.35652152
39	0x3e1e93d4	0.1548608
40	0x3717ab7e	9.04023e-06
41	0xbee9bd16	-0.45652074
42	0xbab4369c	-0.0013749185
43	0xbe20ad59	-0.15691127
44	0xbedd4c76	-0.43222398
45	0x3ef7e555	0.48417154
46	0xbed1cda3	-0.409772
47	0xbe65a12a	-0.2242476
48	0x3ee36e0f	0.44419906
49	0x3f0d69ae	0.5523938
50	0xb46c4cb6	-2.200712e-07
51	0x3e348d6a	0.1763207
52	0xb5e9ea0e	-1.7427972e-06
53	0xb71739f0	-9.013791e-06
54	0xbeb467bb	-0.3523539
55	0xbeef3782	-0.46722037
56	0xb69dff9b	-4.708721e-06
57	0xbee476d8	-0.4462192
58	0x3abb3ccf	0.001428509
59	0xbe7320d3	-0.2374299
60	0xbeb6578e	-0.35613674
61	0x3f0220c9	0.50831276
62	0xbed4d446	-0.41568202
63	0xbe3fc734	-0.18728334

bias f4 [4]
0	0x3e8aff80	0.27148056
1	0x3e7ef870	0.24899459
2	0x3e17461d	0.1477284
3	0x3e81135b	0.2521008
