data/65200.pth (torch, 25623 bytes, 6 tensors)

weight f4 [64, 33]
000000 4b 0c 13 3b 83 a3 80 b7 5c 04 14 3b de 2a d2 37
       0.0022437747 -1.533493e-05 0.0022585606 2.5053912e-05
000010 df 30 2e b4 81 fe cc b6 ef 23 18 3b e4 9f e2 b5
       -1.6222792e-07 -6.109302e-06 0.0023214777 -1.6884846e-06
000020 0f d2 4f b5 de 4a 40 38 16 17 22 b7 02 9e 06 ba
       -7.7419185e-07 4.5846093e-05 -9.661328e-06 -0.00051352393
000030 b7 5e 25 3e f9 6d 21 ba 17 f7 5c b5 39 74 bc b4
       0.16149412 -0.000615805 -8.231595e-07 -3.5102292e-07
000040 b9 5b 95 b8 fc 58 21 b9 6e 04 b0 3b 76 0a 04 ba
       -7.121958e-05 -0.00015387306 0.005371622 -0.0005036959
000050 34 76 16 34 6a 72 8d 39 69 09 ac 3b 18 8d 1d 3b
       1.401284e-07 0.0002697886 0.005250145 0.0024040397
000060 6d 38 30 3b 34 d9 53 3e 71 95 e6 3d 4c fc 82 3d
       0.00268891 0.20688325 0.112589724 0.06395778
000070 2d 8d 08 3e b0 6d 05 be dd 49 a6 bd 39 02 8d be
       0.13335104 -0.13030124 -0.08119557 -0.27540758
000080 5f c6 eb 3b ba 5c 4d 3c a8 e8 08 bd 74 59 d0 3c
       0.0071952785 0.012534315 -0.033425003 0.02543328
000090 f8 ff 61 bd d8 1a 2f bd a9 2a a5 bd f5 54 d6 bc
       -0.05517575 -0.04275021 -0.080647774 -0.026163558
0000a0 63 4c d1 bd b5 65 ee bc 8f cd c8 3c fe a9 40 bd
       -0.10219648 -0.029101232 0.02451208 -0.047037117
0000b0 8b 46 d0 bd 72 f2 b5 bd 04 84 4e bd 53 d5 81 bd
       -0.10169705 -0.088841334 -0.05041887 -0.063395165
0000c0 d9 b3 82 bc a6 51 1f bd 86 84 c9 bd 54 f9 98 bd
       -0.015954899 -0.038896225 -0.0983973 -0.074694306
0000d0 64 c3 76 bd 00 fd 14 bd 4f fd 35 bd db f3 39 bc
       -0.060244933 -0.036374092 -0.044431027 -0.011349644
0000e0 64 43 97 bc 77 40 f4 3c 4b 07 d4 3e 2c f1 8e 3e
       -0.018464752 0.029815895 0.41411814 0.27918375
0000f0 98 e4 d2 3e 25 2b 96 3e 80 5e 6f bd 3f e5 e8 3d
       0.41190028 0.29329792 -0.05843973 0.1137185
000100 d5 46 70 3d fe 10 f6 bd 18 2c f3 3b 6e cb c8 b9
       0.0586613 -0.1201496 0.007421028 -0.0003829854
000110 4a f3 f8 3a c1 8a 7c bb 25 06 1f 3b 56 35 8d bb
       0.0018993404 -0.0038534852 0.0024265137 -0.0043093367
000120 23 93 ac 3b 3c bf 72 bb 60 9a 07 3c 16 60 79 3b
       0.0052665635 -0.0037040254 0.008276552 0.0038051656
000130 02 bb 9a 3b ef 7e cc 3b df c9 e7 bb 99 2d 51 3c
       0.004722 0.0062407176 -0.0070736255 0.012767219
000140 ff 1e c5 3b 4c 61 3e 3c 31 04 17 3c 51 0b a1 3b
       0.006015658 0.011619877 0.009217308 0.004914679
000150 68 ba 29 3c 95 1d 20 3a 22 09 f7 3a 90 99 7d 3b
       0.010359384 0.00061079237 0.0018847326 0.0038696267
000160 ca dd 00 3c eb a0 15 3c 36 66 c8 3b 13 ec e9 bd
       0.007865379 0.009132604 0.0061157 -0.11421981
000170 db 4e 67 bd 88 70 ba bd ab 99 fc bd 8d c3 03 3c
       -0.056471687 -0.09103495 -0.12333997 0.008042228
000180 dc a3 23 bb 51 48 28 3c b4 39 05 b7 1f ce d0 b8
       -0.0024969494 0.010271148 -7.940853e-06 -9.956606e-05
000190 86 df cb b8 2a 97 93 b8 3f 53 29 b8 39 6b cb b8
       -9.721429e-05 -7.037663e-05 -4.037027e-05 -9.699766e-05
0001a0 58 93 df b8 18 29 c4 b8 5a 23 29 b6 09 14 f1 b7
       -0.000106609135 -9.3536626e-05 -2.520354e-06 -2.8738768e-05
0001b0 b0 25 e2 b8 82 3a a6 b8 08 a3 9a b5 a2 4f a4 38
       -0.000107835396 -7.926395e-05 -1.1521342e-06 7.834962e-05
0001c0 fc c0 f2 35 87 07 31 b8 3e b7 af b8 b6 49 24 b8
       1.8086571e-06 -4.22071e-05 -8.378782e-05 -3.9169296e-05
0001d0 9b c7 b7 b7 20 24 b5 b7 97 44 cd b7 f1 39 2a b7
       -2.1908249e-05 -2.1593703e-05 -2.4469844e-05 -1.014628e-05
0001e0 4b 3e 3e b8 46 72 49 b6 cf 81 c2 b7 8e 75 6d b8
       -4.5357545e-05 -3.001785e-06 -2.3187049e-05 -5.6614685e-05
0001f0 39 ea 7a b9 f7 b3 16 b9 00 61 27 b9 de 18 4d b9
       -0.00023929113 -0.00014372157 -0.00015962496 -0.00019559587
000200 ad 1b 24 37 22 42 0d b8 fe 28 cf b7 a1 7b 51 39
       9.7816055e-06 -3.367861e-05 -2.4695411e-05 0.00019977849
000210 4c 28 7f 3c 67 59 81 bd 16 3b 63 bc 53 b8 94 bd
       0.015573572 -0.0631588 -0.013869068 -0.072617196
000220 74 2c 97 bd 24 4e 06 be 5a ac 06 be 6d 9f 13 be
       -0.07381526 -0.13115746 -0.13151684 -0.14416285
000230 a4 7d 72 bd 90 8a e4 ba 91 9f ae bd 18 c6 33 be
       -0.05920185 -0.0017436314 -0.085265286 -0.17556036
000240 24 9f c6 bd 00 e3 81 bd 25 53 8f bd ec 9d 04 bd
       -0.096983224 -0.06342125 -0.069982804 -0.03237717
000250 db da ba bc 72 62 90 bd 86 52 dd 3c 5b 90 06 bd
       -0.022809437 -0.07050027 0.02701689 -0.03285251
000260 df 4d 8a bc 92 e2 09 bd 9f b2 cd 3b 19 7f 64 bc
       -0.016882835 -0.03366334 0.006277397 -0.013946318
000270 20 be 64 3c 0e 02 e3 3e ca 15 9d 3e fb 3b ee 3e
       0.013961345 0.44337505 0.30680686 0.46530136
000280 f8 4b ba 3e 14 8f 37 3c 5d a5 04 3e 2c 3a ab 3d
       0.36386085 0.011203546 0.12953706 0.08360705
000290 b4 ec 08 be e2 12 4e 3c 51 63 09 bd 8c 89 cf 3c
       -0.13371545 0.012577744 -0.03354198 0.025334142
0002a0 d0 6e 62 bd ba ab 2f bd 2e 9f a5 bd 21 cf d9 bc
       -0.05528146 -0.04288838 -0.08087002 -0.026588025
0002b0 c4 c4 d1 bd d9 b2 ef bc 7d 21 c8 3c 14 12 41 bd
       -0.10242608 -0.029260086 0.024430031 -0.04713638
0002c0 1c c4 d0 bd f9 14 b6 bd 6a 96 4e bd 1c df 81 bd
       -0.10193655 -0.08890719 -0.050436415 -0.06341383
0002d0 55 46 83 bc eb ff 1e bd 61 3c c9 bd 56 14 98 bd
       -0.016024748 -0.03881828 -0.098259695 -0.07425754
0002e0 ca 56 76 bd 04 99 14 bd 1b c2 35 bd 89 19 38 bc
       -0.060141362 -0.03627874 -0.044374567 -0.011236557
0002f0 5c f9 96 bc 8d f1 f3 3c f3 0f d4 3e 88 fd 8e 3e
       -0.01842945 0.029778266 0.41418418 0.27927804
000300 17 f8 d2 3e 18 42 96 3e 3b 7a 6d bd 9d 18 e9 3d
       0.41204903 0.293473 -0.057977896 0.11381648
000310 13 5a 70 3d 10 3f f6 bd 4a e7 f6 3c 55 77 7c 3d
       0.05867965 -0.12023747 0.030139584 0.06163724
000320 29 87 3e 3c 0a e8 9a 3c 0a 54 cc bc ab 9a 79 3c
       0.011628904 0.018909473 -0.024942417 0.01523463
000330 3e 5b 3c bd ab c6 56 bd 76 67 0e 3d 47 90 3f bd
       -0.045985453 -0.05243556 0.034766637 -0.046768453
000340 65 74 ad 3a 97 1b c7 3d 20 00 ce bd 29 38 89 bf
       0.0013233541 0.09722059 -0.100586176 -1.0720264
000350 ce 3a 70 bf 20 ee 0d bf 5d 6a 65 bd 2b 99 aa 3b
       -0.9383973 -0.55441475 -0.05600964 0.0052062473
000360 b0 d4 c9 3d db 2d 26 3c 2c c2 a8 bd eb bc 06 3d
       0.0985502 0.010142769 -0.0824016 0.03289501
000370 1b 79 0c 3d fd 5c b6 3d ec 09 bd 3c 9b 2f 8c 3c
       0.034295183 0.08904455 0.02307602 0.017112544
000380 00 80 f6 3d 5a 97 dc 3d f3 9f eb 3d f9 48 20 bd
       0.12036133 0.107710555 0.11505117 -0.039132092
000390 21 cf 0e bf 6a 7a 1f 3a 74 60 fd bd ff d8 8b 37
       -0.55784804 0.000608361 -0.123719126 1.6671138e-05
0003a0 ce 60 5d b8 08 1f 2c b7 ec b4 44 37 10 3a e0 b8
       -5.2780662e-05 -1.0259224e-05 1.17246345e-05 -0.00010691967
0003b0 66 6d 9d b7 ee cd b1 37 88 1c 34 b7 68 2a 54 38
       -1.8766801e-05 2.1195938e-05 -1.0735479e-05 5.0584233e-05
0003c0 38 90 2f b9 3e 8e 80 b7 f0 36 ac 36 fe 93 49 36
       -0.00016743026 -1.5325026e-05 5.132395e-06 3.0037477e-06
0003d0 34 b8 e1 b7 9b 0a b3 37 68 28 48 b8 61 9a d2 b8
       -2.6907866e-05 2.1343401e-05 -4.7721347e-05 -0.000100423356
0003e0 3c e9 25 b8 9c a9 93 36 ed fc a2 37 50 1e 61 37
       -3.9556282e-05 4.4006865e-06 1.9429683e-05 1.3418103e-05
0003f0 0b 1f 16 b8 82 3e 0b 37 35 e1 01 b7 fe 2e 79 b8
       -3.5791698e-05 8.299599e-06 -7.741434e-06 -5.940999e-05

bias f4 [64]
000000 82 a6 25 3e 9d 5b 5a 3e 71 cd 86 bd a8 e6 0c b9
       0.16176799 0.2132401 -0.065821536 -0.00013437367
000010 25 b0 80 3e 40 73 5a 3e d8 27 9c 3d ba b1 15 b9
       0.25134388 0.21333027 0.07624787 -0.00014275956
000020 30 bf 84 bd a3 a8 a0 3d 1e aa c9 b8 13 b1 1d 3e
       -0.064817786 0.07844665 -9.616114e-05 0.1539958
000030 2d a8 26 3e d0 fd e1 b9 0a 80 2c 3e aa bd 6d bd
       0.16275091 -0.0004310445 0.16845718 -0.058042206
000040 42 01 2a 3e a0 bc 8a 3d 57 b0 23 3e 95 da 54 3e
       0.16602042 0.067742586 0.15985237 0.20786507
000050 45 ef 81 b8 b7 1a f0 b7 bd 78 65 3d dc 60 24 3e
       -6.195767e-05 -2.862267e-05 0.056023348 0.16052574
000060 f1 d6 e8 3d 7e 3f 85 be b0 33 98 b9 58 a3 78 b8
       0.11369122 -0.26025003 -0.0002903021 -5.9279933e-05
000070 c9 ed e2 b9 4b ff 82 be 7e 8b aa bb 0e f5 2d 3e
       -0.00043283243 -0.25585398 -0.005204617 0.16988012
000080 12 b5 18 3e 9c ac 36 bb 59 4b ef bd b8 ca 46 b9
       0.14912823 -0.002787388 -0.11684293 -0.0001895827
000090 4b bb db 3d c8 a0 eb ba 67 c5 e7 b8 5d 78 c8 b8
       0.10729083 -0.0017976994 -0.000110517074 -9.5591626e-05
0000a0 98 d1 37 bd 25 c7 84 bb 87 ea 24 b5 fb 88 25 3e
       -0.04487762 -0.00405206 -6.1436043e-07 0.16165535
0000b0 41 51 c6 3b 70 f7 1e b5 6a 56 5c 3e fa 2d 66 3e
       0.0060521667 -5.9219656e-07 0.2151734 0.22478476
0000c0 5c b5 7c be 6e 27 a4 bc fb 80 6b ba 45 a2 96 bd
       -0.24678558 -0.020038333 -0.0008983758 -0.07355169
0000d0 17 82 26 3e 1f af 5a 3e 61 7c 7d 3d b5 5a 06 bc
       0.16260563 0.21355866 0.061886195 -0.008200337
0000e0 40 07 7a b5 53 88 b7 bb 87 0d d5 b9 14 4b 29 3e
       -9.314281e-07 -0.005600968 -0.00040636605 0.16532546
0000f0 59 ef 20 be 59 bd f0 bd e7 5d 2c 3e 96 1a 29 3e
       -0.15716304 -0.11754865 0.16832696 0.16514048

weight f4 [16, 64]
000000 91 72 15 be 02 e8 53 3e 2e 81 dd bd 3c 43 9c b6
       -0.14594485 0.20693973 -0.10815655 -4.6569894e-06
000010 d4 5f 85 3e 52 03 54 3e c3 0e 92 be b5 10 b8 b8
       0.26049674 0.20704392 -0.28526887 -8.776916e-05
000020 b1 d9 8f be d5 8f 19 3c ae 02 96 38 93 b8 0d be
       -0.28095773 0.009372671 7.1530565e-05 -0.1383994
000030 83 e9 03 be dd 0d 37 b9 ac 17 2e be 14 e3 1f bf
       -0.12882046 -0.00017457404 -0.17001218 -0.6245587
000040 41 d7 23 be c3 f5 98 3e 95 9c 05 be 05 16 4f 3e
       -0.16000082 0.29875 -0.13048013 0.20223244
000050 88 bf 01 b8 d3 39 e6 b7 c3 90 28 be be a2 3c be
       -3.0934374e-05 -2.7445063e-05 -0.16461472 -0.18421456
000060 d2 38 af bc 15 c5 96 bf f0 09 e3 b8 5c d0 ba b7
       -0.021389399 -1.1778895 -0.000108260545 -2.2269953e-05
000070 6d a6 d5 b9 3b e8 38 bf 14 2f 29 bb 5e e2 25 be
       -0.00040750523 -0.72229356 -0.0025815414 -0.16199633
000080 b3 c6 38 be ca 50 81 bb 0f 01 43 bf af fd ce 38
       -0.18044548 -0.0039463984 -0.7617349 9.870098e-05
000090 93 18 2e 3f 06 35 b1 bb 73 f0 ee b7 30 a9 2a b8
       0.6800625 -0.005407932 -2.8483779e-05 -4.0688727e-05
0000a0 3e 30 18 bf 05 52 8e bb 07 ae 13 35 e3 b0 39 be
       -0.5944861 -0.0043432736 5.501501e-07 -0.18133883
0000b0 74 ea e1 be f1 a1 2d 34 47 2b 55 3e 2c 83 5f 3e
       -0.44124186 1.6170794e-07 0.2081729 0.21827382
0000c0 ed aa 20 bf 71 a7 83 be 08 49 c4 ba 35 23 39 be
       -0.6276081 -0.25713685 -0.0014975378 -0.18079837
0000d0 88 de 0e be 4f 36 54 3e 20 a1 8b 3e 45 2a e5 bf
       -0.13952076 0.20723842 0.27271366 -1.7903525
0000e0 ad dc 3a b5 98 45 a1 bc 60 6a 56 b9 4f ad 3c be
       -6.9611525e-07 -0.019686505 -0.00020448258 -0.18425487
0000f0 06 eb 80 be da 5b c6 be d4 70 20 be 59 e6 0d be
       -0.2517931 -0.38741952 -0.1566804 -0.13857402
000100 89 83 ee bd a2 b6 48 3e 1a a4 9b bd 77 4a a7 b8
       -0.11646182 0.19600919 -0.07599659 -7.977051e-05
000110 33 1a 68 3e 83 c0 48 3e db f0 94 3e 6d 81 21 b9
       0.22666244 0.19604687 0.29090008 -0.00015402371
000120 2f 54 6a bf 44 db 76 3e e2 77 12 b8 45 03 dd bd
       -0.91534704 0.2410708 -3.4920762e-05 -0.10791639
000130 e3 5a c5 bd 87 33 9f b9 c1 ef 10 be a1 b2 9b bf
       -0.09636476 -0.00030365234 -0.14153959 -1.2163888
000140 7c 47 04 be d3 55 54 3e dd 0f ca bd 44 98 46 3e
       -0.12917894 0.20735864 -0.09866307 0.19394022
000150 2c ca c4 b7 61 d8 e1 b7 32 ee d0 bd 8d f1 1a be
       -2.3459164e-05 -2.692285e-05 -0.10201682 -0.15131207
000160 af c7 f1 3e 6e 83 59 bf 32 7f 10 b9 60 24 95 b7
       0.4722266 -0.8496617 -0.00013780294 -1.7779123e-05
000170 6d 5b 03 ba 7f b8 03 bf 44 d7 3c bb fa 17 07 be
       -0.0005010877 -0.51453394 -0.0028814832 -0.1319274
000180 a0 76 12 be e1 d5 9c bb c3 65 a8 bf 8a f9 08 37
       -0.14303064 -0.0047862385 -1.3156055 8.164332e-06
000190 12 85 97 3c fb 3b ae bb af f2 ed b7 55 8c 1c 37
       0.01849607 -0.005317209 -2.836561e-05 9.330998e-06
0001a0 8c e5 8d bf 9c e1 a3 bb 40 6d e4 b4 df d5 1b be
       -1.1085677 -0.00500126 -4.25478e-07 -0.15218304
0001b0 0d 38 96 bf b8 05 00 34 0d f1 49 3e 6c 04 50 3e
       -1.1735855 1.192301e-07 0.1972086 0.20314187
0001c0 21 93 d7 be e3 1d a7 be c0 56 e1 b8 34 53 df be
       -0.42104438 -0.3263999 -0.000107449945 -0.43618166
0001d0 c1 17 ef bd c4 ee 48 3e 98 14 ab 3e 85 cf 06 bf
       -0.116744526 0.19622332 0.3341415 -0.526604
0001e0 43 39 1c 35 ef fa 88 bc 0e 65 4f b9 65 8c 1d be
       5.8197855e-07 -0.016721217 -0.00019778704 -0.15385588
0001f0 1c a4 5e be 48 fa f5 be fe c1 ff bd f2 5c ea bd
       -0.2174229 -0.48042512 -0.12488173 -0.11443509
000200 23 80 8a b6 0c 1a fe b6 44 0d 48 b7 aa 61 97 b5
       -4.1276376e-06 -7.572822e-06 -1.1924018e-05 -1.1278801e-06
000210 42 5a 45 b7 d4 fd f6 b6 b9 78 2e b7 81 2c e1 b6
       -1.176313e-05 -7.360921e-06 -1.0399316e-05 -6.7107035e-06
000220 c0 2a 9f 35 fa 40 bb 33 83 31 bb b5 8e 9e 77 b6
       1.1858865e-06 8.719685e-08 -1.3946996e-06 -3.689816e-06
000230 e2 a8 b9 b6 f6 75 57 b5 e4 49 36 b5 7f 8b 93 b6
       -5.53309e-06 -8.02654e-07 -6.790781e-07 -4.397181e-06
000240 ee ee 1e b6 3a cc 72 b6 7a 82 90 b6 5d 35 e2 b6
       -2.368291e-06 -3.6179686e-06 -4.306724e-06 -6.741537e-06
000250 ac a8 2b 36 ff 5d 1c b5 47 8b 48 36 f4 93 9d b6
       2.5579166e-06 -5.825131e-07 2.9883392e-06 -4.6961886e-06
000260 79 30 fa b4 6a 3c 3e 36 68 ac fd b4 17 82 4e 34
       -4.6601397e-07 2.8347372e-06 -4.7250364e-07 1.9232571e-07
000270 29 7e 5f 36 d4 f7 e3 b6 a6 2b 29 b6 67 f3 b3 b6
       3.3303024e-06 -6.793978e-06 -2.520837e-06 -5.3629515e-06
000280 b2 4b ad 35 e8 66 fd b5 2c 5e 72 b6 09 85 fa b5
       1.2911535e-06 -1.8879919e-06 -3.6115625e-06 -1.866517e-06
000290 de 4d ce b6 5d d9 85 b5 54 02 68 b5 47 21 64 35
       -6.1483433e-06 -9.972533e-07 -8.643012e-07 8.4985044e-07
0002a0 be 49 14 33 b9 80 95 b5 36 2a 02 35 f5 1a b6 35
       3.4526003e-08 -1.1138828e-06 4.84902e-07 1.3567902e-06
0002b0 7f ce 3c 36 bb 3e 2d b4 0b a8 06 b7 de 5f 09 b7
       2.813438e-06 -1.6134702e-07 -8.026148e-06 -8.188157e-06
0002c0 41 8d fb b5 26 c4 8f 36 84 20 0a 35 e0 d2 53 b6
       -1.8742068e-06 4.284567e-06 5.145632e-07 -3.1564196e-06
0002d0 0a be 26 b6 ec fd fd b6 42 2e ac b6 0d af a4 36
       -2.4846545e-06 -7.569548e-06 -5.1313846e-06 4.9079595e-06
0002e0 5c 84 fc b4 a8 ee 88 b6 f2 31 3b 35 ce 38 aa 35
       -4.7034962e-07 -4.080899e-06 6.973561e-07 1.2682519e-06
0002f0 f6 43 b6 b5 9e 34 8d b5 fa 9a 29 35 8b 8e af b6
       -1.3579836e-06 -1.0520632e-06 6.3182927e-07 -5.2320006e-06
000300 7d a7 89 3e e7 e9 ff 3a 3c 7e f9 3c a3 e8 00 39
       0.26885596 0.0019524664 0.030455701 0.00012293695
000310 be db b4 bc 00 bf fd 3a 54 ca 9c 3e 43 1e f6 38
       -0.022077437 0.0019359291 0.30623114 0.00011735831
000320 b5 d5 fe 3d 0e 5d 5f 3e 97 66 18 37 2f d7 86 3e
       0.12443105 0.21812841 9.083792e-06 0.26336047
000330 d1 ef 85 3e 4d fd 67 39 43 eb 8f 3e b6 1f ad 3d
       0.26159528 0.00022124239 0.28109178 0.08453314
000340 27 30 91 3e 7d 67 b6 bd 92 cc 80 3e 00 72 87 bb
       0.2835705 -0.089064576 0.25156075 -0.004133463
000350 ab 53 74 38 4a b3 e6 37 29 f3 05 3d 05 66 9b 3e
       5.8252055e-05 2.7501625e-05 0.0327026 0.30351272
000360 15 bd f4 3e 39 9f 0c 3f ce 84 83 39 94 d0 79 38
       0.47800508 0.54930454 0.00025085214 5.956048e-05
000370 62 9c 09 3a e1 4f d5 3e 7f 73 98 39 e5 54 8c 3e
       0.0005249438 0.41662505 0.0002907775 0.2740852
000380 74 aa 8f 3e a6 f6 2c 3a 4a 4e 7b 3d 5c bd c7 38
       0.28059733 0.0006598033 0.06135396 9.5243304e-05
000390 d9 db eb be 22 1a 90 3b ab 23 d1 38 5b f9 ec 38
       -0.46066168 0.0043976465 9.97254e-05 0.00011299803
0003a0 24 96 47 3e e4 e8 99 ba 40 80 97 35 4f 78 96 3e
       0.19490868 -0.001174238 1.1287702e-06 0.29388663
0003b0 4e 7f 40 3e c1 40 9a 33 9e 92 3a b9 83 36 b3 3a
       0.18798563 7.1829625e-08 -0.00017792961 0.0013672862
0003c0 54 19 72 3e d2 d8 8d 3d 1e a2 b2 39 9a 13 a6 3d
       0.23642474 0.06926121 0.00034071592 0.081092075
0003d0 58 49 81 3e 35 89 04 3b 8a 4d 12 be c9 10 c0 3f
       0.2525127 0.0020223383 -0.14287391 1.5005122
0003e0 e2 21 15 b5 9f 1c 4f 3c ad df b2 39 46 86 97 3e
       -5.555613e-07 0.012641101 0.00034117457 0.2959463
0003f0 c3 02 3d 3e 09 1f 90 3d 24 e7 88 3e bb 88 89 3e
       0.18458085 0.070371695 0.26738846 0.2686213

bias f4 [16]
000000 bf 89 b1 3e c1 d9 b3 3e 46 ac 0c b7 44 ec 82 bd
       0.34675404 0.3512707 -8.384761e-06 -0.0639272
000010 b8 26 ab b8 24 d1 8f b5 76 f2 bc 3c f2 43 64 bd
       -8.161127e-05 -1.0715198e-06 0.023064833 -0.05572886
000020 78 4e 8c 3e 38 b1 81 bb fa 35 00 bb 65 a1 17 3c
       0.27403617 -0.0039578937 -0.0019563423 0.009254788
000030 ac 4e b2 3c 8a 12 ae 3e c8 e4 1d bd a8 4a 2f 3d
       0.02176603 0.3399852 -0.03854826 0.042795807

weight f4 [4, 16]
000000 05 e8 01 3f cf 39 01 3f 14 11 33 b5 06 63 40 bf
       0.5074466 0.50478834 -6.670755e-07 -0.751511
000010 46 af dd b9 ca 95 32 b4 95 0c 69 be 6e 04 46 bf
       -0.00042282994 -1.6632035e-07 -0.22758706 -0.7735051
000020 ae 77 1a 3e 34 83 89 be e3 4b 4a ba 6d eb 8a 3e
       0.15084717 -0.26857913 -0.00077169965 0.2713274
000030 cc 7f 5c bb 29 46 0c 3f 3e 47 96 be 87 41 e5 be
       -0.0033645509 0.54794556 -0.29351228 -0.44776556
000040 68 da 05 3f 21 a9 12 3f 5c 9c 05 36 1b 0a 3a bf
       0.52286386 0.5728932 1.9909558e-06 -0.7267167
000050 ed ff 47 b5 8d 7b a2 b4 9c 3e 89 bb 1c 29 2a bf
       -7.45057e-07 -3.0264746e-07 -0.004188372 -0.6646898
000060 b5 61 22 3e 7c a5 a1 be 27 ce b8 3a 1a 69 dd be
       0.15857585 -0.31571567 0.0014099524 -0.4324425
000070 6f dc 5c be 57 68 ea 3e 75 d5 94 be 99 c3 84 3e
       -0.21568464 0.4578273 -0.29069105 0.2593048
000080 43 e4 f2 3e 6e 63 14 3f f2 69 dd b5 91 00 15 bf
       0.47439775 0.5796422 -1.6496617e-06 -0.5820399
000090 23 16 82 35 5d d6 27 35 cc 83 c8 be ba ab 19 3e
       9.692197e-07 6.252429e-07 -0.39163053 0.15006915
0000a0 3f 21 2b 3e 53 98 05 bf 61 23 48 b9 4f c8 b7 bd
       0.16711901 -0.52185553 -0.00019086666 -0.08973753
0000b0 70 bd ea be d8 7d e4 3e 9e da d2 be e9 ef 20 be
       -0.45847654 0.4462726 -0.41182417 -0.15716518
0000c0 a6 e1 ee 3e b5 0e 02 3f 94 32 03 b3 45 14 e4 3d
       0.4665653 0.5080369 -3.0546815e-08 0.111366786
0000d0 6d e0 81 b4 fe f5 a7 b5 06 d0 df be c1 83 04 bf
       -2.4191414e-07 -1.2514063e-06 -0.43713397 -0.5176354
0000e0 3c d2 3c 3e 57 c6 e1 be 08 f1 4f 39 b2 08 10 be
       0.18439573 -0.44096634 0.0001983085 -0.14065817
0000f0 88 7d d1 be ed 88 f8 3e 07 e7 e0 be 09 8a 17 be
       -0.40916085 0.48541966 -0.4392626 -0.1479875

bias f4 [4]
000000 85 96 78 3e 06 e5 84 3e 49 76 10 3e 4c 64 22 3e
       0.24276169 0.2595598 0.14107622 0.15858573
