data/69600.pth (torch, 26199 bytes, 6 tensors)

weight f4 [64, 33]
0	0x3a318983	0.0006772505
1	0xb69b4d1d	-4.628337e-06
2	0x3a32b4e8	0.0006817118
3	0x36fdbca6	7.561949e-06
4	0xb3524f00	-4.8966285e-08
5	0xb5f77ea4	-1.8439791e-06
6	0x3a37b145	0.0007007311
7	0xb508cd29	-5.0962495e-07
8	0xb47aed18	-2.3369319e-07
9	0x37682c96	1.3838659e-05
10	0xb643b4ed	-2.9162577e-06
11	0xb9228816	-0.0001550022
12	0x3e327c23	0.17430167
13	0xb942ec18	-0.00018589234
14	0xb485643d	-2.4846113e-07
15	0xb3e385b9	-1.0594835e-07
16	0xb7b4534d	-2.1496462e-05
17	0xb842d32d	-4.6449877e-05
18	0x3ad48302	0.001621336
19	0xb91f6bb0	-0.00015203538
20	0x3335a838	4.229534e-08
21	0x38aac7a2	8.143416e-05
22	0x3acfb602	0.0015847089
23	0x3a3e38cd	0.0007256389
24	0x3a54c341	0.00081162533
25	0x3e12fce0	0.14354277
26	0x3e0254cf	0.12727664
27	0x3e195242	0.14972785
28	0x3dfc68e8	0.12324697
29	0xbda14403	-0.078743
30	0x3cb06288	0.021531358
31	0xbe47762e	-0.19478676
32	0x3b0e5372	0.0021717218
33	0xbb801c49	-0.003909622
34	0xbd2f8c1a	-0.04285822
35	0x3c58cb7a	0.013232106
36	0xbcc0a6c6	-0.023517024
37	0xbd0fa51e	-0.035069577
38	0xbdca9bf9	-0.09893031
39	0xbd02af16	-0.031905256
40	0xbdb96262	-0.09051968
41	0xbcb4f399	-0.022088813
42	0xbc3491af	-0.011021062
43	0xbd7448c8	-0.059639722
44	0xbdedb5bd	-0.116069295
45	0xbdc53f1e	-0.09631179
46	0xbccd1ed8	-0.025039122
47	0xbcdd1756	-0.026988667
48	0x3c112ff6	0.008861532
49	0xbcbd8496	-0.023134511
50	0xbdafcb39	-0.085836835
51	0xbd1fa54b	-0.038975995
52	0xbd35a377	-0.044345345
53	0xbc441b2e	-0.011969371
54	0xbcd05c81	-0.025434734
55	0x3c0e513d	0.008686361
56	0xbcaee2b8	-0.021348342
57	0x3cdf9f16	0.027297538
58	0x3ec5cf81	0.38634875
59	0x3e83437c	0.25637424
60	0x3ed41956	0.4142558
61	0x3eab7eec	0.3349527
62	0xbdaaa665	-0.083325185
63	0x3df7e114	0.12103477
64	0x3d424ecd	0.04743843
65	0xbe024ad5	-0.12723859
66	0x3b12caf7	0.0022398809
67	0xb8f26d60	-0.00011559832
68	0x3a1646c0	0.00057325885
69	0xba9872f2	-0.0011630936
70	0x3a3ffad6	0.0007323449
71	0xbaaa7fa8	-0.0013008015
72	0x3ad05c17	0.0015896586
73	0xba9287cc	-0.0011179387
74	0x3b23beb0	0.0024985485
75	0x3a968720	0.0011484362
76	0x3abaccf6	0.0014251757
77	0x3af6e593	0.0018836729
78	0xbb0bea96	-0.002134954
79	0x3b7c8c72	0.003853586
80	0x3aee007c	0.0018158103
81	0x3b65db93	0.0035073503
82	0x3b3657bc	0.002782329
83	0x3ac274a4	0.0014835787
84	0x3b4cec27	0.0031268687
85	0x39415137	0.00018436169
86	0x3a152097	0.0005688755
87	0x3a99183e	0.0011680198
88	0x3b1b930d	0.0023738772
89	0x3b34a6d0	0.0027565248
90	0x3af1f36b	0.0018459385
91	0xbd0d32bc	-0.034472212
92	0xbc8ba0c8	-0.01704444
93	0xbce11cc4	-0.027479537
94	0xbd187c11	-0.037227694
95	0x3b1f1722	0.0024275263
96	0xba458ef8	-0.00075362576
97	0x3b4b2b8f	0.0031001305
98	0xb620d53c	-2.3965977e-06
99	0xb7fc1a52	-3.0052997e-05
100	0xb7f6264a	-2.9343315e-05
101	0xb7b2311c	-2.1242122e-05
102	0xb74c6f1e	-1.2185219e-05
103	0xb7f59ab4	-2.9278315e-05
104	0xb806f54a	-3.2176533e-05
105	0xb7ecd6d0	-2.8233422e-05
106	0xb54c350e	-7.6073127e-07
107	0xb71183e8	-8.673385e-06
108	0xb808822c	-3.254616e-05
109	0xb7c8b696	-2.3926881e-05
110	0xb4bab031	-3.4773396e-07
111	0x37c66055	2.3648297e-05
112	0x351288e0	5.458842e-07
113	0xb755bf90	-1.2740391e-05
114	0xb7d425bc	-2.528994e-05
115	0xb746591b	-1.1822466e-05
116	0xb6dde17f	-6.6125644e-06
117	0xb6dab547	-6.5180097e-06
118	0xb6f7d2c3	-7.3857095e-06
119	0xb64d86c1	-3.0625818e-06
120	0xb765b101	-1.3690676e-05
121	0xb5733684	-9.0603885e-07
122	0xb6ead66c	-6.9987054e-06
123	0xb78f59e6	-1.708879e-05
124	0xb89773eb	-7.2218325e-05
125	0xb835f425	-4.338114e-05
126	0xb84a143e	-4.8179405e-05
127	0xb8779e4b	-5.903681e-05
128	0x36462102	2.9523512e-06
129	0xb72a8ebd	-1.01660235e-05
130	0xb6fa2181	-7.454481e-06
131	0x387ce9b2	6.0299128e-05
132	0xbb128c68	-0.002236152
133	0xbd657bda	-0.056026317
134	0xbb10712d	-0.0022040114
135	0xbd153e67	-0.036436465
136	0xbd3c0918	-0.04590711
137	0xbdf8d765	-0.12150458
138	0xbdaaaf3b	-0.08334204
139	0xbde3f608	-0.11130911
140	0xbd1acb3a	-0.03779147
141	0xbc65d7f7	-0.014028541
142	0xbd8b7647	-0.06809669
143	0xbe0ec301	-0.13941576
144	0xbdb25707	-0.087080054
145	0xbcec7f14	-0.02886919
146	0xbcda5cff	-0.026655672
147	0x3c1d65b8	0.009606771
148	0xbc007bf3	-0.007842052
149	0xbd7ebf8b	-0.06219439
150	0x3ca5abf3	0.020223593
151	0xbc988d75	-0.01862214
152	0x3ac151c9	0.0014749105
153	0xbc4d7f49	-0.012542554
154	0x3c9f4fa9	0.019447165
155	0xbc5c5798	-0.013448618
156	0x3c86e19d	0.016465003
157	0x3ec9b4f9	0.39395884
158	0x3e8c6d0f	0.27426955
159	0x3ee9f67d	0.45695868
160	0x3ebde5cd	0.37089387
161	0xbd29142f	-0.041279014
162	0x3e0af9e1	0.13571884
163	0x3d97d7a4	0.07414177
164	0xbdf775cd	-0.120830156
165	0xbb7e05ab	-0.0038760703
166	0xbd2fce9b	-0.042921644
167	0x3c582152	0.013191538
168	0xbcc14671	-0.02359316
169	0xbd0fd80d	-0.03511815
170	0xbdcad846	-0.09904532
171	0xbd03a17b	-0.03213642
172	0xbdb9a4f9	-0.09064669
173	0xbcb5bdb3	-0.022185182
174	0xbc34a7b9	-0.011026316
175	0xbd745dec	-0.059659883
176	0xbdede886	-0.11616616
177	0xbdc5375a	-0.09629698
178	0xbccd7049	-0.025077956
179	0xbcdd13a7	-0.02698691
180	0x3c110be5	0.0088529335
181	0xbcbd0ec3	-0.023078328
182	0xbdaf93e2	-0.08573128
183	0xbd1e8c9a	-0.038708307
184	0xbd35404b	-0.044250768
185	0xbc43298d	-0.011911762
186	0xbccfe781	-0.025378944
187	0x3c0f54b4	0.008748222
188	0xbcaeab3e	-0.021321889
189	0x3cdf5717	0.027263207
190	0x3ec5cfb5	0.3863503
191	0x3e834d98	0.25645137
192	0x3ed43111	0.41443685
193	0x3eab8f56	0.33507794
194	0xbdaa2530	-0.08307874
195	0x3df7f72f	0.121076934
196	0x3d429e6b	0.04751436
197	0xbe024aee	-0.12723896
198	0x3dac3517	0.084085636
199	0x3d162e4c	0.036665246
200	0x3d272c89	0.040813956
201	0x3d19526b	0.037432116
202	0xbcc8c276	-0.024506789
203	0x3a483f29	0.0007638806
204	0xbd91cdab	-0.07119306
205	0xbb824cb6	-0.00397643
206	0x3d3a5236	0.04548856
207	0xbc121898	-0.008916996
208	0x3cfb3fc5	0.030670056
209	0x3da68940	0.08131647
210	0xbe0d6ef8	-0.13811862
211	0xbf9a7594	-1.2067132
212	0xbf5f7b1b	-0.8729722
213	0xbf025097	-0.5090422
214	0xbcacf9c1	-0.021115186
215	0xbd1e997b	-0.03872059
216	0x3c3c81e8	0.011505581
217	0xbd39d4ff	-0.045369145
218	0xbd9b5823	-0.0758517
219	0x3c111908	0.008856066
220	0x3d8f9a52	0.07011856
221	0x3d8e20e9	0.06939871
222	0x3d5ffdcf	0.05468541
223	0x3ddc1c20	0.10747552
224	0x3e2c1d3d	0.16808029
225	0x3e33bbd1	0.17552115
226	0x3e4a47f4	0.1975401
227	0xbca653b2	-0.02030358
228	0xbed55cbc	-0.41672313
229	0xba988784	-0.0011637066
230	0xbe2d352a	-0.16914812
231	0x36a8da76	5.0322224e-06
232	0xb785a42a	-1.593128e-05
233	0xb64fd015	-3.0966523e-06
234	0x366d8014	3.5390303e-06
235	0xb80757ce	-3.2268283e-05
236	0xb6be12f8	-5.6646495e-06
237	0x36d6ada4	6.3979114e-06
238	0xb659725e	-3.240209e-06
239	0x3780163d	1.5269145e-05
240	0xb853f6ad	-5.0536055e-05
241	0xb69b3398	-4.6253663e-06
242	0x35cfece9	1.5491652e-06
243	0x3573600a	9.066431e-07
244	0xb7083efd	-8.120897e-06
245	0x36d829a5	6.4421497e-06
246	0xb771a8ee	-1.4404051e-05
247	0xb7fe44a0	-3.0311116e-05
248	0xb7485385	-1.1940375e-05
249	0x35b2475f	1.3282805e-06
250	0x36c4c5de	5.86429e-06
251	0x3687e08d	4.0494547e-06
252	0xb7353f07	-1.0803115e-05
253	0x36281da6	2.5051208e-06
254	0xb61ccfbc	-2.3366729e-06
255	0xb7966a15	-1.7930792e-05

bias f4 [64]
0	0x3e32943b	0.17439358
1	0x3e3d1d4b	0.18468206
2	0xbca2c278	-0.01986812
3	0xb82a22ea	-4.0563675e-05
4	0x3e58f359	0.2118658
5	0x3e3d3740	0.18478107
6	0x3db1c613	0.08680358
7	0xb834bb18	-4.308959e-05
8	0xbd972334	-0.07379761
9	0x3d7764d9	0.06039891
10	0xb7f37b43	-2.9025256e-05
11	0x3e3cbe8b	0.18432061
12	0x3e52ac56	0.20573553
13	0xb90869b4	-0.00013009348
14	0x3e5abf99	0.21362151
15	0xbd42bcd6	-0.04754337
16	0x3e5d4e01	0.21611787
17	0x3d80a129	0.06280739
18	0x3e42a164	0.19006878
19	0x3e367a39	0.17820062
20	0xb79ce12c	-1.8701503e-05
21	0xb710ef60	-8.638803e-06
22	0x3e16c6d0	0.14724278
23	0x3e490d09	0.19633879
24	0x3dc6afc3	0.09701493
25	0xbe248766	-0.16067275
26	0xb8b7c42c	-8.76266e-05
27	0xb796176e	-1.7892304e-05
28	0xb908fcf6	-0.00013064206
29	0xbe866c66	-0.26254576
30	0xbacde997	-0.0015709874
31	0x3e349a05	0.17636879
32	0x3e5e53ee	0.21711704
33	0xba5c8f7b	-0.0008413714
34	0xbdeed8fd	-0.11662481
35	0xb8700384	-5.7223733e-05
36	0x3dc2fd1c	0.09520933
37	0xba0e3c90	-0.00054258946
38	0xb80be7e8	-3.3356162e-05
39	0xb7f20949	-2.8852972e-05
40	0xbd61ef30	-0.055159748
41	0xbaa04ca6	-0.0012229874
42	0xb4471d1d	-1.854391e-07
43	0x3e5b4d01	0.21416093
44	0xbbd8c384	-0.006615104
45	0xb43fe946	-1.7873126e-07
46	0x3e3d7f1a	0.18505517
47	0x3e464688	0.19362843
48	0xbe67cb74	-0.22636205
49	0x3c38341b	0.011242892
50	0xb98e2935	-0.00027115052
51	0xbdf4dc42	-0.11956073
52	0x3e3e7d7c	0.18602556
53	0x3e3d67f1	0.18496682
54	0x3d85024a	0.06494577
55	0xbd1b9c24	-0.037990704
56	0xb496ea11	-2.8109983e-07
57	0xbadd95e9	-0.0016905639
58	0xb9009e96	-0.00012266109
59	0x3e949029	0.29016235
60	0xbd42525d	-0.04744183
61	0xbdfc48c3	-0.12318566
62	0x3e448436	0.1919106
63	0x3e46ed93	0.19426565

weight f4 [16, 64]
0	0xbdb72c24	-0.08943966
1	0x3e2c9cf1	0.16856743
2	0xbd05b7bf	-0.032645937
3	0xb5bcaf19	-1.4058052e-06
4	0x3e4d3fa3	0.20043807
5	0x3e2cb5cc	0.16866225
6	0xbe8a0488	-0.26956582
7	0xb7de38d0	-2.6490918e-05
8	0xbec29194	-0.38001692
9	0xbd66a8b8	-0.056313246
10	0x37b51ccd	2.1590293e-05
11	0xbdfce849	-0.123489924
12	0xbdee8c6b	-0.11647876
13	0xb85d03a7	-5.2693907e-05
14	0xbe0b8861	-0.13626243
15	0xbf107dad	-0.56441766
16	0xbe0b71c6	-0.1361762
17	0x3e945ce9	0.28977135
18	0xbdf44b4c	-0.11928424
19	0x3e27bab4	0.16379815
20	0xb71ca5fb	-9.33697e-06
21	0xb70afa90	-8.28378e-06
22	0x3dad5974	0.084643275
23	0xbe0559ba	-0.13022509
24	0xbe1bfc96	-0.15233073
25	0xbf22832b	-0.63481396
26	0xb8090e3c	-3.2676602e-05
27	0xb6e191e0	-6.7225046e-06
28	0xb900f99a	-0.00012300015
29	0xbf34834e	-0.70512855
30	0xba4c4344	-0.0007792006
31	0xbdd3e359	-0.103460975
32	0xbe11ceeb	-0.14239089
33	0xba9c1d0e	-0.0011910514
34	0xbf3e516f	-0.7434301
35	0x37f9ec74	2.979322e-05
36	0x3f07a876	0.52991426
37	0xbad5f629	-0.0016323972
38	0xb7103dae	-8.59743e-06
39	0xb74e0d99	-1.2281723e-05
40	0xbf1c3dbb	-0.61031693
41	0xbaabd16c	-0.0013108677
42	0x34324cb4	1.6605446e-07
43	0xbe06e4ce	-0.1317322
44	0xbf016bce	-0.5055512
45	0x3351a2a6	4.8809532e-08
46	0x3e2d220e	0.16907522
47	0x3e34cf6a	0.17657247
48	0xbf06587c	-0.52478766
49	0xbeadfeac	-0.33983362
50	0xb9ecfd7d	-0.0004520229
51	0xbe7ebd56	-0.24876913
52	0xbdd9bcdc	-0.10631725
53	0x3e2cd59f	0.16878365
54	0x3eab6dc9	0.33482197
55	0xbfe2da3f	-1.7722853
56	0xb461a0f0	-2.1013307e-07
57	0xbbc2bc16	-0.0059428317
58	0xb8816e3f	-6.171734e-05
59	0xbe9d8094	-0.3076216
60	0xbd9ba2ef	-0.075994365
61	0xbef20bfa	-0.47274762
62	0xbded860f	-0.11597835
63	0xbdff44ba	-0.124642804
64	0xbd8c7cbf	-0.06859731
65	0x3e16c3ac	0.1472308
66	0xbcbbebdf	-0.02293962
67	0xb7c9f99b	-2.4077299e-05
68	0x3e2f0442	0.17091468
69	0x3e16d573	0.14729862
70	0x3dce713c	0.100801915
71	0xb8430336	-4.6494613e-05
72	0xbf4bf037	-0.79663414
73	0x3e62a19b	0.2213196
74	0xb730d664	-1.0540334e-05
75	0xbdc8456c	-0.09778866
76	0xbdcb0e08	-0.099147856
77	0xb8c03253	-9.164647e-05
78	0xbdf6d6a1	-0.12052656
79	0xbf8ee9fb	-1.1165155
80	0xbdf61d28	-0.1201728
81	0x3e41083b	0.18850796
82	0xbdc12974	-0.09431735
83	0x3e116883	0.14200024
84	0xb6ed99d1	-7.081057e-06
85	0xb70852bc	-8.125495e-06
86	0x3e2f1c5c	0.17100662
87	0xbde46630	-0.11152303
88	0x3e50fc91	0.20408846
89	0xbef8b292	-0.48573738
90	0xb82e75fe	-4.159472e-05
91	0xb6b41080	-5.366339e-06
92	0xb91e9afd	-0.00015125792
93	0xbf18a9ae	-0.5963391
94	0xba63fc57	-0.00086969644
95	0xbda692d3	-0.08133473
96	0xbdf6d6bf	-0.12052678
97	0xbabd5e20	-0.0014447607
98	0xbfa85be0	-1.3153038
99	0x36255fc7	2.4642666e-06
100	0xbd604c6b	-0.054760378
101	0xbad25c68	-0.0016049268
102	0xb70fa612	-8.5621305e-06
103	0x363d0658	2.8166887e-06
104	0xbf903067	-1.1264771
105	0xbac5da3a	-0.0015094944
106	0xb409e636	-1.284287e-07
107	0xbde6cce5	-0.11269549
108	0xbf84ae2e	-1.0365655
109	0x331a8fc4	3.5986673e-08
110	0x3e171eaf	0.14757799
111	0x3e1e78e6	0.15475807
112	0xbec64ada	-0.38728982
113	0xbedcdf3b	-0.4313906
114	0xb8080330	-3.2427895e-05
115	0xbead636b	-0.33864912
116	0xbdb40e90	-0.0879184
117	0x3e1705c0	0.14748287
118	0x3eadf094	0.3397261
119	0xbf33426b	-0.7002322
120	0x343ca332	1.7568235e-07
121	0xbba5616d	-0.0050470144
122	0xb87a6ad0	-5.970412e-05
123	0xbe81f6d0	-0.25383615
124	0xbd8667a7	-0.06562739
125	0xbf2dc43f	-0.6787757
126	0xbdc68e20	-0.09695077
127	0xbddd4495	-0.108040966
128	0xb5a734f9	-1.2457887e-06
129	0xb6196556	-2.2857762e-06
130	0xb6718838	-3.5991088e-06
131	0xb4b6c826	-3.404577e-07
132	0xb66e4778	-3.5506364e-06
133	0xb61519c6	-2.2217732e-06
134	0xb652a5a5	-3.1388856e-06
135	0xb607e944	-2.0252346e-06
136	0x34c02790	3.5791572e-07
137	0x32e21859	2.6320935e-08
138	0xb4e205f5	-4.2100115e-07
139	0xb5957ae0	-1.1137126e-06
140	0xb5e028bd	-1.6701157e-06
141	0xb4820d86	-2.4224227e-07
142	0xb45c1991	-2.0498398e-07
143	0xb5b22307	-1.3272228e-06
144	0xb53fdf1f	-7.147773e-07
145	0xb5928fcf	-1.0919701e-06
146	0xb5ae79fa	-1.299951e-06
147	0xb6088bcb	-2.034695e-06
148	0x354f41fe	7.720954e-07
149	0xb43ccf0a	-1.7584185e-07
150	0x35722015	9.019871e-07
151	0xb5be40fd	-1.4175017e-06
152	0xb4170278	-1.4063869e-07
153	0x3565aeb8	8.5563397e-07
154	0xb419238c	-1.4262167e-07
155	0x3379550d	5.8052184e-08
156	0x3586e8c6	1.0051524e-06
157	0xb6099fc2	-2.0507582e-06
158	0xb54c3f20	-7.608778e-07
159	0xb5d94102	-1.618668e-06
160	0x34d13aa2	3.8971945e-07
161	0xb518f9bc	-5.6987824e-07
162	0xb5924be9	-1.089994e-06
163	0xb51735fa	-5.633043e-07
164	0xb5f91516	-1.8558083e-06
165	0xb4a1960d	-3.0097763e-07
166	0xb48c0c77	-2.6086101e-07
167	0x3489b8a1	2.5652574e-07
168	0x323308a2	1.0421134e-08
169	0xb4b47ff3	-3.3620708e-07
170	0x341d2a42	1.4637138e-07
171	0x34dbe180	4.0956002e-07
172	0x3563f1ad	8.4915774e-07
173	0xb3512b03	-4.8700723e-08
174	0xb622946d	-2.4226276e-06
175	0xb625d90d	-2.4713256e-06
176	0xb517d7bd	-5.6565824e-07
177	0x35ad92dc	1.2932246e-06
178	0x3426c01a	1.5529841e-07
179	0xb57fc1b8	-9.52768e-07
180	0xb54953a7	-7.5000065e-07
181	0xb6195476	-2.284794e-06
182	0xb5cfe26e	-1.5488602e-06
183	0x35c6d49f	1.481403e-06
184	0xb4186f07	-1.4196495e-07
185	0xb5a552e2	-1.231758e-06
186	0x34620679	2.1050245e-07
187	0x34cd8560	3.828127e-07
188	0xb4dc127c	-4.0991642e-07
189	0xb4aa7ecd	-3.1757227e-07
190	0x344cc60e	1.9071032e-07
191	0xb5d3f4ab	-1.5791933e-06
192	0x3e431093	0.19049291
193	0xbb10af41	-0.0022077116
194	0x3c1698fb	0.009191747
195	0x381ba00f	3.7103946e-05
196	0xbc90b784	-0.017665632
197	0xbb135340	-0.002248004
198	0x3e8897a3	0.2667819
199	0x381492b2	3.542257e-05
200	0x3e1f0830	0.15530467
201	0x3e573339	0.21015634
202	0x36380143	2.741887e-06
203	0x3e5a2f1d	0.21307035
204	0x3e310d44	0.17290217
205	0x388c0972	6.6774795e-05
206	0x3e520efa	0.20513526
207	0x3e1b4076	0.15161309
208	0x3e4c580b	0.1995546
209	0xbde1afc6	-0.11019854
210	0x3e55bd2e	0.20872948
211	0xbb27e09a	-0.002561605
212	0x37937da2	1.7582268e-05
213	0x370b4371	8.300748e-06
214	0xbd645eb5	-0.055754382
215	0x3e3f3880	0.18673897
216	0x3eefa7d7	0.4680774
217	0x3eac79c7	0.3368666
218	0x389ecc54	7.572086e-05
219	0x3796c9b7	1.7975324e-05
220	0x392620c7	0.00015843204
221	0x3f0ff405	0.5623172
222	0x38b810c0	8.776924e-05
223	0x3e41a84e	0.1891186
224	0x3e4b9225	0.19879968
225	0x3950d412	0.00019915428
226	0x3df189de	0.11793874
227	0x37f127e6	2.8748018e-05
228	0xbef5e6d5	-0.48027673
229	0x3aadfb46	0.0013273738
230	0x37fc8094	3.0100615e-05
231	0x380f0e4c	3.410717e-05
232	0x3e6a9e2b	0.22911899
233	0xb9b9d0d2	-0.00035441533
234	0x34b6ecda	3.4072474e-07
235	0x3e53990b	0.2066385
236	0x3e588fff	0.2114868
237	0x32ba3a41	2.167974e-08
238	0xbb346555	-0.002752622
239	0xbb92a87f	-0.0044756527
240	0x3e99a76e	0.3001055
241	0x3db7c841	0.08973742
242	0x38d7ac44	0.00010284086
243	0x3e451138	0.1924485
244	0x3e4b8309	0.19874205
245	0xbb12575d	-0.0022329905
246	0xbdee053e	-0.116220936
247	0x3fdcdd8c	1.7255111
248	0xb4340d7e	-1.6768715e-07
249	0x3b7a125a	0.003815791
250	0x38d7f621	0.00010297844
251	0x3e8e35ce	0.27775425
252	0x3d64313f	0.055711027
253	0x3d854c15	0.06508652
254	0x3e503691	0.20333315
255	0x3e52be28	0.20580351

bias f4 [16]
0	0x3ea4ff0d	0.32225838
1	0x3e9e6a91	0.3094068
2	0xb629dcb2	-2.5311424e-06
3	0xbd81db64	-0.063406736
4	0xb7cea5be	-2.4634293e-05
5	0xb4ada2a1	-3.234209e-07
6	0x3d6afc40	0.05736947
7	0xbd5c3775	-0.053763825
8	0x3ee6f48e	0.45108455
9	0x3d1f4df5	0.038892705
10	0xba1ac9ae	-0.00059046864
11	0x3d00063a	0.031255938
12	0x3d3cbebc	0.046080336
13	0x3ea08913	0.3135458
14	0x3ba0ffa7	0.0049132886
15	0x3d0bac15	0.034099657

weight f4 [4, 16]
0	0x3f070335	0.5273927
1	0x3f03610a	0.51319945
2	0xb458316d	-2.0134549e-07
3	0xbf31872b	-0.69346875
4	0xb905d39c	-0.00012762699
5	0xb3579d7a	-5.0201812e-08
6	0xbe41b939	-0.18918313
7	0xbf41bc7d	-0.75678235
8	0x3e550033	0.20800857
9	0xbe8332e0	-0.25624752
10	0xb97441e4	-0.000232942
11	0x3e834b89	0.25643566
12	0xbd1662be	-0.03671526
13	0x3f12bcee	0.57319534
14	0xbeb3333a	-0.3500002
15	0xbf097762	-0.5369779
16	0x3f0c904a	0.5490767
17	0x3f1648d9	0.58704907
18	0x35214afc	6.008629e-07
19	0xbf42acc6	-0.7604488
20	0xb4717821	-2.2488577e-07
21	0xb3c42c3c	-9.1350074e-08
22	0xbd7f7b49	-0.062373433
23	0xbf31c682	-0.69443524
24	0x3e508ff4	0.20367414
25	0xbea5fa48	-0.32417512
26	0x39df1d65	0.00042555775
27	0xbf03ca18	-0.51480246
28	0xbe5d12dd	-0.21589227
29	0x3ef03391	0.46914342
30	0xbeaa5f88	-0.3327601
31	0x3e6eb7df	0.23312329
32	0x3f0104d6	0.50398004
33	0x3f11049c	0.5664766
34	0xb505a9b0	-4.979329e-07
35	0xbf1ec106	-0.6201328
36	0x349d115e	2.9256165e-07
37	0x344aa16f	1.8871445e-07
38	0xbeca425a	-0.39503747
39	0x3dccd7ad	0.100020744
40	0x3e550985	0.20804413
41	0xbf0d84fb	-0.5528104
42	0xb871a2df	-5.7610563e-05
43	0xbd28ea14	-0.04123886
44	0xbee2d36f	-0.44301936
45	0x3ef97ad7	0.48726532
46	0xbed62548	-0.41825318
47	0xbdd2971d	-0.10282729
48	0x3edec15d	0.435069
49	0x3f0b1ffe	0.5434569
50	0xb21e6a4a	-9.220978e-09
51	0x3d8e3042	0.06942798
52	0xb39ccec4	-7.3019265e-08
53	0xb4cac7c9	-3.7770795e-07
54	0xbeec3601	-0.46134952
55	0xbf1696e3	-0.58823985
56	0x3e538387	0.20655642
57	0xbedac6ee	-0.42729896
58	0x387b121a	5.985992e-05
59	0xbe03026a	-0.1279389
60	0xbeea3d24	-0.45749772
61	0x3ef87f20	0.4853449
62	0xbeee86c4	-0.46587193
63	0xbdfa9f0a	-0.122373655

bias f4 [4]
0	0x3e70718a	0.23480812
1	0x3e6897d1	0.22714163
2	0x3df47948	0.11937195
3	0x3dd9c03d	0.1063237
