data/73600.pth (torch, 26775 bytes, 6 tensors)

weight f4 [64, 33]
0	0x3967bde3	0.00022100615
1	0xb5cab5de	-1.5103103e-06
2	0x3969406e	0.00022244614
3	0x3625977c	2.4675091e-06
4	0xb2894055	-1.5978154e-08
5	0xb5218202	-6.016636e-07
6	0x396fc518	0.0002286624
7	0xb43291b6	-1.6630551e-07
8	0xb3a3c28d	-7.6256676e-08
9	0x3697835d	4.5154434e-06
10	0xb57f74da	-9.5164944e-07
11	0xb854249d	-5.0578838e-05
12	0x3e34fc0b	0.17674272
13	0xb87e6c9a	-6.0659462e-05
14	0xb3ae1bff	-8.107599e-08
15	0xb3147eb1	-3.457416e-08
16	0xb6eb6110	-7.0148453e-06
17	0xb77e4bd0	-1.5157231e-05
18	0x3a0ab39f	0.0005291048
19	0xb850148f	-4.961021e-05
20	0x326d2122	1.3802749e-08
21	0x37deea15	2.6573465e-05
22	0x3a078bb9	0.00051706616
23	0x3978484a	0.00023678053
24	0x398adced	0.00026486014
25	0x3e203e0a	0.15648666
26	0x3e0a82c8	0.13526452
27	0x3e22b27f	0.15888403
28	0x3e107398	0.14106596
29	0xbd248b8b	-0.04017214
30	0x3cb51e95	0.02210931
31	0xbe3a526f	-0.18195508
32	0x3a39c57d	0.0007086618
33	0x3c5ae3dc	0.01335999
34	0xbcfad3d3	-0.030618584
35	0x3c7120a2	0.014717253
36	0xbce3f33d	-0.027825946
37	0xbd02fa2b	-0.03197686
38	0xbd8cacdc	-0.06868908
39	0xbd1fa753	-0.038977932
40	0xbd912b35	-0.07088319
41	0xbc9900f1	-0.018677207
42	0xbd07487e	-0.03302812
43	0xbd560225	-0.05224814
44	0xbdda0010	-0.10644543
45	0xbdc66ce2	-0.096887365
46	0xbd3c6ed9	-0.04600415
47	0xbc43e78f	-0.011957063
48	0xbcc3b60b	-0.023890516
49	0xbcc49cc3	-0.024000531
50	0xbda98cc7	-0.08278804
51	0xbd20cd2c	-0.039258167
52	0xbd6f5350	-0.058429062
53	0xbc5c7d90	-0.013457671
54	0xbd1aa108	-0.037751228
55	0x3c8b0799	0.016971396
56	0xbd5942f6	-0.053042375
57	0x3d2594a4	0.040424958
58	0x3ec3d1bd	0.38245955
59	0x3e8b623b	0.2722338
60	0x3edd6362	0.43239886
61	0x3e9af445	0.30264488
62	0xbd3d3e38	-0.046201915
63	0x3dfe2d0b	0.12410935
64	0x3d11494e	0.0354703
65	0xbdfaa1dd	-0.12237904
66	0x3a3f9a81	0.00073090947
67	0xb81e37a6	-3.7721962e-05
68	0x3944284e	0.00018707031
69	0xb9c6fda3	-0.00037954477
70	0x397a9c0d	0.00023899991
71	0xb9de8b25	-0.0004244681
72	0x3a07f7c6	0.00051867624
73	0xb9bf44cc	-0.00036481617
74	0x3a55ba2c	0.0008153047
75	0x39c47caa	0.00037476915
76	0x39f3d753	0.00046509
77	0x3a211d53	0.0006146032
78	0xba36a19e	-0.0006966832
79	0x3aa4d1cd	0.0012574733
80	0x3a1b5342	0.0005925187
81	0x3a960129	0.0011444438
82	0x3a6e025e	0.0009079332
83	0x39fdcf68	0.0004841045
84	0x3a85bd26	0.0010203465
85	0x387c55bd	6.0161332e-05
86	0x3942a6dc	0.00018563442
87	0x39c7d489	0.0003811459
88	0x3a4b1320	0.00077466853
89	0x3a6bced1	0.00089953566
90	0x3a1de733	0.0006023526
91	0xbc385249	-0.011250087
92	0xbbb63f34	-0.0055617336
93	0xbc12e80e	-0.008966459
94	0xbc47097d	-0.012148258
95	0x3a4fa4bc	0.00079209707
96	0xb980f067	-0.00024593176
97	0x3a849990	0.0010116566
98	0xb551f2bf	-7.821181e-07
99	0xb7248747	-9.806658e-06
100	0xb720a1c7	-9.57441e-06
101	0xb6e8955a	-6.9315256e-06
102	0xb6856be1	-3.9762676e-06
103	0xb72047a4	-9.553423e-06
104	0xb7302872	-1.0499834e-05
105	0xb71a911f	-9.212904e-06
106	0xb4854622	-2.482421e-07
107	0xb63df47f	-2.830551e-06
108	0xb7323081	-1.062092e-05
109	0xb702fa36	-7.806861e-06
110	0xb3f3b0f4	-1.1347757e-07
111	0x3701769a	7.716613e-06
112	0x343f462f	1.7813794e-07
113	0xb68b7f1d	-4.1573207e-06
114	0xb70a7654	-8.252991e-06
115	0xb68171fa	-3.857768e-06
116	0xb610cdba	-2.157742e-06
117	0xb60ebcd6	-2.1269566e-06
118	0xb621ba16	-2.4099186e-06
119	0xb58621a2	-9.993566e-07
120	0xb695e5b9	-4.4672893e-06
121	0xb49ebc45	-2.9566777e-07
122	0xb61942f4	-2.2837748e-06
123	0xb6bb186c	-5.5758774e-06
124	0xb7c5b21a	-2.3567165e-05
125	0xb76d8319	-1.4156824e-05
126	0xb783e351	-1.572227e-05
127	0xb7a1971c	-1.9263061e-05
128	0x35814e05	9.633956e-07
129	0xb65e9ecc	-3.317301e-06
130	0xb6233d9c	-2.4324754e-06
131	0x37a50eb6	1.9676383e-05
132	0x3c67eb9b	0.014155294
133	0xbd180516	-0.037114225
134	0x3b6cefcc	0.0036153672
135	0xbcd5fadb	-0.026120594
136	0xbd210306	-0.039309524
137	0xbd9a613e	-0.07538079
138	0xbd9355e8	-0.0719412
139	0xbd9890a4	-0.07449463
140	0xbcb6b766	-0.022304248
141	0xbce14d7a	-0.027502764
142	0xbd3b8a92	-0.045786448
143	0xbdbaec21	-0.09127069
144	0xbdb46640	-0.08808565
145	0xbccbed63	-0.024893468
146	0xbb865b83	-0.0041002645
147	0xbc6dee2d	-0.014522118
148	0xbc5bcd93	-0.013415712
149	0xbd84dc0e	-0.064872846
150	0xbc24f3a5	-0.010067855
151	0xbd050eb9	-0.032484744
152	0xbbc21e58	-0.0059240274
153	0xbcd36263	-0.02580375
154	0x3ca0364a	0.019557137
155	0xbd29874b	-0.04138879
156	0x3cdf23b5	0.027238706
157	0x3ebd4849	0.36969212
158	0x3e8e3904	0.27777874
159	0x3eec90fc	0.46204364
160	0x3e9c332d	0.30507794
161	0xbca1da1e	-0.019757327
162	0x3e15ee9b	0.14641802
163	0x3d68bbab	0.0568196
164	0xbdeb41fb	-0.11487194
165	0x3c5b2d6a	0.013377527
166	0xbcfb2f1a	-0.030662108
167	0x3c708f65	0.014682625
168	0xbce41a3f	-0.027844546
169	0xbd032912	-0.03202159
170	0xbd8cc96a	-0.06874354
171	0xbd203f11	-0.039122645
172	0xbd914036	-0.070923254
173	0xbc9952e0	-0.018716276
174	0xbd073071	-0.03300518
175	0xbd55ec1f	-0.052227136
176	0xbdd9ef64	-0.10641363
177	0xbdc66241	-0.09686709
178	0xbd3c4174	-0.04596086
179	0xbc43903d	-0.011936245
180	0xbcc388ed	-0.023869002
181	0xbcc44812	-0.023960147
182	0xbda96a57	-0.08272236
183	0xbd2031b2	-0.039109893
184	0xbd6ef3d9	-0.05833802
185	0xbc5beecb	-0.013423632
186	0xbd1a6b79	-0.03770015
187	0x3c8b4286	0.016999494
188	0xbd59123a	-0.052995898
189	0x3d256236	0.040376864
190	0x3ec3ca3a	0.38240224
191	0x3e8b6870	0.27228117
192	0x3edd77fa	0.43255597
193	0x3e9af679	0.3026617
194	0xbd3cac57	-0.046062794
195	0x3dfe4bde	0.12416814
196	0x3d1196dc	0.03554426
197	0xbdfa9979	-0.12236304
198	0x3db53dd0	0.088496804
199	0xbbf1f5dc	-0.007384045
200	0x3d8712d7	0.0659539
201	0x3cdda37c	0.027055494
202	0xbca3762f	-0.019953815
203	0xbd229535	-0.039693076
204	0xbd597a9e	-0.053095452
205	0xbdb7160f	-0.08939754
206	0xbc4dd119	-0.01256206
207	0xbcb5111b	-0.022102883
208	0x3c88fa7b	0.016721
209	0x3d099160	0.033585906
210	0xbe027b9b	-0.12742464
211	0xbf98c21a	-1.1934235
212	0xbf2d355c	-0.67659545
213	0xbec81ab1	-0.39082864
214	0x3c593423	0.013257059
215	0xbd43e710	-0.04782778
216	0xbbe9c3d7	-0.0071339416
217	0xbd51dfea	-0.05123893
218	0xbcf38d2a	-0.029730398
219	0xbc585566	-0.013203954
220	0x3cf48b3c	0.029851548
221	0xbd174cd5	-0.036938507
222	0x3cd94f22	0.026526991
223	0x3e0802b5	0.13282283
224	0x3e5a9640	0.21346378
225	0x3e51a963	0.20474772
226	0x3e4df6af	0.20113634
227	0xbd6a85da	-0.057256557
228	0xbeb39c14	-0.35080016
229	0xbbc828e3	-0.0061083897
230	0xbe2127cd	-0.15737839
231	0x35dc6654	1.6421059e-06
232	0xb6ae6f98	-5.1985953e-06
233	0xb5879c42	-1.0103761e-06
234	0x359aff83	1.1548258e-06
235	0xb730a96f	-1.0529867e-05
236	0xb5f81733	-1.8484192e-06
237	0x360c182c	2.0875696e-06
238	0xb58de9f6	-1.057341e-06
239	0x36a72cbf	4.982197e-06
240	0xb78a5756	-1.6491551e-05
241	0xb5ca93d7	-1.50932e-06
242	0x3507ae8f	5.0545435e-07
243	0x349ed713	2.958628e-07
244	0xb631d96a	-2.6501607e-06
245	0x360d0ed2	2.1019264e-06
246	0xb69db614	-4.7001613e-06
247	0xb725ee82	-9.890298e-06
248	0xb682b82c	-3.8957423e-06
249	0x34e8b1f8	4.3342857e-07
250	0x36006dff	1.9137512e-06
251	0x35b15eff	1.3215175e-06
252	0xb66c96e3	-3.5254568e-06
253	0x355b704a	8.174726e-07
254	0xb54cb22f	-7.6255213e-07
255	0xb6c45699	-5.8513365e-06

bias f4 [64]
0	0x3e350434	0.17677385
1	0x3e38abb9	0.18034257
2	0xbbd46f68	-0.006483007
3	0xb75e1250	-1.3236495e-05
4	0x3e4670c2	0.19378951
5	0x3e38bb82	0.18040279
6	0x3dc70167	0.09717064
7	0xb76be97d	-1.4061455e-05
8	0xbd6002fa	-0.05469034
9	0x3da4a259	0.08038778
10	0xb71ee8aa	-9.471705e-06
11	0x3e6bbe46	0.23021802
12	0x3e43144e	0.19050714
13	0xb83210c9	-4.245414e-05
14	0x3e7d38f5	0.24728759
15	0xbcfcb19a	-0.030846406
16	0x3e186f8a	0.14886299
17	0x3d814f05	0.063139
18	0x3e4ce32e	0.20008537
19	0x3e3463f9	0.17616262
20	0xb6ccc8af	-6.1030364e-06
21	0xb63d3039	-2.8191264e-06
22	0x3e4a4d78	0.19756114
23	0x3e2f4e91	0.17119814
24	0x3dc2916e	0.09500395
25	0xbd56c1a1	-0.052430753
26	0xb7efddc3	-2.8594286e-05
27	0xb6c3ea4e	-5.8387295e-06
28	0xb832cfae	-4.2631924e-05
29	0xbe8391c2	-0.25697142
30	0xba0661e2	-0.000512628
31	0x3e3c021f	0.18360184
32	0x3e30dfe3	0.17272906
33	0xb98ff1a0	-0.0002745511
34	0xbdd7d2b9	-0.10538239
35	0xb79ca01d	-1.8671208e-05
36	0x3dd62341	0.10455943
37	0xb939a810	-0.00017705583
38	0xb7369e0b	-1.0884843e-05
39	0xb71df5a1	-9.415119e-06
40	0xbd38ef73	-0.04515023
41	0xb9d13e18	-0.0003990985
42	0xb381ef9e	-6.050617e-08
43	0x3e509d17	0.20372425
44	0xbbad6a03	-0.0052921786
45	0xb37a84d0	-5.8328453e-08
46	0x3e387220	0.18012285
47	0x3e3dbe3b	0.18529598
48	0xbe58cc5d	-0.21171708
49	0x3d37faa4	0.044916764
50	0xb8b98f2f	-8.8481574e-05
51	0xbe0afaf1	-0.13572289
52	0x3e4d5ffd	0.20056148
53	0x3e38d597	0.18050228
54	0x3da44e85	0.08022789
55	0xbcef9507	-0.029245866
56	0xb3c4fe4f	-9.17322e-08
57	0xba109c82	-0.00055164855
58	0xb827e0b9	-4.0025192e-05
59	0x3e396c93	0.18107824
60	0xbcaf9950	-0.02143541
61	0xbddd7e2a	-0.108150795
62	0x3e46329b	0.19355242
63	0x3e30e004	0.17272955

weight f4 [16, 64]
0	0xbdf2c170	-0.118533015
1	0x3e1e9f7e	0.15490529
2	0xbc2e8931	-0.010652826
3	0xb4f6498a	-4.5874577e-07
4	0x3e2dc69a	0.16970292
5	0x3e1eaece	0.1549637
6	0xbe27f866	-0.1640335
7	0xb7110696	-8.644207e-06
8	0xbede1d00	-0.433815
9	0xbda26345	-0.079290904
10	0x36ec69e3	7.045675e-06
11	0xbdd5e458	-0.10443944
12	0xbe2e868e	-0.17043516
13	0xb7903d44	-1.7194667e-05
14	0xbe87f9cd	-0.2655777
15	0xbf1565ed	-0.5835865
16	0xbd95e38f	-0.07318794
17	0x3e8eab76	0.2786519
18	0xbe428ddd	-0.18999429
19	0x3e1c24e7	0.15248452
20	0xb64c7c4e	-3.0470724e-06
21	0xb6356445	-2.7029466e-06
22	0x3e34ab6a	0.17643514
23	0xbdaad526	-0.08341436
24	0xbe000bd2	-0.12504509
25	0xbe541e54	-0.20714694
26	0xb732e611	-1.0663193e-05
27	0xb613353f	-2.19357e-06
28	0xb82858dd	-4.013708e-05
29	0xbf6370f8	-0.8884425
30	0xb9854f5f	-0.00025426873
31	0xbdee400e	-0.11633311
32	0xbe08406a	-0.13305822
33	0xb9cbcb1e	-0.0003887051
34	0xbf477286	-0.77909124
35	0x37231af6	9.721834e-06
36	0x3ee8f25d	0.45497409
37	0xba0ba237	-0.0005326601
38	0xb63c456c	-2.8054592e-06
39	0xb6867948	-4.00763e-06
40	0xbf11e45b	-0.5698907
41	0xb9e04975	-0.0004277934
42	0x3368b8d3	5.4184806e-08
43	0xbe34dc40	-0.17662144
44	0xbefe408f	-0.4965863
45	0x3288ced3	1.5926537e-08
46	0x3e1ea6ab	0.15493266
47	0x3e227085	0.15863235
48	0xbec626b1	-0.38701394
49	0xbeb75bca	-0.35812217
50	0xb91aaa57	-0.00014750041
51	0xbe840734	-0.25786746
52	0xbe23388a	-0.15939537
53	0x3e1eb710	0.1549952
54	0x3ea6a58e	0.32548183
55	0xbfdb4c49	-1.7132655
56	0xb3933f2b	-6.856711e-08
57	0xbafe2d6c	-0.0019392199
58	0xb7a8f2d3	-2.0140234e-05
59	0xbe00466d	-0.12526865
60	0xbccb2849	-0.024799483
61	0xbf158cff	-0.5841827
62	0xbe12bdd4	-0.14330226
63	0xbde94081	-0.11389256
64	0xbdac921b	-0.08426305
65	0x3e0f2c8b	0.13981836
66	0xbbf54c43	-0.0074858977
67	0xb703d191	-7.857002e-06
68	0x3e1cf0c0	0.15326214
69	0x3e0f3954	0.13986713
70	0x3e4f65f9	0.20253743
71	0xb77e8b06	-1.5171949e-05
72	0xbf364648	-0.7120099
73	0x3e912dfc	0.28355396
74	0xb666d792	-3.439815e-06
75	0xbdb338a4	-0.08751038
76	0xbe1763a4	-0.14784104
77	0xb7fae3c8	-2.9908391e-05
78	0xbe8c37e0	-0.2738638
79	0xbf84d615	-1.0377833
80	0xbd329803	-0.043602
81	0x3e3a1918	0.18173635
82	0xbe1bcdea	-0.15215269
83	0x3e0a3d10	0.13499856
84	0xb61b104b	-2.3106284e-06
85	0xb631f304	-2.651651e-06
86	0x3e597436	0.21235737
87	0xbd4047d1	-0.04694349
88	0x3e8c8f06	0.27452868
89	0xbe224dfc	-0.15850061
90	0xb763b505	-1.3572401e-05
91	0xb5eb0946	-1.7511563e-06
92	0xb84f02c8	-4.9355236e-05
93	0xbf3f9e69	-0.7485109
94	0xb994cc50	-0.00028380984
95	0xbdb6bf31	-0.089231856
96	0xbde556da	-0.11198206
97	0xb9f72c9a	-0.00047144742
98	0xbfa77b61	-1.3084527
99	0x3557dda0	8.041625e-07
100	0xbdf45db8	-0.11931938
101	0xba094926	-0.0005237035
102	0xb63b7d13	-2.7937974e-06
103	0x3576bab4	9.191383e-07
104	0xbf8d7e63	-1.1054195
105	0xba0120a5	-0.0004925824
106	0xb333fe0b	-4.1907736e-08
107	0xbe0f32e5	-0.13984258
108	0xbf7a22f2	-0.9770957
109	0x3249bcb4	1.1742646e-08
110	0x3e0ef213	0.13959531
111	0x3e14ac63	0.14518885
112	0xbe89b499	-0.26895598
113	0xbecf4875	-0.40484968
114	0xb7318be5	-1.0582594e-05
115	0xbe8e856a	-0.27836162
116	0xbdf4c4b8	-0.119515836
117	0x3e0f5ebb	0.1400098
118	0x3e994b7c	0.29940403
119	0xbf2cb09b	-0.6745698
120	0x33763a14	5.732916e-08
121	0xbad7dfc8	-0.001646989
122	0xb7a36d7c	-1.9482097e-05
123	0xbe5536bb	-0.2082166
124	0xbcaf6f39	-0.02141534
125	0xbf424143	-0.7588083
126	0xbdc1ba80	-0.094594
127	0xbd9d7932	-0.07689132
128	0xb4da411b	-4.0653035e-07
129	0xb54838c0	-7.458839e-07
130	0xb59da080	-1.1744123e-06
131	0xb3ee94bb	-1.11097926e-07
132	0xb59b80d8	-1.1585898e-06
133	0xb5429ded	-7.2500444e-07
134	0xb5897964	-1.0242625e-06
135	0xb5316a4c	-6.609232e-07
136	0x33fad5ef	1.16804465e-07
137	0x32138de0	8.588785e-09
138	0xb41381c1	-1.3737646e-07
139	0xb4c31d2a	-3.63428e-07
140	0xb5124738	-5.4492875e-07
141	0xb3a9c512	-7.9055226e-08
142	0xb38fa4d8	-6.688941e-08
143	0xb4e8833f	-4.3308862e-07
144	0xb47a7761	-2.3326494e-07
145	0xb4bf4f06	-3.563402e-07
146	0xb4e3ba2d	-4.2417506e-07
147	0xb5323cfb	-6.6398906e-07
148	0x348741be	2.5193543e-07
149	0xb37672fa	-5.738091e-08
150	0x349e04ab	2.943319e-07
151	0xb4f852ea	-4.6253928e-07
152	0xb3451e49	-4.589518e-08
153	0x3495e440	2.7919486e-07
154	0xb347e338	-4.6539952e-08
155	0x32a2b816	1.8942995e-08
156	0x34b01816	3.280008e-07
157	0xb533a2b7	-6.691948e-07
158	0xb4854cad	-2.482897e-07
159	0xb50dc910	-5.281918e-07
160	0x34088a55	1.2716312e-07
161	0xb447acdb	-1.8596204e-07
162	0xb4bef866	-3.5570991e-07
163	0xb4456192	-1.838255e-07
164	0xb5228e4d	-6.055678e-07
165	0xb3d2ee84	-9.822273e-08
166	0xb3b6cec8	-8.512649e-08
167	0x33b3c2f3	8.370798e-08
168	0x3169ae7a	3.400514e-09
169	0xb3eb9bc0	-1.0971371e-07
170	0x334d2700	4.7765752e-08
171	0x340f8056	1.3364601e-07
172	0x3494c572	2.771081e-07
173	0xb288800a	-1.589071e-08
174	0xb554346f	-7.9052455e-07
175	0xb5587cca	-8.064786e-07
176	0xb44633e0	-1.8459059e-07
177	0x34e28f15	4.2199886e-07
178	0x3359a8d4	5.0677798e-08
179	0xb4a6e648	-3.108746e-07
180	0xb48362ec	-2.4472627e-07
181	0xb54822d0	-7.4556465e-07
182	0xb507a7e6	-5.0535743e-07
183	0x3501c128	4.8337324e-07
184	0xb346f88d	-4.6326523e-08
185	0xb4d7ccb1	-4.0195803e-07
186	0x33938218	6.868885e-08
187	0x340620bd	1.2491633e-07
188	0xb40fa03a	-1.3376203e-07
189	0xb3de8a0c	-1.0362791e-07
190	0x3385a462	6.223196e-08
191	0xb50a5602	-5.1534164e-07
192	0x3e89b435	0.268953
193	0x3c48c472	0.012253867
194	0x3b44940d	0.0029995472
195	0x374b2478	1.2108234e-05
196	0x3bb6a077	0.005573328
197	0x3c486007	0.012229926
198	0x3e96ee60	0.2947874
199	0x3741eced	1.155886e-05
200	0x3dffb8a5	0.1248639
201	0x3e237176	0.1596125
202	0x35702d84	8.94732e-07
203	0x3e388af0	0.1802175
204	0x3e8cfafe	0.27535242
205	0x37b6cac3	2.1790509e-05
206	0x3e868f7f	0.26281354
207	0x3e1a5bcd	0.15074082
208	0x3e6d6a98	0.23185194
209	0xbdbcab08	-0.09212309
210	0x3e932229	0.28737
211	0x3c56ad9f	0.013102918
212	0x36c081df	5.737165e-06
213	0x3635c2c0	2.7084461e-06
214	0xbdaf693b	-0.08564993
215	0x3e759d70	0.23985839
216	0x3ef20201	0.47267154
217	0x3de12358	0.109930694
218	0x37cf426f	2.4707258e-05
219	0x36c4d3eb	5.8659257e-06
220	0x3858daf0	5.1702315e-05
221	0x3f2843f3	0.6572868
222	0x37f041c1	2.8640849e-05
223	0x3e8d86bc	0.27641857
224	0x3e85e0b3	0.26147994
225	0x388846cb	6.4981716e-05
226	0x3ddb0be9	0.10695631
227	0x371d60f9	9.380507e-06
228	0xbf0e10b8	-0.5549426
229	0x39e31635	0.0004331336
230	0x3724ca0d	9.822205e-06
231	0x373ab5b9	1.11287745e-05
232	0x3e7851d3	0.24249963
233	0xb8f28ab8	-0.000115652976
234	0x33eec4a6	1.1118509e-07
235	0x3e84f38b	0.2596706
236	0x3e550019	0.20800819
237	0x31f31461	7.0745476e-09
238	0x3c4b81a3	0.0124210445
239	0x3c354576	0.011063924
240	0x3e967135	0.29383245
241	0x3db71f76	0.089415476
242	0x380cbbdc	3.355356e-05
243	0x3e84a4a4	0.2590686
244	0x3e83971d	0.25701228
245	0x3c4884ed	0.012238723
246	0xbdc3c0d1	-0.09558261
247	0x3fe7cad1	1.810877
248	0xb36b0552	-5.472004e-08
249	0x3aa333b6	0.0012451324
250	0x380cec7a	3.3598837e-05
251	0xbdd903a7	-0.105964
252	0x3c214ba9	0.009844699
253	0x3dbf2eb5	0.093350805
254	0x3e923a5b	0.28560147
255	0x3e87480b	0.26422152

bias f4 [16]
0	0x3ea347a0	0.31890583
1	0x3ea1845e	0.315463
2	0xb55db6ce	-8.259493e-07
3	0xbd4ec539	-0.050481055
4	0xb706dc2e	-8.038287e-06
5	0xb3e2a380	-1.05536856e-07
6	0x3d81d9f2	0.06340398
7	0xbd428075	-0.047485787
8	0x3f019502	0.5061799
9	0x3d230d3e	0.03980755
10	0xb94a07fc	-0.00019267196
11	0x3ce422f6	0.027848702
12	0x3d7052b8	0.058672637
13	0x3e9cb297	0.30605003
14	0x3c334d87	0.010943777
15	0x3cb03b20	0.021512568

weight f4 [4, 16]
0	0x3f061008	0.5236821
1	0x3f0b36eb	0.54380673
2	0xb38d1400	-6.569462e-08
3	0xbf317f7e	-0.6933516
4	0xb82eada4	-4.164655e-05
5	0xb28cb258	-1.6379246e-08
6	0xbe1b630f	-0.15174507
7	0xbf35514e	-0.70827186
8	0x3e5e51e8	0.21710932
9	0xbe91b711	-0.2845998
10	0xb89f68f3	-7.601259e-05
11	0x3e579d34	0.21056062
12	0xbc6db67c	-0.01450884
13	0x3f0dc34b	0.5537612
14	0xbe9a501c	-0.30139244
15	0xbf350473	-0.70709914
16	0x3f0d0125	0.5507987
17	0x3f14ed56	0.58174646
18	0x34528e53	1.9609551e-07
19	0xbf3e7d07	-0.74409527
20	0xb39d95e4	-7.338147e-08
21	0xb30008ec	-2.9810437e-08
22	0xbca1b45b	-0.01973932
23	0xbf23e623	-0.64023036
24	0x3e5819f5	0.21103652
25	0xbe965826	-0.29364127
26	0x391199ee	0.00013885621
27	0xbf290721	-0.660265
28	0xbe04d12e	-0.1297042
29	0x3f0454e5	0.5169204
30	0xbe9ccde7	-0.3062584
31	0x3e56f6bc	0.20992559
32	0x3f07c11f	0.53029054
33	0x3f178912	0.5919353
34	0xb42e76d0	-1.6248237e-07
35	0xbf227d16	-0.63472116
36	0x33cd06df	9.547306e-08
37	0x33843fc8	6.158331e-08
38	0xbec7d633	-0.3903061
39	0x3dcb714a	0.099337175
40	0x3e405031	0.1878059
41	0xbf0b9197	-0.5451903
42	0xb79db215	-1.8798784e-05
43	0xbcf29f4f	-0.02961698
44	0xbee3860b	-0.44438204
45	0x3f0366b2	0.51328576
46	0xbecd1c2c	-0.40060556
47	0xbd54583a	-0.051841952
48	0x3eef37d5	0.46722284
49	0x3f1035f3	0.5633232
50	0xb14ec3f1	-3.0088325e-09
51	0x3d973cf0	0.0738467
52	0xb2ccb0ef	-2.3829186e-08
53	0xb40458b4	-1.2325728e-07
54	0xbee4de40	-0.44700813
55	0xbf1eb5af	-0.6199598
56	0x3e596cd9	0.21232928
57	0xbee70c80	-0.45126724
58	0x37a3dabc	1.953297e-05
59	0xbdd46647	-0.1037107
60	0xbedb7356	-0.42861432
61	0x3f0357ab	0.51305646
62	0xbedcb367	-0.43105623
63	0xbd900313	-0.07031836

bias f4 [4]
0	0x3e699063	0.22808985
1	0x3e64c5c0	0.2234106
2	0x3da19481	0.07889653
3	0x3dad5eb7	0.08465331
