data/76800.pth (torch, 27159 bytes, 6 tensors)

weight f4 [64, 33]
-0.008941821 -0.0057930546 0.012674368 0.008462265 -6.893436e-09 -0.00409878 -0.010067923 -0.014588809
-0.0019323565 -0.013870489 -0.013872878 -0.017494248 0.20656706 -0.0037033868 0.0045421836 -0.0077972505
-0.006958538 -0.010106331 -0.0173745 -0.018019704 -0.0016020642 0.0005038462 -0.010188956 -0.005623778
-0.015245172 0.21117459 0.14411399 0.16901946 0.1770267 0.049982376 0.029829966 -0.11334802
-0.007258206 0.015479272 -0.02622505 0.021417128 -0.0319679 -0.021844836 -0.09786832 -0.02057224
-0.042864237 -0.0009108604 0.0014215087 -0.060508642 -0.111042306 -0.051880285 -0.041705806 -0.019266656
-0.034992706 -0.019284798 -0.07808423 -0.009026015 -0.030398509 0.0140341455 -0.032363858 0.043990683
-0.023806222 0.04114613 0.3999711 0.28512162 0.4058489 0.30441415 -0.071045145 0.12169715
0.04752372 -0.072749816 0.00031533843 -1.627302e-05 8.070881e-05 -0.00016372901 0.000103107646 -0.00018311861
0.00022379884 -0.00015739308 0.0003517463 0.00016169058 0.0002006546 0.0002651812 -0.0003005705 0.00054249715
0.0002556387 0.000493741 0.00039172007 0.00020885665 0.00044020364 2.5953525e-05 8.008535e-05 0.00016442695
0.0003342142 0.00038806902 0.00025984625 -0.0048535434 -0.0023995128 -0.0038684234 -0.005240561 0.00034174824
-0.00010609652 0.00043644357 -3.374032e-07 -4.2306683e-06 -4.13093e-06 -2.9904927e-06 -1.7154515e-06 -4.1217904e-06
-4.5299403e-06 -3.9747683e-06 -1.07096916e-07 -1.2211684e-06 -4.5821957e-06 -3.3684755e-06 -4.8958128e-08 3.329188e-06
7.685428e-08 -1.7936413e-06 -3.5604535e-06 -1.6643571e-06 -9.309462e-07 -9.176322e-07 -1.0397471e-06 -4.3115173e-07
-1.927299e-06 -1.275532e-07 -9.852631e-07 -2.405483e-06 -1.0167464e-05 -6.1077435e-06 -6.7828755e-06 -8.311105e-06
4.1562876e-07 -1.4311196e-06 -1.0492715e-06 8.488925e-06 0.01557665 -0.03281787 0.006512252 -0.024231356
-0.023596326 -0.108067036 -0.05542985 -0.038437787 -0.00023355985 0.013692633 -0.048700392 -0.08491096
-0.045521088 -0.0064605675 -0.008220343 -0.024169 -0.010427003 -0.06692633 0.006762813 -0.0039335005
0.030134534 -0.021287836 0.044964585 -0.0019009184 0.031063665 0.37687045 0.2828742 0.4121067
0.28169996 -0.053353243 0.15209615 0.059004027 -0.06624531 0.0154916635 -0.026258163 0.021370616
-0.031962764 -0.021869075 -0.09792494 -0.020715157 -0.042875644 -0.00092508347 0.0014666114 -0.060469765
-0.11096413 -0.051862117 -0.041613314 -0.019241624 -0.0349676 -0.019248946 -0.07804125 -0.008935348
-0.030306228 0.014089241 -0.032322615 0.044006426 -0.02373282 0.04110511 0.39988506 0.28513533
0.40590736 0.30435097 -0.07095816 0.121789575 0.04757176 -0.072734386 0.073428735 -0.06063515
0.055889986 -0.004728048 -0.03953729 -0.059901778 -0.01990696 -0.0492141 0.06271983 -0.045799356
-0.063417695 -0.031988617 -0.15614796 -1.1028715 -0.45713216 -0.33453983 -0.010657237 -0.023129242
-0.029313363 -0.10225883 -0.01103452 0.021919426 0.012823975 -0.07660645 0.03391091 0.17560007
0.20084648 0.22335544 0.22273622 0.02823735 -0.25334808 0.005856405 -0.19073738 7.084337e-07
-2.2426057e-06 -4.3596418e-07 4.9823825e-07 -4.5431734e-06 -7.9747e-07 9.006978e-07 -4.5618583e-07 2.149532e-06
-7.1146274e-06 -6.5118763e-07 2.1809976e-07 1.2763813e-07 -1.1433764e-06 9.0690503e-07 -2.0275586e-06 -4.26726e-06
-1.6809855e-06 1.86996e-07 8.2561485e-07 5.701613e-07 -1.5209578e-06 3.526764e-07 -3.2894798e-07 -2.524491e-06
00000000: b780 12bc aad3 bdbb 27a8 4f3c 50a5 0a3c
00000010: 4edb ecb1 0f4f 86bb eef3 24bc e605 6fbc
00000020: 2047 fdba 0c41 63bc 114b 63bc 1950 8fbc
00000030: 5186 533e 85b4 72bb 99d6 943b 1480 ffbb
00000040: 7304 e4bb 0695 25bc f854 8ebc 0f9e 93bc
00000050: 5bfc d1ba 8c14 043a 94ef 26bc ab47 b8bb
00000060: e3c6 79bc 273e 583e 9e92 133e 7013 2d3e
00000070: 7d46 353e 52ba 4c3d f95d f43c 0223 e8bd
00000080: 3fd6 edbb c69c 7d3c ebd5 d6bc f972 af3c
00000090: c6f0 02bd f1f3 b2bc 306f c8bd 1d87 a8bc
000000a0: 6992 2fbd cfc6 6eba eb51 ba3a e9d7 77bd
000000b0: 266a e3bd 6c80 54bd b5d3 2abd 1bd5 9dbc
000000c0: 8354 0fbd 27fb 9dbc a0ea 9fbd dae1 13bc
000000d0: 4b06 f9bc 79ef 653c f78f 04bd 932f 343d
000000e0: 4405 c3bc d888 283d 03c9 cc3e 76fb 913e
000000f0: 6dcb cf3e 2cdc 9b3e 1e80 91bd 5b3c f93d
00000100: 3ba8 423d dbfd 94bd 0254 a539 0b82 88b7
00000110: 3642 a938 acae 2bb9 7f3b d838 8703 40b9
00000120: 8bab 6a39 e209 25b9 976a b839 7c8b 2939
00000130: cf66 5239 0508 8b39 e495 9db9 5e36 0e3a
00000140: 3f07 8639 666e 013a c75f cd39 8800 5b39
00000150: 22cb e639 c5b6 d937 7ff3 a738 066a 2c39
00000160: 7839 af39 be75 cb39 f93b 8839 790a 9fbb
00000170: 2541 1dbb 6085 7dbb 03b9 abbb ac2c b339
00000180: 2380 deb8 77d2 e439 5824 b5b4 2af5 8db6
00000190: 6b9c 8ab6 46b0 48b6 773e e6b5 e94d 8ab6
000001a0: e4ff 97b6 005f 85b6 27fd e5b3 07e7 a3b5
000001b0: c3c0 99b6 f80d 62b6 0846 52b3 046b 5f36
000001c0: 160b a533 0cbd f0b5 20f0 6eb6 e062 dfb5
000001d0: 23e6 79b5 3453 76b5 708d 8bb5 0b79 e7b4
000001e0: bf56 01b6 8ef5 08b4 623d 84b5 e26d 21b6
000001f0: ed94 2ab7 1ef1 ccb6 7598 e3b6 ed6f 0bb7
00000200: 9523 df34 e514 c0b5 b2d4 8cb5 a86b 0e37
00000210: 3535 7f3c 086c 06bd bb64 d53b d680 c6bc
00000220: 154d c1bc 4052 ddbd 690a 63bd f170 1dbd
00000230: bfe7 74b9 1157 603c 107a 47bd cce5 adbd
00000240: 5274 3abd 2bb3 d3bb 9eae 06bc 11fe c5bc
00000250: 05d6 2abc ac10 89bd 969a dd3b 98e4 80bb
00000260: b3dc f63c d463 aebc c92c 383d 3d28 f9ba
00000270: 3a79 fe3c 2af5 c03e e3d4 903e a6ff d23e
00000280: fa3a 903e ee88 5abd 18bf 1b3e 35ae 713d
00000290: 9fab 87bd bfd0 7d3c 5c1b d7bc 6e11 af3c
000002a0: 63eb 02bd c626 b3bc df8c c8bd d5b2 a9bc
000002b0: 5f9e 2fbd 4d81 72ba 503b c03a 25af 77bd
000002c0: 2941 e3bd 5f6d 54bd b972 2abd 9ca0 9dbc
000002d0: 303a 0fbd f7af 9dbc 17d4 9fbd 9165 12bc
000002e0: c444 f8bc 8fd6 663c b864 04bd 1540 343d
000002f0: 556b c2bc d55d 283d bcbd cc3e 42fd 913e
00000300: 17d3 cf3e e4d3 9b3e 8352 91bd d06c f93d
00000310: 9bda 423d c4f5 94bd ce61 963d 905c 78bd
00000320: e6ec 643d beed 9abb daf1 21bd 915b 75bd
00000330: ec13 a3bc b994 49bd 4173 803d 1b98 3bbd
00000340: 23e1 81bd 7f06 03bd 40e5 1fbe e52a 8dbf
00000350: 3a0d eabe ce48 abbe b19b 2ebc 8979 bdbc
00000360: 9422 f0bc 146d d1bd 22ca 34bc 5e90 b33c
00000370: a61b 523c d8e3 9cbd 2be6 0a3d 81d0 333e
00000380: b3aa 4d3e 4ab7 643e f714 643e 0452 e73c
00000390: d7b6 81be 16e7 bf3b a950 43be 312b 3e35
000003a0: ac7f 16b6 760e eab4 acbe 0535 9071 98b6
000003b0: b911 56b5 7bc7 7135 b4e9 f4b4 ae40 1036
000003c0: 2fba eeb6 46cd 2eb5 ce2e 6a34 e70c 0934
000003d0: 1d76 99b5 0a72 7335 3111 08b6 7c2f 8fb6
000003e0: 399e e1b5 12c9 4834 d29f 5d35 300d 1935
000003f0: b623 ccb5 7a57 bd34 449a b0b4 6d6a 29b6

bias f4 [64]
0.2090162 0.18573691 -0.0027970572 -5.710341e-06 0.18590793 0.18575208 0.110989146 -6.066278e-06
-0.07589969 0.06891409 -4.0862033e-06 0.19588153 0.21082549 -1.8316123e-05 0.17570035 -0.02241614
0.16939875 0.058338713 0.19677554 0.18359262 -2.6327134e-06 -1.216228e-06 0.21789187 0.19735958
0.09415283 -0.022619443 -1.2335535e-05 -2.519017e-06 -1.8392313e-05 -0.26810613 -0.00022116397 0.1707366
0.17626147 -0.00011844364 -0.09781222 -8.0551e-06 0.10795692 -7.638479e-05 -4.6960563e-06 -4.061561e-06
-0.04872033 -0.00017217593 -2.6106138e-08 0.17274664 -0.016125765 -2.516371e-08 0.18489455 0.186638
-0.19490544 0.028954642 -3.8172435e-05 -0.17441097 0.18367912 0.18576764 0.07040175 -0.03535167
-3.9577632e-08 -0.00023800136 -1.7267368e-05 0.087600395 -0.009247207 -0.115477614 0.19121225 0.17350249
00000000: 5808 563e d131 3e3e d54e 37bb 759b bfb6
00000010: a65e 3e3e cb35 3e3e 474e e33d ee8c cbb6
00000020: 4c71 9bbd d522 8d3d 381c 89b6 2b95 483e
00000030: a3e2 573e 93a5 99b7 cbea 333e 0ea2 b7bc
00000040: de76 2d3e 93f4 6e3d 877f 493e b4ff 3b3e
00000050: acad 30b6 473d a3b5 0c1f 5f3e a118 4a3e
00000060: 33d3 c03d 694c b9bc b8f4 4eb7 620c 29b6
00000070: 3149 9ab7 3545 89be 40e8 67b9 93d5 2e3e
00000080: e37d 343e f264 f8b8 c651 c8bd 6424 07b7
00000090: 8518 dd3d c630 a0b8 d192 9db6 8b48 88b6
000000a0: f88e 47bd 208a 34b9 0140 e0b2 7fe4 303e
000000b0: 2e1a 84bc 9527 d8b2 ff54 3d3e 081e 3f3e
000000c0: 4b95 47be 4932 ed3c 571b 20b8 ca98 32be
000000d0: 6116 3c3e df39 3e3e cb2e 903d eacc 10bd
000000e0: 11fc 29b3 0190 79b9 64d9 90b7 d667 b33d
000000f0: 9981 17bc 877f ecbd 25cd 433e a3aa 313e

weight f4 [16, 64]
-0.13817975 0.15829434 -0.00459546 -1.9789789e-07 0.16604677 0.15832761 -0.12109335 -3.7295763e-06
-0.44973987 -0.08047489 3.0396382e-06 -0.13164225 -0.18262833 -7.418138e-06 -0.21676531 -0.6005549
-0.12219731 0.27911845 -0.16694109 0.15694077 -1.3144592e-06 -1.1660828e-06 0.20597629 -0.14738263
-0.15827316 -0.089370064 -4.600313e-06 -9.4637596e-07 -1.7314836e-05 -1.1713296 -0.00010969703 -0.09133134
-0.13059373 -0.00016768971 -0.75211966 4.1936496e-06 0.43738276 -0.00022981371 -1.210318e-06 -1.729022e-06
-0.56691384 -0.00018455787 2.3377202e-08 -0.14277363 -0.47032282 6.8714514e-09 0.15802939 0.15996663
-0.3736356 -0.31703666 -6.3636995e-05 -0.25257194 -0.09239791 0.1583151 0.3207996 -1.660824
-2.958203e-08 -0.0008366314 -8.6878335e-06 -0.016722932 -0.010699141 -0.5386716 -0.0903786 -0.1232947
-0.13397709 0.14772834 -0.0032294607 -3.3896888e-06 0.15616013 0.14775988 0.16875832 -6.5455524e-06
-0.71427464 0.26758495 -1.4840023e-06 -0.14977367 -0.19812347 -1.2902774e-05 -0.20468022 -1.0311191
-0.10928491 0.17488953 -0.19254142 0.14355446 -9.968996e-07 -1.1440148e-06 0.22956769 -0.13630141
0.2362147 -0.06837888 -5.8554638e-06 -7.5544773e-07 -2.1293998e-05 -0.9396162 -0.00012244342 -0.096894875
-0.14573374 -0.00020338758 -1.2649659 3.4691644e-07 -0.116494484 -0.00022594008 -1.2052748e-06 3.9651633e-07
-1.1901824 -0.00021250448 -1.8079103e-08 -0.15311776 -1.018953 5.066295e-09 0.14712279 0.15141653
-0.2275334 -0.3395213 -4.5657703e-06 -0.26698744 -0.08015262 0.14786217 0.2996934 -0.64465964
2.4731204e-08 -0.00071051245 -8.403926e-06 -0.18832536 -0.009238352 -0.6921767 -0.12582399 -0.12385706
-1.7538913e-07 -3.2178198e-07 -5.066162e-07 -4.7931e-08 -4.9986926e-07 -3.1277688e-07 -4.418872e-07 -2.8515106e-07
5.0390646e-08 3.705468e-09 -5.926848e-08 -1.5679046e-07 -2.3511966e-07 -3.4103543e-08 -2.885687e-08 -1.8684871e-07
-1.0063387e-07 -1.5373638e-07 -1.8299944e-07 -2.86465e-07 1.08699766e-07 -2.4753724e-08 1.2697143e-07 -1.9955752e-07
-1.980144e-08 1.2045157e-07 -2.0077469e-08 8.171753e-09 1.4150811e-07 -2.8869607e-07 -1.0711749e-07 -2.2788774e-07
5.4865488e-08 -8.022368e-08 -1.5346377e-07 -7.930936e-08 -2.6123962e-07 -4.2372346e-08 -3.6726107e-08 3.611214e-08
1.4670273e-09 -4.7331326e-08 2.0605604e-08 5.7656827e-08 1.195521e-07 -6.8561916e-09 -3.4106094e-07 -3.479091e-07
-7.963305e-08 1.820597e-07 2.1864055e-08 -1.3412827e-07 -1.0558719e-07 -3.2164283e-07 -2.1805702e-07 2.0855158e-07
-1.9984437e-08 -1.734054e-07 2.9634506e-08 5.389256e-08 -5.7706544e-08 -4.4705804e-08 2.684841e-08 -2.2232366e-07
0.2473257 0.012205417 0.0012941299 5.223813e-06 0.011296112 0.012203251 0.22862886 4.9865366e-06
0.117720544 0.142089 3.859793e-07 0.19807614 0.22370683 9.401078e-06 0.21928503 0.15918979
0.2617894 -0.08801879 0.22071713 0.01202069 2.4750568e-06 1.1685181e-06 -0.08324112 0.25320968
0.43333206 0.04742628 1.06599655e-05 2.5308252e-06 2.2304479e-05 0.7533284 1.23553455e-05 0.20909208
0.21320999 2.8037543e-05 0.096447445 4.0464884e-06 -0.5663575 0.0001868639 4.2374695e-06 4.801083e-06
0.23453452 -4.989621e-05 4.796809e-08 0.21584094 0.18137063 3.0522485e-09 0.012546567 0.012598988
0.30770564 0.07914427 1.4477507e-05 0.3727794 0.12123142 0.012237949 -0.1150505 1.6691439
-2.3606178e-08 0.0005370983 1.4496773e-05 -0.08331757 0.0042476985 0.059626043 0.16751969 0.24611062
00000000: fe7e 0dbe e917 223e 8395 96bb c27d 54b4
00000010: 2a08 2a3e a220 223e caff f7bd a249 7ab6
00000020: 4e44 e6be 05d0 a4bd 96fc 4b36 3acd 06be
00000030: ec02 3bbe 52e9 f8b6 baf7 5dbe f7bd 19bf
00000040: 9542 fabd 9de8 8e3e 9bf2 2abe 15b5 203e
00000050: 796c b0b5 4d82 9cb5 73eb 523e 79eb 16be
00000060: 5c12 22be a707 b7bd 635c 9ab6 760a 7eb5
00000070: 543f 91b7 21ee 95bf 250d e6b8 ed0b bbbd
00000080: 5dba 05be ddd5 2fb9 ea8a 40bf 2db7 8c36
00000090: a2f0 df3e 26fa 70b9 3672 a2b5 be10 e8b5
000000a0: 4421 11bf e085 41b9 03cf c832 4033 12be
000000b0: 27ce f0be ed19 ec31 75d2 213e 4bce 233e
000000c0: 2a4d bfbe a152 a2be da74 85b8 1c51 81be
000000d0: 1e3b bdbd 5b1d 223e d83f a43e e195 d4bf
000000e0: 921b feb2 6251 5bba f6c1 11b7 88fe 88bc
000000f0: 734b 2fbc 62e6 09bf 6a18 b9bd ef81 fcbd
00000100: 4a31 09be 1946 173e 5ca5 53bb 697a 63b6
00000110: 71e8 1f3e 5e4e 173e fbce 2c3e dea1 dbb6
00000120: b4da 36bf e500 893e ee2d c7b5 455e 19be
00000130: e1e0 4abe fe78 58b7 b197 51be b6fb 83bf
00000140: c4d0 dfbd 3e16 333e 9429 45be f1ff 123e
00000150: 36cd 85b5 0d8c 99b5 cb13 6b3e 9992 0bbe
00000160: 44e2 713e 3a0a 8cbd 0d7a c4b6 f9c9 4ab5
00000170: 83a0 b2b7 b08a 70bf 2864 00b9 d270 c6bd
00000180: 3a3b 15be 7044 55b9 67ea a1bf d53f ba34
00000190: a994 eebd 54ea 6cb9 edc4 a1b5 cae0 d434
000001a0: e657 98bf bdd3 5eb9 5e4c 9bb2 e7ca 1cbe
000001b0: 0d6d 82bf 9a13 ae31 5ba7 163e ef0c 1b3e
000001c0: 84fe 68be bcd5 adbe ab33 99b6 94b2 88be
000001d0: 0f27 a4bd 2e69 173e 6a71 993e 6a08 25bf
000001e0: 7e70 d432 af41 3aba 96fe 0cb7 5dd8 40be
000001f0: 755c 17bc 7e32 31bf 01d8 00be c5a8 fdbd
00000200: 9952 3cb4 61c1 acb4 66fe 07b5 b1dc 4db3
00000210: c12e 06b5 baeb a7b4 843c edb4 dd16 99b4
00000220: 1a6d 5833 48a3 7e31 628e 7eb3 3c5a 28b4
00000230: 3375 7cb4 3e79 12b3 eee0 f7b2 95a0 48b4
00000240: 0e1c d8b3 bc12 25b4 817e 44b4 73cb 99b4
00000250: 546e e933 04a2 d4b2 a455 0834 f445 56b4
00000260: d417 aab2 7a55 0134 d276 acb2 c063 0c32
00000270: 74f1 1734 16fe 9ab4 7708 e6b3 4eb1 74b4
00000280: 3ea5 6b33 6f47 acb3 cdc7 24b4 c850 aab3
00000290: 8040 8cb4 e3fc 35b3 c8bc 1db3 b819 1b33
000002a0: 6fa0 c930 5849 4bb3 3400 b132 5aa2 7733
000002b0: 3b5e 0034 b393 ebb1 0f1b b7b4 43c8 bab4
000002c0: bb02 abb3 307c 4334 91cf bb32 e604 10b4
000002d0: 2cbf e2b3 41ae acb4 0f23 6ab4 39ee 5f34
000002e0: 3eaa abb2 5031 3ab4 f88e fe32 7f77 6733
000002f0: 04d9 77b3 8d02 40b3 47a0 e632 ddb7 6eb4
00000300: f342 7d3e 3bf9 473c cb9f a93a 3648 af36
00000310: 5413 393c 25f0 473c af1d 6a3e 0652 a736
00000320: 7817 f13d c77f 113e 9738 cf34 79d4 4a3e
00000330: 6713 653e 53b9 1d37 418c 603e a602 233e
00000340: 4309 863e 3243 b4bd ac03 623e 6ef2 443c
00000350: 2719 2636 fad5 9c35 527a aabd b3a4 813e
00000360: b3dd dd3e 0f42 423d 34d8 3237 3fd7 2936
00000370: 811a bb37 21da 403f ce49 4f37 3c1c 563e
00000380: b853 5a3e 2a32 eb37 3d86 c53d 12c7 8736
00000390: cefc 10bf e5f0 4339 962f 8e36 fd18 a136
000003a0: d129 703e a647 51b8 7905 4e33 6805 5d3e
000003b0: 39b9 393e b9bf 5131 1e90 4d3c fc6b 4e3c
000003c0: 988b 9d3e 6416 a23d 6be4 7237 f1dc be3e
000003d0: 2e48 f83d ae81 483c 999f ebbd 82a6 d53f
000003e0: 89c6 cab2 0fcc 0c3a 2a37 7337 67a2 aabd
000003f0: 4730 8b3b 703a 743d 488a 2b3e 6c04 7c3e

bias f4 [16]
0.31771278 0.32464027 -3.5632337e-07 -0.051609464 -3.4680081e-06 -4.5530967e-08 0.044346847 -0.04025628
0.5386777 0.044245478 -8.3128434e-05 0.014382503 0.0480198 0.30422834 -0.00059354317 0.018773248
00000000: 40ab a23e 4037 a63e b64c bfb4 7264 53bd
00000010: edbb 68b6 d48d 43b3 0aa5 353d c5e3 24bd
00000020: c8e6 093f bf3a 353d 3d55 aeb8 97a4 6b3c
00000030: 69b0 443d d1c3 9b3e 0298 1bba 5bca 993c

weight f4 [4, 16]
0.5268609 0.5383749 -2.834482e-08 -0.6021499 -1.796549e-05 -7.067212e-09 -0.12850128 -0.6610332
0.22859521 -0.2805637 -3.2793687e-05 0.12888797 -0.0056774043 0.54834825 -0.3012911 -0.8985216
0.53663874 0.578162 8.459238e-08 -0.6740592 -3.165511e-08 -1.2860704e-08 -0.04776904 -0.6373462
0.22205418 -0.31075785 5.991337e-05 -0.8035873 -0.13134654 0.5158681 -0.31444302 0.12792379
0.52828854 0.6008988 -7.009264e-08 -0.6599138 4.1185636e-08 2.6567738e-08 -0.40672266 0.09035144
0.17986614 -0.54664487 -8.109424e-06 -0.027292904 -0.4579459 0.5229398 -0.37645045 -0.041374616
0.49300206 0.5747297 -1.2981194e-09 0.08555685 -1.0279383e-08 -5.3174702e-08 -0.43547195 -0.6129687
0.20670454 -0.43199274 8.426183e-06 -0.054819178 -0.39806786 0.5309453 -0.40970644 -0.06456289
00000000: 5be0 063f f0d2 093f eb7a f3b2 7f26 1abf
00000010: 99b4 96b7 dbd3 f2b1 d795 03be 7939 29bf
00000020: dd14 6a3e 0ca6 8fbe f48b 09b8 35fb 033e
00000030: 8509 babb 8d60 0c3f d442 9abe 8305 66bf
00000040: 2861 093f 6d02 143f 27a9 b533 258f 2cbf
00000050: 29f5 07b3 f9f1 5cb2 78a9 43bd 1f29 23bf
00000060: 2c62 633e a71b 9fbe 7e4b 7b38 e6b7 4dbf
00000070: b57f 06be ef0f 043f adfe a0be 74fe 023e
00000080: eb3d 073f 81d4 193f d685 96b3 1cf0 28bf
00000090: 16e4 3033 1337 e432 f43d d0be 2d0a b93d
000000a0: d42e 383e ebf0 0bbf b60d 08b7 5e95 dfbc
000000b0: e377 eabe 62df 053f 1dbe c0be 6e78 29bd
000000c0: c46a fc3e 7c21 133f 8469 b2b0 6e38 af3d
000000d0: 3499 30b2 3462 64b3 2ef6 debe 84eb 1cbf
000000e0: 5baa 533e 272e ddbe 2e5e 0d37 138a 60bd
000000f0: 8dcf cbbe 08ec 073f 0bc5 d1be 8c39 84bd

bias f4 [4]
0.22661859 0.22696441 0.06336077 0.084966294
00000000: b40e 683e 5c69 683e 4bc3 813d cf02 ae3d
