data/79200.pth (torch, 27479 bytes, 6 tensors)

weight f4 [64, 33]
-0.074873045 4.552184e-05 -0.047010615 0.018361978 -0.0008603067 0.0040939306 -0.04043471 -0.0035519307
-0.034386728 -0.037614338 -0.05059469 0.025711033 0.06874686 -0.035841938 -0.047040816 -0.120234266
-0.033713665 -0.017666183 -0.054275837 0.017826343 0.014103438 0.03276445 -0.0089602405 0.02134997
0.018125808 0.15413788 0.11871706 -0.00865728 0.06884796 -0.11750553 0.06087975 -0.11960546
-0.06289078 0.030906953 -0.05517234 0.032628532 -0.021610493 -0.02239754 -0.07388569 -0.0098586455
-0.036499884 -0.006342467 -0.0124576 -0.06266942 -0.10804441 -0.04887429 -0.016992927 -0.0057405396
0.021987569 -0.012176864 -0.1004726 -0.016056066 -0.06428948 -0.0053434786 -0.039658852 0.03474072
-0.029596925 0.036121696 0.39329165 0.27966428 0.3918144 0.293407 -0.0482529 0.102905124
0.042248026 -0.07378965 0.00016344825 -8.435192e-06 4.183483e-05 -8.4876556e-05 5.3446907e-05 -9.4928975e-05
0.00011600294 -8.158174e-05 0.00018232323 8.3810264e-05 0.000104006744 0.00013745864 -0.00015580648 0.00028120927
0.0001325132 0.00025594106 0.00020304203 0.00010826108 0.00022818006 1.3454069e-05 4.151365e-05 8.523577e-05
0.00017323051 0.00020116125 0.0001346924 -0.0025158278 -0.0012438449 -0.0020051464 -0.0027166845 0.00017714292
-5.49991e-05 0.0002262342 -1.748989e-07 -2.1930161e-06 -2.1412966e-06 -1.5501037e-06 -8.8919046e-07 -2.1365572e-06
-2.3481973e-06 -2.0603488e-06 -5.5512363e-08 -6.329926e-07 -2.3751961e-06 -1.7460679e-06 -2.5376648e-08 1.7257521e-06
3.9835953e-08 -9.2973784e-07 -1.8455846e-06 -8.627547e-07 -4.825348e-07 -4.7566294e-07 -5.389612e-07 -2.2349293e-07
-9.99054e-07 -6.6117835e-08 -5.107106e-07 -1.2469824e-06 -5.2701484e-06 -3.1657792e-06 -3.5161415e-06 -4.3081272e-06
2.1545321e-07 -7.41892e-07 -5.4390637e-07 4.4003195e-06 0.023074307 -0.057827562 0.02156955 -0.021697232
-0.01816255 -0.078591056 -0.038031038 -0.033762608 -0.00871849 -0.0022223515 -0.044907797 -0.07590496
-0.04198983 0.02905877 0.0017002568 0.032217525 -0.0048005646 -0.093054935 -0.0061171134 -0.042037144
0.0048084226 -0.02136772 0.03543486 -0.005754553 0.025064358 0.36430338 0.26966566 0.38635194
0.2622853 -0.037662253 0.12776141 0.049124464 -0.06592061 0.030897124 -0.05519349 0.032601036
-0.021625306 -0.02239784 -0.073920846 -0.009964991 -0.036509894 -0.0063602636 -0.0124245845 -0.06261784
-0.107947424 -0.048851755 -0.016863491 -0.005726488 0.022014687 -0.012148719 -0.10044169 -0.01598912
-0.06421108 -0.005307435 -0.03959868 0.034757473 -0.029520523 0.03608597 0.39320084 0.27964583
0.39182672 0.29331195 -0.048204064 0.10298111 0.04227913 -0.07376491 0.09572792 0.0047385194
0.048524126 0.032463726 -0.047392845 -0.068016835 -0.0158455 -0.04003391 0.11703464 -0.055342652
-0.043687817 -0.02478219 -0.13132347 -1.1409442 -0.4490854 -0.2541722 -0.018153483 -0.03043563
-0.02037848 -0.1595112 -0.015193138 0.02368933 0.05890431 -0.08259295 0.10360607 0.1868398
0.20829332 0.23300889 0.23512755 -0.026982835 -0.205069 0.0076315477 -0.16295736 3.6719464e-07
-1.1624348e-06 -2.259829e-07 2.5826648e-07 -2.3550344e-06 -4.1336716e-07 4.6688996e-07 -2.3646155e-07 1.1142178e-06
-3.6879633e-06 -3.3753054e-07 1.1305156e-07 6.616189e-08 -5.9267654e-07 4.7011565e-07 -1.050993e-06 -2.2119655e-06
-8.7133384e-07 9.692892e-08 4.2797245e-07 2.9554937e-07 -7.8838093e-07 1.828059e-07 -1.7052638e-07 -1.3085444e-06
00000000: 0a57 99bd b4ee 3e38 348e 40bd dc6b 963c
00000010: 3586 61ba 6126 863b de9e 25bd 82c7 68bb
00000020: 19d9 0cbd 7e11 1abd 613c 4fbd f29f d23c
00000030: 27cb 8c3d ffce 12bd dfad 40bd 623d f6bd
00000040: 5717 0abd acb8 90bc 5750 5ebd 8d08 923c
00000050: 1b12 673c 0434 063d f9cd 12bc 22e6 ae3c
00000060: 937c 943c 52d6 1d3e ee21 f33d 44d7 0dbc
00000070: 2900 8d3d bda6 f0bd 0b5d 793d b5f3 f4bd
00000080: e2cc 80bd 9430 fd3c 64fc 61bd 7fa5 053d
00000090: 7d08 b1bc 0c7b b7bc 6151 97bd 2886 21bc
000000a0: e780 15bd 78d4 cfbb f61a 4cbc d358 80bd
000000b0: 6346 ddbd 6830 48bd c034 8bbc 231b bcbb
000000c0: 461f b43c 7881 47bc 94c4 cdbd 0388 83bc
000000d0: 34aa 83bd 5918 afbb 5271 22bd 494c 0e3d
000000e0: 4075 f2bc 58f4 133d 865d c93e 2830 8f3e
000000f0: e69b c83e 7139 963e d5a4 45bd ecbf d23d
00000100: 440c 2d3d 071f 97bd 4e63 2b39 e084 0db7
00000110: cf77 2f38 c1ff b1b8 2e2c 6038 9b14 c7b8
00000120: 9b46 f338 dd16 abb8 052e 3f39 4bc3 af38
00000130: 321e da38 c622 1039 fc5f 23b9 456f 9339
00000140: 3ef3 0a39 d42f 8639 aee7 5439 3a0a e338
00000150: 9e43 6f39 c9b8 6137 f11e 2e38 9bc0 b238
00000160: 36a5 3539 d0ee 5239 373c 0d39 96e0 24bb
00000170: 8208 a3ba c668 03bb 670a 32bb 71bf 3939
00000180: d5ae 66b8 4839 6d39 d8cb 3bb4 bb2b 13b6
00000190: 32b3 0fb6 280d d0b5 b4b0 6eb5 c661 0fb6
000001a0: b995 1db6 8644 0ab6 7d6c 6eb3 ecea 29b5
000001b0: 8f65 1fb6 705a eab5 d7fb d9b2 64a0 e735
000001c0: 1818 2b33 1993 79b5 ceb5 f7b5 0d98 67b5
000001d0: 8a87 01b5 9e5e ffb4 22ad 10b5 45f9 6fb4
000001e0: 3c17 86b5 aafc 8db3 c417 09b5 fd5d a7b5
000001f0: 3bd6 b0b6 ac73 54b6 daf6 6bb6 888e 90b6
00000200: 5457 6734 6e26 47b5 f600 12b5 75a6 9336
00000210: 5406 bd3c 98dc 6cbd a0b2 b03c 65be b1bc
00000220: a1c9 94bc 59f4 a0bd 6fc6 1bbd a94a 0abd
00000230: ffd7 0ebc dfa4 11bb 3df1 37bd 0f74 9bbd
00000240: 87fd 2bbd a80c ee3c 27db de3a 86f6 033d
00000250: 0e4e 9dbb 9693 bebd 1172 c8bb 242f 2cbd
00000260: f98f 9d3b 5b0b afbc 2524 113d b090 bcbb
00000270: c553 cd3c f985 ba3e 9e11 8a3e eccf c53e
00000280: 424a 863e bc43 1abd e3d3 023e bc36 493d
00000290: 6301 87bd f71b fd3c 9212 62bd aa88 053d
000002a0: 8e27 b1bc ad7b b7bc d063 97bd 3444 23bc
000002b0: 668b 15bd c269 d0bb 7c90 4bbc c83d 80bd
000002c0: 8a13 ddbd c718 48bd 4e25 8abc 43a5 bbbb
000002d0: 2558 b43c 6c0b 47bc 5fb4 cdbd 9dfb 82bc
000002e0: 1981 83bd fee9 adbb 3a32 22bd da5d 0e3d
000002f0: 06d5 f1bc e2ce 133d 9f51 c93e bd2d 8f3e
00000300: 839d c83e fc2c 963e a071 45bd c3e7 d23d
00000310: e22c 2d3d 0f12 97bd 000d c43d 9545 9b3b
00000320: 3cc1 463d aff8 043d 001f 42bd 694c 8bbd
00000330: 6cce 81bc 99fa 23bd dbaf ef3d faae 62bd
00000340: fff1 32bd 0504 cbbc a979 06be 760a 92bf
00000350: 86ee e5be dc22 82be 9db6 94bc 2454 f9bc
00000360: c5f0 a6bc e756 23be a4ec 78bc 2010 c23c
00000370: a545 713d 7e26 a9bd 6b2f d43d ef52 3f3e
00000380: d84a 553e e299 6e3e 47c5 703e 1b0b ddbc
00000390: 9cfd 51be 1012 fa3b 4bde 26be d922 c534
000003a0: f504 9cb5 b5a5 72b4 e0a7 8a34 2f0b 1eb6
000003b0: c0ec ddb4 dea8 fa34 0ee6 7db4 3b8c 9535
000003c0: ba7e 77b6 d835 b5b4 c1c6 f233 e214 8e33
000003d0: 6c18 1fb5 3464 fc34 d80f 8db5 4771 14b6
000003e0: 9be5 69b5 3d27 d033 16c4 e534 ffab 9e34
000003f0: 20a1 53b5 4e49 4434 ef19 37b4 3ea1 afb5

bias f4 [64]
0.14680018 0.2011933 -0.0014498944 -2.9601517e-06 0.19491437 0.20118502 0.11739491 -3.1445277e-06
-0.06995739 0.06642071 -2.1181045e-06 0.17683475 0.20227937 -9.494243e-06 0.17759895 -0.040758263
0.16442329 0.0715527 0.18440004 0.20013344 -1.3648004e-06 -6.3044524e-07 0.24023296 0.17598653
0.10000774 -0.011724162 -6.394562e-06 -1.3057241e-06 -9.533607e-06 -0.26120862 -0.0001146447 0.16211411
0.14937986 -6.1398394e-05 -0.093009576 -4.17551e-06 0.10698484 -3.959274e-05 -2.434291e-06 -2.105327e-06
-0.051804267 -8.924457e-05 -1.3531965e-08 0.17044483 -0.029552437 -1.3043814e-08 0.20012635 0.20006683
-0.178333 0.039564844 -1.9786068e-05 -0.17450681 0.15744077 0.2011571 0.08092161 -0.030701958
-2.0514243e-08 -0.0001233652 -8.9505675e-06 0.058072746 -0.0047935518 -0.101360336 0.17174186 0.17378913
00000000: c952 163e 9e05 4e3e 620a beba 05a7 46b6
00000010: a297 473e 7203 4e3e be6c f03d 9306 53b6
00000020: d245 8fbd 9507 883d c224 0eb6 2b14 353e
00000030: 5322 4f3e 7749 1fb7 80dc 353e 23f2 26bd
00000040: 945e 283e 398a 923d 5dd3 3c3e c8ef 4c3e
00000050: 2f2e b7b5 de3b 29b5 a1ff 753e d035 343e
00000060: dcd0 cc3d b316 40bc df90 d6b6 5740 afb5
00000070: 88f2 1fb7 23bd 85be 686d f0b8 3e01 263e
00000080: 09f7 183e 03c3 80b8 ce7b bebd 5c1b 8cb6
00000090: de1a db3d 6210 26b8 cd5c 23b6 3e49 0db6
000000a0: b630 54bd d028 bbb8 367a 68b2 1789 2e3e
000000b0: f417 f2bc 4d17 60b2 eced 4c3e 52de 4c3e
000000c0: ed9c 36be bf0e 223d 42fa a5b7 eab1 32be
000000d0: 2738 213e 20fc 4d3e 3bba a53d ac82 fbbc
000000e0: 4c37 b0b2 985b 01b9 652a 16b7 b0dd 6d3d
000000f0: 3a13 9dbb 0296 cfbd 19dd 2f3e c7f5 313e

weight f4 [16, 64]
-0.13181289 0.15185387 -0.0023820135 -1.0258952e-07 0.15541454 0.15187302 -0.1360959 -1.9330937e-06
-0.4740087 -0.08425247 1.5755949e-06 -0.11064264 -0.16387056 -3.8452627e-06 -0.15624285 -0.64427716
-0.12692566 0.25722113 -0.16741389 0.15075275 -6.8139985e-07 -6.044794e-07 0.19204499 -0.13653986
-0.16770002 -0.04632685 -2.3845566e-06 -4.905447e-07 -8.975149e-06 -1.1369343 -5.686022e-05 -0.08400728
-0.119425826 -8.692215e-05 -0.74029726 2.1738174e-06 0.42596382 -0.00011912511 -6.273977e-07 -8.9627736e-07
-0.5425779 -9.5667565e-05 1.2117535e-08 -0.10700336 -0.46414286 3.5618608e-09 0.15132412 0.15243313
-0.3206999 -0.30905527 -3.298672e-05 -0.2662371 -0.15680219 0.15184891 0.2891034 -1.6234987
-1.5333569e-08 -0.0004336607 -4.503395e-06 -0.10642473 -0.005545584 -0.5350618 -0.17794944 -0.11041682
-0.10259865 0.12809145 -0.0016740646 -1.7571566e-06 0.13161653 0.12810853 0.16423032 -3.3927683e-06
-0.6730632 0.24964306 -7.6922277e-07 -0.13099438 -0.18992977 -6.688362e-06 -0.15018518 -1.0739391
-0.11837727 0.18428682 -0.19025356 0.12439224 -5.167528e-07 -5.9300635e-07 0.20255376 -0.12552759
0.27301314 -0.03544478 -3.0353272e-06 -3.9161188e-07 -1.1037864e-05 -0.95891154 -6.346952e-05 -0.08530336
-0.12274186 -0.00010543055 -1.2130747 1.7983128e-07 -0.11831515 -0.00011712012 -6.2479745e-07 2.0554789e-07
-1.1695935 -0.00011015994 -9.371058e-09 -0.11766367 -1.0413002 2.6260927e-09 0.12711696 0.13023864
-0.2556245 -0.36660016 -2.3667096e-06 -0.26146045 -0.14429912 0.12816966 0.25033373 -0.6385176
1.2820544e-08 -0.00036830912 -4.356302e-06 -0.21691035 -0.004788976 -0.7256904 -0.19952431 -0.11514106
-9.091559e-08 -1.668033e-07 -2.6260642e-07 -2.4845043e-08 -2.5911336e-07 -1.6213362e-07 -2.2906221e-07 -1.4781105e-07
2.6120754e-08 1.9207074e-09 -3.0721434e-08 -8.127389e-08 -1.2185981e-07 -1.7678303e-08 -1.4958667e-08 -9.685147e-08
-5.2164285e-08 -7.9686274e-08 -9.48625e-08 -1.4848992e-07 5.6346916e-08 -1.283213e-08 6.581618e-08 -1.0343909e-07
-1.02636255e-08 6.2438474e-08 -1.0407755e-08 4.2359014e-09 7.3354016e-08 -1.4964264e-07 -5.552311e-08 -1.1812391e-07
2.843952e-08 -4.158665e-08 -7.9545714e-08 -4.1107867e-08 -1.3541589e-07 -2.1965683e-08 -1.9037603e-08 1.8718316e-08
7.6047435e-10 -2.4535119e-08 1.0681802e-08 2.9887687e-08 6.197074e-08 -3.5538992e-09 -1.7679547e-07 -1.8035523e-07
-4.1278945e-08 9.436792e-08 1.133385e-08 -6.952598e-08 -5.4733114e-08 -1.6673168e-07 -1.13029714e-07 1.08103585e-07
-1.03598685e-08 -8.9887784e-08 1.5360856e-08 2.793588e-08 -2.9913586e-08 -2.3175561e-08 1.39168295e-08 -1.1524454e-07
0.17452088 0.015977217 0.00067079405 2.70761e-06 0.020759964 0.015995039 0.22961555 2.58492e-06
0.107549615 0.17903645 2.0008932e-07 0.17667684 0.19334356 4.8732095e-06 0.18170856 0.13423574
0.23115784 -0.06286156 0.21495727 0.014827329 1.283006e-06 6.057363e-07 -0.07098738 0.21924777
0.48754734 0.024582984 5.525602e-06 1.3118075e-06 1.15625635e-05 0.72019136 6.404963e-06 0.17939888
0.20134968 1.4533074e-05 0.10797514 2.097532e-06 -0.609843 9.686155e-05 2.1965386e-06 2.4887786e-06
0.2097364 -2.5863268e-05 2.4864516e-08 0.18480568 0.17639282 1.582065e-09 0.016459443 0.017885203
0.28430912 0.08678459 7.504822e-06 0.41585484 0.15032282 0.016052473 -0.11976264 1.6026129
-1.223707e-08 0.0002784132 7.5148537e-06 0.091499545 0.002201827 0.08294553 0.19524637 0.21958426
00000000: f5f9 06be 957f 1b3e 8e1b 1cbb 2f4f dcb3
00000010: fd24 1f3e 9a84 1b3e b95c 0bbe 4cba 01b6
00000020: 45b1 f2be 8f8c acbd 0779 d335 9c98 e2bd
00000030: afcd 27be 8e06 81b6 20fe 1fbe 59ef 24bf
00000040: cdf8 01be 7db2 833e 8c6e 2bbe ee5e 1a3e
00000050: 71e9 36b5 8243 22b5 71a7 443e 1bd1 0bbe
00000060: 8eb9 2bbe 39c1 3dbd 5f06 20b6 faad 03b5
00000070: f993 16b7 1087 91bf 327d 6eb8 020c acbd
00000080: 8795 f4bd f949 b6b8 1f84 3dbf e6e1 1136
00000090: ee17 da3e ced2 f9b8 716a 28b5 b697 70b5
000000a0: 63e6 0abf 22a1 c8b8 7c2d 5032 9424 dbbd
000000b0: 22a4 edbe ebc4 7431 b6f4 1a3e 6e17 1c3e
000000c0: c732 a4be 7e3c 9ebe 395b 0ab8 3b50 88be
000000d0: c190 20be 487e 1b3e 5c05 943e cece cfbf
000000e0: e0b6 83b2 f45c e3b9 de1b 97b6 35f5 d9bd
000000f0: bbb7 b5bb cff9 08bf 6138 36be 3722 e2bd
00000100: 3e1f d2bd 682a 033e 496c dbba 71d7 ebb5
00000110: 7cc6 063e e22e 033e fe2b 283e 51af 63b6
00000120: df4d 2cbf 6ea2 7f3e 967c 4eb5 6423 06be
00000130: f37c 42be 986c e0b6 25ca 19be d676 89bf
00000140: c86f f2bd afb5 3c3e d4d1 42be 5cc1 fe3d
00000150: fbb6 0ab5 162f 1fb5 416a 4f3e 4e8a 00be
00000160: 61c8 8b3e 8c2e 11bd 86b2 4bb6 ba3e d2b4
00000170: 442f 39b7 3a7b 75bf f01a 85b8 87b3 aebd
00000180: 1660 fbbd 981a ddb8 0846 9bbf a517 4134
00000190: 374f f2bd 639e f5b8 c1b7 27b5 93b4 5c34
000001a0: 3db5 95bf ab05 e7b8 59fe 20b2 a6f9 f0bd
000001b0: 5349 85bf b676 3431 f32a 023e 475d 053e
000001c0: 37e1 82be 04b3 bbbe c3d3 1eb6 25de 85be
000001d0: 26c3 13be e83e 033e be2b 803e e475 23bf
000001e0: 5941 5c32 9d19 c1b9 592c 92b6 bf1d 5ebe
000001f0: d8ec 9cbb d9c6 39bf 1a50 4cbe 13cf ebbd
00000200: 603d c3b3 8b1a 33b4 5afc 8cb4 d46a d5b2
00000210: 451c 8bb4 f316 2eb4 24f4 75b4 feb5 1eb4
00000220: 2560 e032 71fd 0331 93f2 03b3 cb88 aeb3
00000230: 92d8 02b4 00db 97b2 757e 80b2 a9fc cfb3
00000240: 3d0b 60b3 fe1f abb3 36b7 cbb3 9970 1fb4
00000250: 1702 7233 4e74 5cb2 d456 8d33 3e22 deb3
00000260: e753 30b2 ea15 8633 cacd 32b2 628b 9131
00000270: cc86 9d33 75ad 20b4 4e78 6eb3 4eab fdb3
00000280: 2a4b f432 019d 32b3 b8d2 aab3 948e 30b3
00000290: d666 11b4 0caf bcb2 2288 a3b2 03ca a032
000002a0: a009 5130 4cc1 d2b2 1083 3732 dc5d 0033
000002b0: c614 8533 db38 74b1 2bd5 3db4 aba7 41b4
000002c0: ae4a 31b3 50a7 ca33 cdb6 4232 504e 95b3
000002d0: b213 6bb3 db06 33b4 beba f2b3 9326 e833
000002e0: 2ffb 31b2 5508 c1b3 e1f2 8332 a6f7 ef32
000002f0: 567a 00b3 9913 c7b2 dd16 6f32 5b7c f7b3
00000300: 9ab5 323e a7e2 823c 3ad8 2f3a 63b4 3536
00000310: cd10 aa3c 0708 833c 5720 6b3e 9678 2d36
00000320: f942 dc3d 5555 373e 22d8 5634 c6ea 343e
00000330: dbfb 453e 8d84 a336 cf11 3a3e 1875 093e
00000340: a4b4 6c3e 90bd 80bd c21d 5c3e 53ee 723c
00000350: c033 ac35 e299 2235 d561 91bd 7d82 603e
00000360: ce9f f93e 4162 c93c 8f68 b936 5d11 b035
00000370: d5fc 4137 765e 383f 37ea d636 57b4 373e
00000380: 9c2e 4e3e 14d3 7337 1222 dd3d 53c3 0c36
00000390: ac1e 1cbf 2622 cb38 3f68 1336 e404 2736
000003a0: 24c5 563e f2f4 d8b7 a695 d532 b33d 3d3e
000003b0: 52a0 343e f76f d930 f4d5 863c fd83 923c
000003c0: f790 913e 1ebc b13d eed1 fb36 edea d43e
000003d0: 3aee 193e 7a80 833c 1d46 f5bd 6b22 cd3f
000003e0: 343b 52b2 fdf7 9139 1a28 fc36 1d64 bb3d
000003f0: 874c 103b 59df a93d aaee 473e b2da 603e

bias f4 [16]
0.33275685 0.3180252 -1.8470753e-07 -0.054963797 -1.797758e-06 -2.3600423e-08 0.047902133 -0.043860234
0.5694318 0.029998248 -4.3088825e-05 0.005670868 0.0510816 0.32235172 0.006382167 -0.00065850024
00000000: 1b5f aa3e 33d4 a23e 0554 46b4 b821 61bd
00000010: 7f4a f1b5 e1b9 cab2 0735 443d caa6 33bd
00000020: 48c6 113f e3be f53c 46ba 34b8 b0d2 b93b
00000030: f13a 513d 490b a53e 7f21 d13b 349f 2cba

weight f4 [4, 16]
0.5246534 0.5576055 -1.4693178e-08 -0.5604135 -9.312372e-06 -3.6634824e-09 -0.10313896 -0.53795815
0.23169379 -0.27935165 -1.6998794e-05 0.0668224 -0.0021367222 0.5285047 -0.2836345 -1.028428
0.5329008 0.56765664 4.385241e-08 -0.6025913 -1.6408546e-08 -6.666386e-09 -0.0247891 -0.571236
0.22150859 -0.27083045 3.105203e-05 -0.98621887 -0.10203013 0.5419182 -0.2628275 0.06866828
0.52988774 0.57714945 -3.633189e-08 -0.6865153 2.1350457e-08 1.3772123e-08 -0.37792686 0.08855081
0.18573646 -0.5214594 -4.2035517e-06 -0.02235211 -0.435444 0.5168695 -0.32614693 -0.040312972
0.49336043 0.5885757 -6.728941e-10 0.09075617 -5.3288214e-09 -2.7564301e-08 -0.41997668 -0.6713341
0.20706683 -0.42632267 4.367828e-06 -0.05559996 -0.37193102 0.53210133 -0.40331015 -0.046963874
00000000: af4f 063f 3cbf 0e3f 486d 7cb2 4277 0fbf
00000010: 553c 1cb7 aac0 7bb1 853a d3bd a0b7 09bf
00000020: 2341 6d3e 2e07 8fbe a298 8eb7 2fda 883d
00000030: 4008 0cbb 164c 073f 8b38 91be 87a3 83bf
00000040: 306c 083f f251 113f 3c58 3c33 6c43 1abf
00000050: c6f2 8cb2 270e e5b1 8312 cbbc 863c 12bf
00000060: 26d3 623e 4aaa 8abe dd3d 0238 d778 7cbf
00000070: 2cf5 d0bd 27bb 0a3f 5391 86be f5a1 8c3d
00000080: b9a6 073f 11c0 133f 560b 1cb3 77bf 2fbf
00000090: 2766 b732 709a 6c32 a17f c1be 215a b53d
000000a0: b331 3e3e 5d7e 05bf 3c0c 8db6 c61b b7bc
000000b0: 84f2 debe 8f51 043f bbfc a6be 371f 25bd
000000c0: bd99 fc3e e6ac 163f b6f6 38b0 5fde b93d
000000d0: cf18 b7b1 8ac6 ecb2 2f07 d7be 8ddc 2bbf
000000e0: 5409 543e f746 dabe 5b8f 9236 c9bc 63bd
000000f0: be6d bebe cb37 083f ab7e cebe 315d 40bd

bias f4 [4]
0.2411509 0.23512158 0.07282497 0.084760845
00000000: 43f0 763e b6c3 703e 4225 953d 1897 ad3d
