data/92400.pth (torch, 29207 bytes, 6 tensors)

weight f4 [64, 33]
-0.13132739 -0.20163235 -0.25793663 -0.18958393 -0.052417066 -0.12304463 -0.3966396 -0.034862105
-0.027614294 0.076118715 0.032158136 -0.064544946 0.08574299 0.28184104 0.05647609 -0.08089081
-0.023343092 -0.15687796 -0.404328 -0.10600114 -0.08066406 -0.14782764 -0.26340237 -0.15596895
-0.10267119 0.052933484 -0.8207038 0.043218132 0.2508078 -0.032891497 0.003662057 -0.016175479
0.013062152 0.0057174005 -0.032665707 0.013014171 -0.0031097035 -0.0056248074 -0.057599433 0.0019526201
-0.05277783 -0.021706725 -0.008245824 -0.043561675 -0.09550945 -0.03962363 -0.073832855 -0.061039932
-0.029433021 -0.0045150286 -0.08540857 -0.026977984 -0.06432447 -0.0029354354 -0.05801758 0.023907168
-0.016312873 -0.0125577245 0.4201234 0.30551094 0.39515352 0.31162485 -0.07267914 0.09549645
0.022286898 -0.06765049 4.7667e-06 -2.4599507e-07 1.2199928e-06 -2.474938e-06 1.5585816e-06 -2.768172e-06
3.382852e-06 -2.3791702e-06 5.316926e-06 2.4441208e-06 3.0330298e-06 4.008337e-06 -4.5434053e-06 8.200564e-06
3.8640137e-06 7.463795e-06 5.9211607e-06 3.156977e-06 6.653822e-06 3.9233436e-07 1.2105462e-06 2.4853775e-06
5.052046e-06 5.8657733e-06 3.928066e-06 -7.3366085e-05 -3.6270867e-05 -5.8477464e-05 -7.921613e-05 5.1658017e-06
-1.6038356e-06 6.597312e-06 -5.100353e-09 -6.395252e-08 -6.24418e-08 -4.520455e-08 -2.592895e-08 -6.2304274e-08
-6.8475046e-08 -6.008095e-08 -1.6187841e-09 -1.8459136e-08 -6.926433e-08 -5.0916757e-08 -7.400316e-10 5.0324914e-08
1.161737e-09 -2.7111012e-08 -5.382065e-08 -2.5158915e-08 -1.4072077e-08 -1.3870216e-08 -1.571599e-08 -6.5172068e-09
-2.9134371e-08 -1.9281592e-09 -1.4893599e-08 -3.6360422e-08 -1.53694e-07 -9.23219e-08 -1.0253476e-07 -1.2562455e-07
6.282862e-09 -2.1633825e-08 -1.5861636e-08 1.2832072e-07 0.005195313 -0.023760363 0.012087429 0.008664915
0.0112502705 -0.04190798 -0.0009881621 -0.03509122 -0.006639838 -0.010930811 -0.039714884 -0.09996904
-0.03999794 -0.04903491 -0.047088664 -0.02612069 0.011885613 -0.08458241 -0.017088838 -0.054149136
0.0048622605 -0.06187942 0.022704203 -0.015411338 -0.005194676 0.3765819 0.28380966 0.3651784
0.2797656 -0.06178488 0.09601067 -0.016789153 -0.06341212 0.005719964 -0.03264692 0.013015135
-0.0030790474 -0.0055880933 -0.057563916 0.0019443339 -0.05273934 -0.021676973 -0.0082390215 -0.043536127
-0.09548197 -0.039615333 -0.073768914 -0.061016273 -0.029424671 -0.004478458 -0.08539614 -0.02694136
-0.064289555 -0.0029020547 -0.05801687 0.023926495 -0.016300673 -0.012538651 0.42002204 0.30546087
0.39509684 0.31155998 -0.07266811 0.0954954 0.022217847 -0.06763079 0.04591437 -0.00598006
-0.048239358 -0.13145766 -0.04324442 -0.030799452 -0.107581034 -0.22318365 -0.05729427 -0.012446187
-0.049269054 -0.014892866 -0.1342645 -0.68192077 -0.2723067 -0.04809714 -0.027109798 -0.028065246
-0.08314657 -0.19578655 -0.036493592 -0.005312761 -0.052213047 -0.1305607 -0.022638623 0.39772695
0.40645242 0.36223668 0.27469522 -0.073346935 0.092663206 0.033081163 -0.17299004 1.0708701e-08
-3.3898253e-08 -6.5900516e-09 7.531035e-09 -6.867492e-08 -1.2053901e-08 1.3614696e-08 -6.8955934e-09 3.249152e-08
-1.0754737e-07 -9.843403e-09 3.2967844e-09 1.9294375e-09 -1.7283268e-08 1.3709327e-08 -3.0650547e-08 -6.4503844e-08
-2.5408713e-08 2.8266585e-09 1.2480149e-08 8.618571e-09 -2.29894e-08 5.3309317e-09 -4.972569e-09 -3.8160245e-08
00000000: b07a 06be b678 4ebe 4510 84be 4a22 42be
00000010: 47b3 56bd d3fe fbbd 5814 cbbe 91cb 0ebd
00000020: 5f37 e2bc 21e4 9b3d 40b8 033d 2430 84bd
00000030: 059a af3d 784d 903e 7953 673d 15aa a5bd
00000040: 033a bfbc 9ea4 20be 1404 cfbe 2017 d9bd
00000050: 3333 a5bd 2160 17be addc 86be 53b6 1fbe
00000060: 4645 d2bd c8d0 583d a519 52bf 7f05 313d
00000070: e169 803e 3cb9 06bd 1fff 6f3b 7082 84bc
00000080: a302 563c 0859 bb3b 7acc 05bd 6439 553c
00000090: 2bcc 4bbb 4e50 b8bb 62ed 6bbd 0fef ff3a
000000a0: 912d 58bd 4dd2 b1bc 7e19 07bc ba6d 32bd
000000b0: 759a c3bd 634c 22bd ae35 97bd 0205 7abd
000000c0: 851d f1bc cef2 93bb b0ea aebd ef00 ddbc
000000d0: 8cbc 83bd 6f60 40bb d8a3 6dbd f7d8 c33c
000000e0: 93a2 85bc eabe 4dbc 6a1a d73e ee6b 9c3e
000000f0: 9051 ca3e 4b8d 9f3e cdd8 94bd a593 c33d
00000100: 0393 b63c 578c 8abd a4f1 9f36 4e11 84b4
00000110: a2be a335 1c17 26b6 7530 d135 d5c4 39b6
00000120: f404 6336 d5a9 1fb6 0c68 b236 ad05 2436
00000130: 0e8b 4b36 5a7f 8636 8e73 98b6 2795 0937
00000140: a0a7 8136 8371 fa36 62ae c636 74dc 5336
00000150: e543 df36 06a2 d234 0d7a a235 76ca 2636
00000160: bf84 a936 9cd2 c436 d4cd 8336 1edc 99b8
00000170: 8c21 18b8 b345 75b8 d620 a6b8 e655 ad36
00000180: 5f43 d7b5 7b5e dd36 2e3f afb1 4556 89b3
00000190: be17 86b3 ee26 42b3 5dba deb2 23cc 85b3
000001a0: 8e0c 93b3 da05 81b3 e77b deb0 1290 9eb2
000001b0: 78be 94b3 91af 5ab3 186b 4bb0 d424 5833
000001c0: fdaa 9f30 bfe1 e8b2 6e28 67b3 0a1d d8b2
000001d0: a6c1 71b2 db49 6eb2 d4ff 86b2 f5ed dfb1
000001e0: 2943 fab2 8980 04b1 bede 7fb2 b52a 1cb3
000001f0: 1607 25b4 8042 c6b3 1531 dcb3 6ae3 06b4
00000200: a3e0 d731 49d5 b9b2 1b40 88b2 88c8 0934
00000210: 723d aa3b 18a5 c2bc 5a0a 463c 4af7 0d3c
00000220: 0e53 383c b4a7 2bbd 3885 81ba d0bb 0fbd
00000230: 0093 d9bb 2517 33bc 13ac 22bd 91bc ccbd
00000240: e1d4 23bd d4d8 48bd 0be0 40bd 0ffb d5bc
00000250: e0bb 423c 8b39 adbd e4fd 8bbc 7ccb 5dbd
00000260: 9953 9f3b 4675 7dbd 2afe b93c d67f 7cbc
00000270: 1a38 aabb 58cf c03e 804f 913e aaf8 ba3e
00000280: 703d 8f3e 2412 7dbd 3ea1 c43d 6889 89bc
00000290: 37de 81bd 896e bb3b c7b8 05bd 6f3d 553c
000002a0: d8c9 49bb 531c b7bb 24c8 6bbd 05d9 fe3a
000002b0: 3505 58bd e893 b1bc f6fc 06bc f052 32bd
000002c0: 0d8c c3bd b043 22bd 2814 97bd 33ec 79bd
000002d0: 020c f1bc 07c0 92bb 2ce4 aebd 21b4 dcbc
000002e0: 3eaa 83bd 6630 3ebb 19a3 6dbd 7f01 c43c
000002f0: fd88 85bc ea6e 4dbc 210d d73e 5e65 9c3e
00000300: 224a ca3e ca84 9f3e 05d3 94bd 1893 c33d
00000310: 3402 b63c 0382 8abd b510 3c3d 61f4 c3bb
00000320: a296 45bd d69c 06be 1021 31bd 224f fcbc
00000330: 7253 dcbd 418a 64be 65ad 6abd 18eb 4bbc
00000340: 59ce 49bd 3501 74bc a27c 09be 5c92 2ebf
00000350: c96b 8bbe 8201 45bd 5e15 debc 16e9 e5bc
00000360: c048 aabd 457c 48be 4e7a 15bd ab16 aebb
00000370: 59dd 55bd b4b1 05be a274 b9bc dea2 cb3e
00000380: 881a d03e 1677 b93e daa4 8c3e eb36 96bd
00000390: 35c6 bd3d 1d80 073d 4d24 31be 5df9 3732
000003a0: 8697 11b3 b56e e2b1 d861 0132 707a 93b3
000003b0: 9e15 4fb2 11e6 6932 48ee ecb1 ce8c 0b33
000003c0: cbf4 e6b3 bf1b 29b2 a58d 6231 0697 0431
000003d0: 4f76 94b2 4286 6b32 a2a4 03b3 5d85 8ab3
000003e0: 5a42 dab2 1a3f 4231 4768 5632 e010 1432
000003f0: 3a7a c5b2 5f2b b731 2edb aab1 a2e5 23b3

bias f4 [64]
0.1773159 0.20698893 -4.227848e-05 -8.632137e-08 0.17430511 0.20692992 0.19482227 -9.1692776e-08
-0.09995595 0.077955455 -6.1768816e-08 0.18572211 0.26981333 -2.768661e-07 0.2229021 -0.036861036
0.11354064 0.11422584 0.18455529 0.21119046 -3.9797435e-08 -1.8384355e-08 0.22201894 0.26496732
0.1313909 -0.00034191893 -1.8647263e-07 -3.8077292e-08 -2.7801687e-07 -0.027429113 -3.3431381e-06 0.053973116
0.20654479 -1.7904728e-06 -0.09410932 -1.2175408e-07 0.12048272 -1.1546342e-06 -7.098529e-08 -6.139804e-08
-0.041921277 -2.6026605e-06 -3.946079e-10 0.26691204 -0.029403774 -3.8037487e-10 0.20734861 0.20145299
-0.20726356 -0.008298076 -5.7701527e-07 -0.26794255 0.16658407 0.20684348 0.09979701 -0.04925586
-5.982608e-10 -3.5976427e-06 -2.6100358e-07 -0.1353779 -0.00013978215 -0.1151723 0.24300905 0.15714039
00000000: 4d92 353e e8f4 533e 2c54 31b8 ad5f b9b3
00000010: 0a7d 323e 70e5 533e 7d7f 473e a3e8 c4b3
00000020: b5b5 ccbd 1ca7 9f3d c4a5 84b3 f02d 3e3e
00000030: f924 8a3e 30a4 94b4 7340 643e 99fb 16bd
00000040: ff87 e83d 3def e93d 10fc 3c3e 5042 583e
00000050: beed 2ab3 a0eb 9db2 ef58 633e cca9 873e
00000060: 568b 063e 9543 b3b9 3539 48b4 6d8a 23b3
00000070: 5942 95b4 05b3 e0bc ad5a 60b6 ea12 5d3d
00000080: 7a80 533e 2d50 f0b5 63bc c0bd 82bb 02b4
00000090: a5bf f63d eef8 9ab5 9370 98b3 eed9 83b3
000000a0: a5b5 2bbd 5ea9 2eb6 20f0 d8af b2a8 883e
000000b0: 2fe0 f0bc 011d d1af 3253 543e b149 4e3e
000000c0: e63c 54be a7f4 07bc 30e4 1ab5 c42f 89be
000000d0: 0495 2a3e c7ce 533e 6062 cc3d 83c0 49bd
000000e0: dc72 24b0 086f 71b6 0f20 8cb4 81a0 0abe
000000f0: 7c92 12b9 74df ebbd 5dd7 783e 69e9 203e

weight f4 [16, 64]
0.06150971 0.17229974 -6.946291e-05 -2.9916067e-09 0.15108708 0.17225663 0.07197499 -5.6375097e-08
-0.4612367 -0.09347242 4.594411e-08 -0.3202927 -0.3016859 -1.12135524e-07 -0.32535896 -0.6097273
-0.2976715 0.2765617 -0.370622 0.17585978 -1.9870063e-08 -1.7626398e-08 0.17818731 -0.36958736
-0.18222827 -0.0013508489 -6.9537975e-08 -1.4305773e-08 -2.6171878e-07 -0.12499905 -1.6580798e-06 -0.21682806
-0.16505817 -2.5348593e-06 -0.7228299 6.339336e-08 0.35517687 -3.473665e-06 -1.8294891e-08 -2.6136279e-08
-0.53926384 -2.7896094e-06 3.5337344e-10 -0.3018803 -0.46871972 1.03864646e-10 0.17282037 0.16829297
-0.39335343 -0.32775006 -9.619068e-07 -0.6672941 -0.20079547 0.17218883 0.21683933 -1.6661494
-4.4717216e-10 -1.2645857e-05 -1.3132464e-07 -0.27315694 -0.00016173052 -0.42694834 -0.3666624 -0.10615919
-0.28258142 0.13255967 -4.8817914e-05 -5.124068e-08 0.097562216 0.13250181 0.20869106 -9.893537e-08
-0.60683805 0.23277524 -2.2431092e-08 -0.38873792 -0.36720014 -1.9504108e-07 -0.31731865 -1.0490726
-0.18219543 0.16470888 -0.42817968 0.13551039 -1.506843e-08 -1.729291e-08 0.1620592 -0.38585022
0.30265796 -0.0010335445 -8.8514554e-08 -1.1419481e-08 -3.2187185e-07 -0.094139725 -1.8507612e-06 -0.16361994
-0.28689796 -3.0744193e-06 -1.2353281 5.244174e-09 -0.090572834 -3.415304e-06 -1.8218557e-08 5.993936e-09
-1.1292707 -3.2123887e-06 -2.73281e-10 -0.29893568 -1.0981075 7.658147e-11 0.13232918 0.12734528
-0.29857358 -0.3286684 -6.901624e-08 -0.5484429 -0.24285375 0.13243106 0.26322606 -0.5919468
3.738594e-10 -1.074049e-05 -1.2704004e-07 -0.26674655 -0.00013964837 -0.6280081 -0.33879936 -0.22654565
-2.6510374e-09 -4.8638933e-09 -7.658521e-09 -7.2452855e-10 -7.555539e-09 -4.727841e-09 -6.6796555e-09 -4.310349e-09
7.6171436e-10 5.601223e-11 -8.9591057e-10 -2.370011e-09 -3.5540484e-09 -5.1552196e-10 -4.3621137e-10 -2.8244154e-09
-1.5211801e-09 -2.3238957e-09 -2.7663263e-09 -4.330195e-09 1.6431594e-09 -3.741962e-10 1.919406e-09 -3.0163037e-09
-2.9932165e-10 1.8208275e-09 -3.0347916e-10 1.2351876e-10 2.1390518e-09 -4.3638932e-09 -1.6190914e-09 -3.4447243e-09
8.292951e-10 -1.2126093e-09 -2.3197695e-09 -1.1988563e-09 -3.9486014e-09 -6.405111e-10 -5.551498e-10 5.4586624e-10
2.217645e-11 -7.154373e-10 3.1147027e-10 8.715519e-10 1.8070541e-09 -1.03631395e-10 -5.1552247e-09 -5.259255e-09
-1.2037603e-09 2.7520297e-09 3.3047784e-10 -2.027443e-09 -1.5960706e-09 -4.861783e-09 -3.296145e-09 3.152426e-09
-3.0208672e-10 -2.6212852e-09 4.4795928e-10 8.1462925e-10 -8.7231267e-10 -6.758101e-10 4.0581938e-10 -3.360729e-09
-0.47573155 0.020254778 1.9562143e-05 7.896425e-08 0.013502155 0.020262897 0.017966432 7.5374345e-08
0.076641776 0.14733781 5.834792e-09 0.062048405 0.14103614 1.4210615e-07 0.10320584 0.011994872
0.27683312 -0.03443401 0.21198183 0.018445365 3.7413546e-08 1.7663222e-08 0.019451486 0.25069344
0.46051672 0.0007168701 1.6113279e-07 3.8256214e-08 3.3716304e-07 0.07876079 1.8677444e-07 0.15851597
0.1947058 4.237934e-07 0.05577767 6.117126e-08 -0.66447 2.8246923e-06 6.405501e-08 7.25734e-08
0.07218622 -7.5418063e-07 7.250936e-10 0.14967315 0.05051754 4.6135592e-11 0.019440524 0.020690992
0.41375905 0.086909294 2.1884968e-07 0.8453724 0.011922429 0.020272572 -0.017123966 1.1027232
-3.568356e-10 8.119212e-06 2.1914397e-07 0.37576795 6.42056e-05 0.024423385 0.123353064 0.060452003
00000000: 9bf1 7b3d 586f 303e 9eac 91b8 e794 4db1
00000010: 92b6 1a3e 0b64 303e a067 933d 1321 72b3
00000020: 3727 ecbe 786e bfbd 1554 4533 68fd a3be
00000030: 9376 9abe 28cf f0b3 7395 a6be 1717 1cbf
00000040: 6668 98be 7f99 8d3e 2bc2 bdbe 9614 343e
00000050: bbae aab2 dc68 97b2 bc76 363e 8e3a bdbe
00000060: 0c9a 3abe f80e b1ba e854 95b3 74c5 75b2
00000070: 5b82 8cb4 80ff ffbd 308b deb5 2d08 5ebe
00000080: 0205 29be 8d1c 2ab6 610b 39bf de22 8833
00000090: bed9 b53e 1c1d 69b6 e426 9db2 4982 e0b2
000000a0: 320d 0abf 2035 3bb6 e444 c22f 0e90 9abe
000000b0: 08fc efbe 9966 e42e d3f7 303e fe54 2c3e
000000c0: 9f65 c9be dbce a7be de1a 81b5 c9d3 2abf
000000d0: 549d 4dbe 4552 303e 210b 5e3e 6244 d5bf
000000e0: e3d5 f5af 8b29 54b7 3e02 0db4 3adb 8bbe
000000f0: 3596 29b9 f998 dabe 2dbb bbbe fd69 d9bd
00000100: 83ae 90be b9bd 073e d6c1 4cb8 b913 5cb3
00000110: b3ce c73d 8eae 073e 1cb3 553e 4b76 d4b3
00000120: bd59 1bbf a25c 6e3e 7eae c0b2 a808 c7be
00000130: a801 bcbe 7c6c 51b4 9777 a2be 0348 86bf
00000140: 7091 3abe 72a9 283e 5e3a dbbe 3cc3 0a3e
00000150: d46f 81b2 838b 94b2 d9f2 253e 298e c5be
00000160: fcf5 9a3e 0078 87ba 6415 beb3 692f 44b2
00000170: bbcd acb4 54cc c0bd ac67 f8b5 fc8b 27be
00000180: 4ae4 92be 1f52 4eb6 3b1f 9ebf 3e30 b431
00000190: 407e b9bd 7a32 65b6 087f 9cb2 38f3 cd31
000001a0: f18b 90bf 6b94 57b6 e23c 96af 190e 99be
000001b0: c98e 8cbf 8967 a82e 4d81 073e cd66 023e
000001c0: a3de 98be 3947 a8be 1436 94b3 c166 0cbf
000001d0: a7ae 78be 029c 073e 91c5 863e d389 17bf
000001e0: 0888 cd2f 0e32 34b7 8068 08b4 0193 88be
000001f0: 936e 12b9 24c5 20bf 1c77 adbe 95fb 67be
00000200: 8b2d 36b1 421f a7b1 8892 03b2 2a28 47b0
00000210: 9dcd 01b2 8772 a2b1 df82 e5b1 3b1a 94b1
00000220: e260 5130 2a58 762e 1a44 76b0 addd 22b1
00000230: 7b3b 74b1 a2b4 0db0 4bcf efaf a417 42b1
00000240: c411 d1b0 68b2 1fb1 ba19 3eb1 ccc8 94b1
00000250: 88d5 e130 6fb7 cdaf 8ce6 0331 6047 4fb1
00000260: c78d a4af ac40 fa30 e5d6 a6af 71cf 072f
00000270: 99fe 1231 36f1 95b1 b786 deb0 3bb8 6cb1
00000280: 74f4 6330 e6a8 a6b0 d169 1fb1 02c5 a4b0
00000290: 44ac 87b1 f60f 30b0 3299 18b0 ec0b 1630
000002a0: ed10 c32d 6da8 44b0 8b3b ab2f 0392 6f30
000002b0: 105c f830 4ae3 e3ae d621 b1b1 e5b4 b4b1
000002c0: 8d71 a5b0 381e 3d31 9fae b52f 2853 0bb1
000002d0: be5c dbb0 b20c a7b1 6582 62b1 11a2 5831
000002e0: ed12 a6af 2322 34b1 aa44 f62f 70ec 5f30
000002f0: 8cc7 6fb0 e8c3 39b0 001a df2f 92f2 66b1
00000300: 1693 f3be 59ed a53c 6219 a437 0e93 a933
00000310: 2538 5d3c 60fe a53c 572e 933c 7cdd a133
00000320: 5df6 9c3d b9df 163e 607b c831 7826 7e3d
00000330: c76b 103e d795 1834 955d d33d 2486 443c
00000340: 12bd 8d3e ad0a 0dbd c411 593e bc1a 973c
00000350: a1b0 2033 d6b9 9732 b958 9f3c e45a 803e
00000360: d9c8 eb3e 57ec 3b3a d803 2d34 274f 2433
00000370: 5603 b534 564d a13d 2b8c 4834 0352 223e
00000380: f560 473e b985 e334 2077 643d 415d 8333
00000390: b51a 2abf d88f 3d36 9d8e 8933 a6d9 9b33
000003a0: 5ed6 933d e672 4ab5 ed4f 4730 eb43 193e
000003b0: 7beb 4e3d 0fe8 4a2e bc41 9f3c 2880 a93c
000003c0: 3ad8 d33e 80fd b13d f1fc 6a34 536a 583f
000003d0: 4b56 433c aa12 a63c 8f47 8cbc 0926 8d3f
000003e0: 252c c4af c037 0837 d64d 6b34 a864 c03e
000003f0: 1ea6 8638 8d13 c83c 88a0 fc3d 859c 773d

bias f4 [16]
0.34660894 0.32549277 -5.3863753e-09 0.020575576 -5.242478e-08 -6.8825146e-10 0.107186705 -0.014309658
0.5608124 0.088396624 -0.0030310643 -0.035831805 0.11474407 0.34089825 0.032019548 -0.04305292
00000000: ba76 b13e fda6 a63e 0f13 b9b1 1c8e a83c
00000010: a829 61b3 642f 3db0 b484 db3d 0e73 6abc
00000020: 6791 0f3f 4a09 b53d d2a4 46bb 5fc4 12bd
00000030: f0fe ea3d 378a ae3e ee26 033d 4258 30bd

weight f4 [4, 16]
0.53334016 0.5640419 -4.2847703e-10 -0.309849 -2.7155784e-07 -1.06831405e-10 -0.12592734 -0.34359077
0.2452724 -0.044603236 0.0028126999 -0.09661214 0.015101917 0.4977653 -0.305107 -1.3682486
0.515907 0.5510962 1.2787549e-09 -0.26418093 -4.7853116e-10 -1.9439907e-10 -0.014822941 -0.31902394
0.24352567 -0.057364058 0.0027378835 -1.4536737 -0.08389305 0.5347558 -0.18811211 -0.108168066
0.5425877 0.5889006 -1.0594896e-09 -0.76707107 6.22564e-10 4.0161294e-10 -0.33660322 0.060964353
0.17788185 -0.6529945 0.0012039711 -0.02295025 -0.3821166 0.49806526 -0.22073944 -0.014950943
0.4810435 0.5978507 -1.9621778e-11 0.09665956 -1.5538912e-10 -8.038118e-10 -0.40486163 -0.79916924
0.18963577 -0.17209719 4.2543215e-06 -0.035842303 -0.34482592 0.53662676 -0.44379866 -0.05252762
00000000: fb88 083f 0d65 103f c88e ebaf 87a4 9ebe
00000010: a0ca 91b4 bcec eaae 19f3 00be 21eb afbe
00000020: b028 7b3e e2b1 36bd 4655 383b 96dc c5bd
00000030: 086e 773c 18db fe3e fc36 9cbe c522 afbf
00000040: 7b12 043f a414 0d3f 30c0 af30 b942 87be
00000050: a389 03b0 79be 55af ecdb 72bc 1b57 a3be
00000060: cb5e 793e 93f6 6abd 106e 333b fb11 babf
00000070: 1fd0 abbd c2e5 083f 76a0 40be 3887 ddbd
00000080: 07e7 0a3f 31c2 163f 7a9d 91b0 c55e 44bf
00000090: 0c21 2b30 ffc9 dc2f 4257 acbe c2b5 793d
000000a0: a926 363e a62a 27bf 91ce 9d3a 2a02 bcbc
000000b0: c9a4 c3be 6902 ff3e 8509 62be cdf4 74bc
000000c0: 554b f63e be0c 193f 5198 acad 73f5 c53d
000000d0: 26da 2aaf 3af3 5cb0 064a cfbe 5b96 4cbf
000000e0: e12f 423e 3f3a 30be 58c0 8e36 61cf 12bd
000000f0: 068d b0be 5f60 093f 9439 e3be 3427 57bd

bias f4 [4]
0.2822401 0.27081108 0.0046952283 0.050295144
00000000: c681 903e c0a7 8a3e 6eda 993b 4802 4e3d
