data/98000.pth (torch, 29975 bytes, 6 tensors)

weight f4 [64, 33]
-0.104866505 -0.14353766 -0.1760567 -0.1784134 -0.033687674 -0.12951288 -0.38234648 -0.13229868
-0.0381533 0.06615115 -0.019722119 -0.1091685 0.061861742 0.32622963 0.099926196 -0.048990153
-0.030455286 -0.050354473 -0.22607337 -0.0419833 -0.030773744 -0.12008661 -0.1259894 -0.089152284
-0.08211333 -0.026857056 -0.8996245 -0.025419239 0.1916593 -0.0068091797 0.08071378 0.002365477
0.03340277 -0.016068289 -0.024153672 0.0069485432 0.0041275644 0.04191022 -0.03722569 -0.01756213
-0.0569856 0.015038413 -0.011701911 -0.043967906 -0.059070032 -0.032057077 -0.02206628 -0.017287724
0.009956378 0.033681784 -0.029803142 0.009608985 -0.035002597 0.04353384 -0.04380984 0.035472155
-0.019007435 0.012340041 0.38391954 0.28087914 0.36525398 0.28340155 -0.092649914 0.11695041
0.028017601 -0.061475288 1.0756089e-06 -5.550772e-08 2.7528736e-07 -5.584936e-07 3.5169043e-07 -6.2463323e-07
7.633535e-07 -5.368606e-07 1.1996482e-06 -0.0055926926 -0.0055941343 9.044868e-07 -0.005607132 -0.005603606
-0.00560395 -0.0056024333 -0.0055948994 7.123633e-07 1.5014172e-06 8.8529276e-08 2.7314718e-07 -0.0055981707
-0.00559867 -0.005599483 8.8636045e-07 -0.0055426992 -0.005583239 -0.005571843 -0.005450857 0.005527489
-0.0055707823 -0.005618713 -0.005605487 -1.4430643e-08 -1.4090017e-08 -1.0200132e-08 -5.8510525e-09 -1.40589425e-08
-1.5452088e-08 -1.3556713e-08 -3.6528852e-10 -4.1652912e-09 -1.5628997e-08 -1.1488713e-08 -1.6698909e-10 1.1355794e-08
2.6214647e-10 -6.117866e-09 -1.2144306e-08 -5.677097e-09 -3.1752259e-09 -3.1299268e-09 -3.5465093e-09 -1.4705116e-09
-6.5740786e-09 -4.3508272e-10 -3.3606855e-09 -8.204616e-09 -3.4681637e-08 -2.0832767e-08 -2.3136439e-08 -2.8348216e-08
1.417721e-09 -4.8816617e-09 -3.5795515e-09 2.8954615e-08 0.0041321297 -0.052424755 0.014883426 -0.017372932
-0.006708304 -0.07476881 -0.02235133 -0.06917339 -0.0010953436 -0.014694515 -0.048066493 -0.124393426
-0.060276486 -0.08843307 -0.0292348 -0.009933328 0.00011279525 -0.04758665 -0.012067861 -0.057394464
0.024591992 -0.050793946 0.012831452 -0.04464325 0.00917835 0.42390066 0.3191141 0.36956543
0.30362043 -0.0470755 0.09456542 -0.0033688804 -0.09165206 -0.016006835 -0.024174716 0.007003947
0.0041221343 0.04187956 -0.037238117 -0.017531324 -0.05698389 0.015031077 -0.011692341 -0.043956954
-0.05912557 -0.032048795 -0.022112707 -0.017270863 0.009958499 0.033697907 -0.029796613 0.0096696885
-0.034995478 0.04355084 -0.043821666 0.03551017 -0.019031039 0.012399555 0.38389227 0.28089467
0.36523843 0.28339055 -0.09261685 0.11691499 0.027932076 -0.06146099 -0.02608485 -0.059388556
-0.04666578 -0.08865561 -0.04785457 -0.11280995 -0.10033537 -0.20081322 -0.054466218 -0.009450169
-0.042391747 -0.09122479 -0.1692569 -0.34878808 -0.10907374 -0.03390519 -0.048443608 -0.062163334
-0.0985698 -0.16444066 -0.07168198 -0.026531145 -0.06341812 -0.1012832 -0.039006785 0.4944896
0.37234896 0.363341 0.29300347 -0.03032172 0.13592406 0.05886348 -0.21756808 2.416195e-09
-7.649391e-09 -1.4870423e-09 1.6993907e-09 -1.5496887e-08 -2.7198503e-09 3.0721445e-09 -1.5559732e-09 7.331966e-09
-2.4267216e-08 -2.221108e-09 7.439208e-10 4.3537154e-10 -3.899894e-09 3.0932608e-09 -6.916406e-09 -1.4555225e-08
-5.733195e-09 6.378154e-10 2.816086e-09 1.9447777e-09 -5.187759e-09 1.2028935e-09 -1.1221147e-09 -8.610766e-09
00000000: 40c4 d6bd 89fb 12be 3548 34be 01b2 36be
00000010: 16fc 09bd 069f 04be ebc2 c3be 4e79 07be
00000020: a246 1cbd 417a 873d 4890 a1bc bc93 dfbd
00000030: bd62 7d3d 9207 a73e 1ba6 cc3d e6a9 48bd
00000040: 5d7d f9bc 7e40 4ebd c77f 67be aef6 2bbd
00000050: 3819 fcbc f8ef f5bd 5e03 01be 7995 b6bd
00000060: 092b a8bd 5403 dcbc cb4d 66bf 023c d0bc
00000070: 5642 443e 8a1f dfbb 444d a53d 1e06 1b3b
00000080: 58d1 083d a5a1 83bc ecdd c5bc 9bb0 e33b
00000090: 8540 873b 0daa 2b3d f779 18bd 75de 8fbc
000000a0: bc69 69bd ad63 763c 5fb9 3fbc b117 34bd
000000b0: 6bf3 71bd 484e 03bd 58c4 b4bc fc9e 8dbc
000000c0: 1320 233c e9f5 093d b825 f4bc 016f 1d3c
000000d0: e25e 0fbd 8a50 323d f271 33bd 404b 113d
000000e0: 7bb5 9bbc e22d 4a3c 1a91 c43e 64cf 8f3e
000000f0: 9202 bb3e 021a 913e 3dbf bdbd b283 ef3d
00000100: 2b85 e53c 83cd 7bbd a45d 9035 6267 6eb3
00000110: 35cb 9334 63eb 15b5 f7cf bc34 78ac 27b5
00000120: 41e9 4c35 c81c 10b5 9903 a135 e842 b7bb
00000130: 004f b7bb dccb 7235 08bc b7bb 749e b7bb
00000140: 57a1 b7bb 9e94 b7bb 6b55 b7bb 3c39 3f35
00000150: 4d84 c935 7c1d be33 10a5 9234 dc70 b7bb
00000160: 0c75 b7bb de7b b7bb 3aee 6d35 889f b5bb
00000170: 9af3 b6bb 0294 b6bb 1a9d b2bb f01f b53b
00000180: 1c8b b6bb 2e1d b8bb 3cae b7bb a4ea 77b2
00000190: 8d10 72b2 a83c 2fb2 670a c9b1 e287 71b2
000001a0: 80bb 84b2 0ee7 68b2 cad1 c8af 4a1e 8fb1
000001b0: 8740 86b2 e55f 45b2 409b 37af 4f17 4332
000001c0: d61d 902f 5235 d2b1 39a3 50b2 4610 c3b1
000001d0: 2a33 5ab1 4116 57b1 dab6 73b1 071b cab0
000001e0: 35e2 e1b1 7330 efaf cef1 66b1 48f4 0cb2
000001f0: ddf4 14b3 bdf3 b2b2 91bd c6b2 6382 f3b2
00000200: a0d9 c230 8dbb a7b1 23fc 75b1 dfb7 f832
00000210: d166 873b 57bb 56bd 9dd9 733c ae51 8ebc
00000220: 55d1 dbbb 6420 99bd 231a b7bc c7aa 8dbd
00000230: a291 8fba 43c1 70bc 5fe1 44bd fbc1 febd
00000240: 7ae4 76bd 661c b5bd d27d efbc 66bf 22bc
00000250: 7d8c ec38 38ea 42bd 47b8 45bc 7516 6bbd
00000260: 2575 c93c 500d 50bd 033b 523c d7db 36bd
00000270: ca60 163c 8209 d93e ec62 a33e ae37 bd3e
00000280: 2374 9b3e 3dd2 40bd 84ab c13d 6fc8 5cbb
00000290: 13b4 bbbd c420 83bc 0e0a c6bc 5e81 e53b
000002a0: f812 873b e789 2b3d ff86 18bd da9d 8fbc
000002b0: f067 69bd e844 763c 3c91 3fbc 350c 34bd
000002c0: a72d 72bd 9945 03bd b525 b5bc a07b 8dbc
000002d0: f928 233c d106 0a3d 0718 f4bc 9d6d 1e3c
000002e0: 6b57 0fbd 5e62 323d 597e 33bd 1d73 113d
000002f0: fbe6 9bbc 8127 4b3c 878d c43e 6dd1 8f3e
00000300: 8800 bb3e 9118 913e e7ad bdbd 2071 ef3d
00000310: cfd1 e43c 85be 7bbd e5af d5bc 6a41 73bd
00000320: 9e24 3fbd 1391 b5bd 2703 44bd e708 e7bd
00000330: a17c cdbd fba1 4dbe f817 5fbd e2d4 1abc
00000340: f8a2 2dbd 10d4 babd ae51 2dbe 5a94 b2be
00000350: 0e62 dfbd 2be0 0abd ce6c 46bd fb9e 7ebd
00000360: f7de c9bd 2263 28be 00ce 92bd d857 d9bc
00000370: 5ce1 81bd 916d cfbd 94c5 1fbd be2d fd3e
00000380: 86a4 be3e d507 ba3e 8d04 963e 4165 f8bc
00000390: ad2f 0b3e d51a 713d 2bca 5ebe 270a 2631
000003a0: 616a 03b2 a660 ccb0 ff8f e930 041e 85b2
000003b0: 1de8 3ab1 bd1d 5331 f1d9 d5b0 a8ec fb31
000003c0: 2c74 d0b2 25a2 18b1 c67c 4c30 1959 ef2f
000003d0: d5ff 85b1 3891 5431 5aa5 edb1 8e0e 7ab2
000003e0: b7fd c4b1 4552 2f30 1c85 4131 e4a4 0531
000003f0: 0340 b2b1 0d53 a530 e738 9ab0 8dee 13b2

bias f4 [64]
0.10198162 0.20383205 -0.005095064 -1.9477614e-08 0.20028712 0.20380017 0.21842134 -2.069104e-08
-0.09841965 0.09948642 -1.3937952e-08 0.27433532 0.27090213 -6.247313e-08 0.20647134 -0.04933362
-0.026568232 0.10676344 0.2714514 0.2070022 -8.980755e-09 -4.148405e-09 0.20418179 0.18006776
0.13471168 -7.7147284e-05 -4.207585e-08 -8.591974e-09 -6.273107e-08 -0.006189025 -7.543275e-07 -0.020401109
0.1587666 -4.0400073e-07 -0.09208158 -2.7478059e-08 0.13592517 -2.6053547e-07 -1.6018117e-08 -1.3854254e-08
-0.03878353 -5.8727585e-07 -8.9043904e-11 0.15311868 -0.024393313 -8.583075e-11 0.20478493 0.2008186
-0.2302197 0.005655502 -1.3019982e-07 -0.25308025 0.20279644 0.20376548 0.09062873 -0.028528078
-1.3499792e-10 -8.117579e-07 -5.8898777e-08 -0.16551006 -3.154395e-05 -0.12322272 0.20770574 0.0062310086
00000000: bddb d03d 59b9 503e 7ff4 a6bb ba4f a7b2
00000010: 1118 4d3e feb0 503e d8a9 5f3e 14bc b1b2
00000020: 3e90 c9bd 89bf cb3d c373 6fb2 ae75 8c3e
00000030: afb3 8a3e f728 86b3 396d 533e 0d12 4abd
00000040: 9fa5 d9bc caa6 da3d aefb 8a3e 62f8 533e
00000050: c749 1ab2 c289 8eb1 0815 513e af63 383e
00000060: dcf1 093e 22ca a1b8 e3b6 34b3 e79b 13b2
00000070: c5b6 86b3 4ecd cabb fe7c 4ab5 3a20 a7bc
00000080: b693 223e 70e5 d8b4 4495 bcbd e408 ecb2
00000090: f82f 0b3e b9df 8bb4 3698 89b2 a703 6eb2
000000a0: 7bdb 1ebd 4aa5 1db5 43cf c3ae 25cb 1c3e
000000b0: 7cd4 c7bc 6bbe bcae 24b3 513e 64a3 4d3e
000000c0: b7be 6bbe ca51 b93b 0ecd 0bb4 bc93 81be
000000d0: dfa9 4f3e e6a7 503e 8e9b b93d b7b3 e9bc
000000e0: 896e 14af 94e7 59b5 e4f7 7cb3 787b 29be
000000f0: 0f4e 04b8 325c fcbd d0b0 543e 7d2d cc3b

weight f4 [16, 64]
0.15996113 0.1596471 -1.567507e-05 -6.750395e-10 0.15123434 0.15961055 0.14935666 -1.2720755e-08
-0.3975977 -0.14365825 1.0367733e-08 -0.31371522 -0.3079274 -2.5301638e-08 -0.27339384 -0.6448668
-0.29331666 0.34585702 -0.23771536 0.16288339 -4.4838657e-09 -3.9775454e-09 0.16539583 -0.18666553
-0.1669116 -0.00030483273 -1.569033e-08 -3.227965e-09 -5.9062096e-08 -0.028205521 -3.7415631e-07 -0.2705293
-0.20643881 -5.72001e-07 -0.72301185 1.4306389e-08 0.34414485 -7.8386233e-07 -4.1282044e-09 -5.8972764e-09
-0.5352777 -6.295155e-07 7.973613e-11 -0.09840403 -0.41473237 2.3437184e-11 0.1603171 0.15603295
-0.39498425 -0.33624133 -2.170469e-07 -0.7775302 -0.2481278 0.15955886 0.20329435 -1.5469122
-1.00900024e-10 -2.8535032e-06 -2.9637132e-08 -0.19764413 -3.6494315e-05 -0.4343585 -0.27053455 -0.010178619
-0.2883197 0.13856806 -1.1015619e-05 -1.1562164e-08 0.10678325 0.13850836 0.21453732 -2.2324489e-08
-0.5195812 0.28420043 -5.061775e-09 -0.38856697 -0.36654326 -4.4010577e-08 -0.29657167 -1.0414479
-0.1989662 0.2263915 -0.32074857 0.14230074 -3.400244e-09 -3.902056e-09 0.16119447 -0.23836109
0.22492784 -0.00023325048 -1.997109e-08 -2.5766824e-09 -7.262379e-08 -0.021243352 -4.1763442e-07 -0.2009388
-0.10897045 -6.937186e-07 -1.1817665 1.1833239e-09 -0.069865525 -7.7062657e-07 -4.1109676e-09 1.3524915e-09
-1.1702375 -7.248696e-07 -6.16598e-11 -0.20752686 -1.1239138 1.7279652e-11 0.1388493 0.1328418
-0.27005008 -0.33183262 -1.557339e-08 -0.6624144 -0.34635285 0.1384405 0.26354495 -0.5999987
8.435935e-11 -2.423543e-06 -2.8669069e-08 -0.27971146 -3.1513966e-05 -0.6232565 -0.34098864 -0.05868597
-5.982404e-10 -1.0974673e-09 -1.7281915e-09 -1.6348826e-10 -1.705027e-09 -1.0667873e-09 -1.5071615e-09 -9.726274e-10
1.7187914e-10 1.2638418e-11 -2.0215084e-10 -5.347736e-10 -8.019757e-10 -1.1633591e-10 -9.8428404e-11 -6.3731387e-10
-3.4325096e-10 -5.24388e-10 -6.241532e-10 -9.770756e-10 3.7077116e-10 -8.4435146e-11 4.3310486e-10 -6.8061656e-10
-6.7542305e-11 4.1086404e-10 -6.847874e-11 2.7876302e-11 4.827e-10 -9.846286e-10 -3.6535827e-10 -7.7728535e-10
1.8713696e-10 -2.7362776e-10 -5.234564e-10 -2.7052482e-10 -8.9115104e-10 -1.4453946e-10 -1.2527139e-10 1.2316365e-10
5.003777e-12 -1.6143863e-10 7.02878e-11 1.9666221e-10 4.0777215e-10 -2.3385351e-11 -1.1633196e-09 -1.1867706e-09
-2.7163594e-10 6.209603e-10 7.457876e-11 -4.5750445e-10 -3.601383e-10 -1.0970037e-09 -7.437756e-10 7.1134754e-10
-6.816877e-11 -5.9147864e-10 1.01076314e-10 1.8380923e-10 -1.968322e-10 -1.5249531e-10 9.157326e-11 -7.583219e-10
-0.31171185 0.0356824 -0.004985212 1.7818191e-08 -0.01613218 0.035657674 -0.05639653 1.700717e-08
0.019029735 0.20209502 1.3165584e-09 0.08115603 0.1941605 3.2066737e-08 0.20281313 -0.01442912
0.16779584 -0.0669597 0.16173819 0.036204185 8.442418e-09 3.9858308e-09 0.043618795 0.18860021
0.33264014 0.0001617647 3.6355313e-08 8.632511e-09 7.608379e-08 0.017772447 4.214357e-08 0.19970089
0.26448232 9.563212e-08 0.030540548 1.3804097e-08 -0.55697304 6.3733825e-07 1.4453418e-08 1.6375438e-08
0.036912728 -1.7018421e-07 1.6361504e-10 0.08292121 0.024769472 1.0410633e-11 0.034955334 0.032373548
0.41110292 0.009213823 4.938038e-08 0.895135 0.15778396 0.035611093 -0.016661977 1.2122612
-8.051598e-11 1.8322983e-06 4.9445948e-08 0.50135297 1.4488099e-05 -0.052221112 0.20048915 0.08072476
00000000: dacc 233e 887a 233e f57d 83b7 af8d 39b0
00000010: 2ddd 1a3e f370 233e f4f0 183e 798a 5ab2
00000020: ed91 cbbe 261b 13be c61d 3232 489f a0be
00000030: a9a8 9dbe e456 d9b2 47fa 8bbe fe15 25bf
00000040: 9a2d 96be 2c14 b13e a86b 73be e7ca 263e
00000050: 8010 9ab1 dcaa 88b1 865d 293e 4025 3fbe
00000060: e0ea 2abe f5d1 9fb9 67c7 86b2 f6d2 5db1
00000070: 76ab 7db3 440f e7bc a7df c8b4 d182 8abe
00000080: b264 53be 9c8b 19b5 4e17 39bf 2ac8 7532
00000090: c133 b03e 9c6a 52b5 12d8 8db1 fea0 cab1
000000a0: f607 09bf fafb 28b5 7357 af2e 0d88 c9bd
000000b0: cd57 d4be d927 ce2d 2a2a 243e 1ac7 1f3e
000000c0: 603b cabe d327 acbe 660d 69b4 380c 47bf
000000d0: 3715 7ebe 6663 233e 652c 503e 3801 c6bf
000000e0: aae1 ddae d07e 3fb6 be94 feb2 3963 4abe
000000f0: 7911 19b8 3d64 debe 8183 8abe 39c4 26bc
00000100: a49e 93be c9e4 0d3e b9cf 38b7 efa2 46b2
00000110: 2db1 da3d 23d5 0d3e acaf 5b3e 12c4 bfb2
00000120: 4603 05bf b882 913e d8eb adb1 40f2 c6be
00000130: 8fab bbbe 2406 3db3 3ed8 97be 2a4e 85bf
00000140: ccbd 4bbe 2cd3 673e 2839 a4be 49b7 113e
00000150: baa9 69b1 d912 86b1 2a10 253e ee14 74be
00000160: 7c53 663e b394 74b9 e48c abb2 7a11 31b1
00000170: 5af5 9bb3 8a06 aebc 3d37 e0b4 e7c2 4dbe
00000180: e62b dfbd fb37 3ab5 2044 97bf 82a2 a230
00000190: a815 8fbd 0edd 4eb5 7440 8db1 90e2 b930
000001a0: 58ca 95bf a994 42b5 6297 87ae ec81 54be
000001b0: 68dc 8fbf 51fe 972d 832e 0e3e ae07 083e
000001c0: 0144 8abe f7e5 a9be 3fc6 85b2 fd93 29bf
000001d0: 2955 b1be 59c3 0d3e 5def 863e 8499 19bf
000001e0: 1882 b92e 27a4 22b6 f343 f6b2 5736 8fbe
000001f0: dd2d 04b8 bd8d 1fbf 1096 aebe b360 70bd
00000200: 6d71 24b0 b3d5 96b0 5585 edb0 dbc1 33af
00000210: 4e56 eab0 3e9e 92b0 8824 cfb0 49ad 85b0
00000220: adfb 3c2f 6056 5e2d 6744 5eaf 59ff 12b0
00000230: 0672 5cb0 4cd3 ffae 4472 d8ae fa2e 2fb0
00000240: 47b4 bcaf 8624 10b0 e090 2bb0 cb49 86b0
00000250: 67d5 cb2f c3ac b9ae 171a ee2f 2216 3bb0
00000260: f086 94ae f9df e12f 1a96 96ae da33 f52d
00000270: feae 0430 8a53 87b0 9bdb c8af 98a8 55b0
00000280: 5fc2 4d2f af6d 96af f8e2 0fb0 fcb8 94af
00000290: 2ef5 74b0 3eec 1eaf c3bc 09af 7c6b 072f
000002a0: 040e b02c ef80 31af 8490 9a2e 7e3b 582f
000002b0: d42c e02f 21b3 cdad abe2 9fb0 c71b a3b0
000002c0: 5c55 95af 32b0 2a30 1c00 a42e 0784 fbaf
000002d0: f6fc c5af 63c5 96b0 8e72 4cb0 a288 4330
000002e0: 9be7 95ae 9c95 22b0 e844 de2e b319 4a2f
000002f0: 576b 58af 9dab 27af 2a5f c92e 2972 50b0
00000300: b298 9fbe b527 123d fd5a a3bb 9e0e 9932
00000310: a227 84bc c80d 123d 0c00 67bd 2a17 9232
00000320: 3fe4 9b3c fff1 4e3e 48f2 b430 2235 a63d
00000330: 03d2 463e c0b9 0933 3fae 4f3e 1e68 6cbc
00000340: acd2 2b3e 2b22 89bd b29e 253e d74a 143d
00000350: 260a 1132 bdf3 8831 9fa9 323d 6a20 413e
00000360: cf4f aa3e 629f 2939 1725 1c33 2f4e 1432
00000370: 8263 a333 8697 913c 5801 3533 647e 4c3e
00000380: 3a6a 873e 505e cd33 2c30 fa3c 1027 6d32
00000390: c995 0ebf 8d15 2b35 ce4e 7832 f8a9 8c32
000003a0: cd31 173d e1bb 36b4 8ae5 332f 98d2 a93d
000003b0: 59e9 ca3c 5325 372d 532d 0f3d 209a 043d
000003c0: 157c d23e 93f5 163c 4d16 5433 9127 653f
000003d0: 1e92 213e f0dc 113d b37e 88bc 602b 9b3f
000003e0: 780e b1ae 4aed f535 655e 5433 ab58 003f
000003f0: e911 7337 cee5 55bd 074d 4d3e 0653 a53d

bias f4 [16]
0.3551274 0.3452037 -1.2153548e-09 0.036322046 -1.182915e-08 -1.5529449e-10 0.113648675 0.011950228
0.541252 0.0880659 -0.000683963 -0.036495864 0.11451941 0.34208426 0.058555927 -0.03468744
00000000: 42d3 b53e 8abe b03e 7f09 a7b0 6dc6 143d
00000010: 2739 4bb2 83bf 2aaf a3c0 e83d e4ca 433c
00000020: 7e8f 0a3f e55b b43d fb4b 33ba b07c 15bd
00000030: 2789 ea3d ab25 af3e 57d8 6f3d 6b14 0ebd

weight f4 [4, 16]
0.5358646 0.54828733 -9.667821e-11 -0.30185735 -6.128144e-08 -2.4105098e-11 -0.13883954 -0.2935124
0.25354287 0.16112642 0.00063460856 -0.1150357 0.0027577314 0.49225003 -0.28287584 -1.3865885
0.51535046 0.5305224 2.885622e-10 -0.269363 -1.07984e-10 -4.386489e-11 -0.0019200444 -0.282788
0.24246366 0.1254756 0.0006177572 -1.4369419 -0.14000244 0.5140879 -0.17247193 -0.113028005
0.55083334 0.5843825 -2.390827e-10 -0.7758671 1.4049e-10 9.0623065e-11 -0.31159994 0.04809576
0.18434794 -0.7203634 0.00027167436 -0.033345822 -0.37180215 0.48086843 -0.2614629 -0.027673619
0.48747826 0.6071614 -4.4273717e-12 0.079553016 -3.5065253e-11 -1.8137894e-10 -0.41273212 -0.7876054
0.18281253 -0.037193574 9.599803e-07 -0.025928264 -0.375785 0.50642985 -0.43135947 -0.03608057
00000000: 6c2e 093f 8f5c 0c3f fe98 d4ae 0c8d 9abe
00000010: d499 83b3 db07 d4ad f42b 0ebe 4247 96be
00000020: 5fd0 813e 53fe 243e dc5b 263a d697 ebbd
00000030: 0ebb 343b 3208 fc3e 1ad5 90be bb7b b1bf
00000040: 02ee 033f 51d0 073f 85a3 9e2f f2e9 89be
00000050: 9675 edae 7aeb 40ae 00aa fbba 97c9 90be
00000060: 6548 783e ad7c 003e fcf0 213a b6ed b7bf
00000070: cd5c 0fbe 449b 033f 7b9c 30be 3a7b e7bd
00000080: 6a03 0d3f 179a 153f e66f 83af 3a9f 46bf
00000090: 6b78 1a2f 4048 c72e 078a 9fbe 0f00 453d
000000a0: b5c5 3c3e bc69 38bf 846f 8e39 a195 08bd
000000b0: da5c bebe 6334 f63e 77de 85be c9b3 e2bc
000000c0: c096 f93e ee6e 1b3f 38c6 9bac b1ec a23d
000000d0: f737 1aae a26d 47af a051 d3be 82a0 49bf
000000e0: 3533 3b3e 4a58 18bd acd8 8035 8367 d4bc
000000f0: e466 c0be 63a5 013f 26db dcbe 38c9 13bd

bias f4 [4]
0.27489612 0.2685252 -0.0026326892 0.031107942
00000000: 2fbf 8c3e 237c 893e 3289 2cbb 15d6 fe3c
